ce_results/10x10_grid/best_weights_ce_actual.npy (npy, 6528 bytes, 1 tensors)

array f8 [100, 8]
000000 ed 33 87 3c 1e 73 35 c0 d8 c9 12 50 1d 99 10 c0
       -21.449680121429925 -4.1495258819072305
000010 f8 60 45 d8 c5 07 26 c0 e9 82 20 73 1b 9d 23 c0
       -11.015181311101045 -9.80685004970424
000020 5c f9 3a af 35 2e 20 c0 15 20 7a ef f7 45 f8 3f
       -8.090253330182058 1.517082152802691
000030 f2 61 4f 1b b0 1e 0b 40 95 ce de e1 5c ec 30 c0
       3.389984334335389 -16.923292271515113
000040 fd 21 8a d8 d2 44 2f c0 ea dc 8c b5 b3 90 1a c0
       -15.634421126233969 -6.6413105361200255
000050 e9 b6 b2 a0 84 9e 29 c0 87 a0 6f 43 e7 50 f4 3f
       -12.809605619254812 1.2697517999859274
000060 da 23 72 fa bc af 0f c0 08 06 db b2 ed 06 05 c0
       -3.9608096662600305 -2.6283830617037474
000070 c2 c2 86 02 a8 0b 19 40 b8 2d d4 ed fd 8a 1e c0
       6.261383094287057 -7.635734287333825
000080 e1 01 58 5d 8d 68 32 c0 f2 4c 21 b5 7f f3 11 c0
       -18.408407052980582 -4.487791853101259
000090 f4 4d 6c 07 ee 5b 2d c0 59 5f d5 11 33 bd ff bf
       -14.679550392122998 -1.9836912819500496
0000a0 ee df c5 bd 5c a7 14 c0 98 b0 2c a1 db c4 1d 40
       -5.163439717485728 7.442244070389414
0000b0 f5 ed 5b 6f a7 e5 fb bf 49 96 39 3a 56 75 1c c0
       -1.7435678815808136 -7.1145867440842006
0000c0 77 33 79 7e c6 09 2f c0 a7 dc 74 65 48 3d 08 c0
       -15.519092514319466 -3.0299232412613324
0000d0 6c 2a 91 f9 d1 54 25 c0 ce 56 6b e3 11 7d 0b c0
       -10.665664481134819 -3.4360692755825317
0000e0 d6 26 47 b8 56 3e 14 c0 1a d4 77 1f 27 73 f1 3f
       -5.060877684920078 1.0906134824010736
0000f0 32 2b 97 6d 88 72 13 40 b4 90 be 65 4f ce 1b c0
       4.861848556853873 -6.951474752193622
000100 86 05 8d b9 53 50 32 c0 fb 43 62 96 71 07 07 c0
       -18.313777539185615 -2.878634619592501
000110 1e b1 fe c8 8c 58 24 c0 8c ee fe 6a 9e d0 0a c0
       -10.172949105348888 -3.3518646582650202
000120 10 9b 54 74 e4 2e 13 c0 3e 72 55 0f ea 0a e9 bf
       -4.795793359435962 -0.7825823115814001
000130 88 07 78 01 f2 0e 15 40 17 c4 2f 21 cf 17 1f c0
       5.264595053626074 -7.7732510743526495
000140 00 3b 50 26 b1 3c 2e c0 0c c4 49 25 8c 9c 0f c0
       -15.118539044660338 -3.9514391816269434
000150 e5 ac aa 19 09 da 28 c0 74 ae 83 24 dd 5b 11 c0
       -12.425850679478069 -4.339710779702376
000160 49 c4 cb 50 13 b1 13 c0 d8 3e d1 99 21 74 fc 3f
       -4.922925245701728 1.7783523567667796
000170 5a ce e8 11 53 f1 0d 40 fc fa c2 77 fa e6 1b c0
       3.7428342246219417 -6.975564833903942
000180 ac 5e 57 4e a2 7e 30 c0 9c ce b2 3c f6 7c 0d c0
       -16.494664093332787 -3.6860165350024783
000190 2c 7d 33 87 3c 03 27 c0 8c 91 cd 57 70 f2 0f c0
       -11.5063211679795 -3.993378339730219
0001a0 fa b9 71 b1 91 8c 14 c0 66 df a6 72 10 3e f4 3f
       -5.137274525228799 1.2651524046504732
0001b0 a8 d6 bd cc fe 77 11 40 b3 f5 8e 1f b7 e1 1c c0
       4.367182921492407 -7.22042512235696
0001c0 7d 2a c4 e6 ab 76 31 c0 1c 6f da 46 f8 7c 07 c0
       -17.463560507671435 -2.936020425358846
0001d0 e8 b7 17 a8 3f de 25 c0 9a e3 41 0e 41 5d 09 c0
       -10.934079411406813 -3.1705342401368855
0001e0 d2 bd b5 26 42 64 12 c0 32 a8 ad 2b 21 5b d3 3f
       -4.597908596842403 0.3024371077104916
0001f0 4c 78 d2 1d 28 a7 10 40 d0 ff 88 1c 15 58 1e c0
       4.163238969775261 -7.5860180338494985
000200 10 42 d2 9d 55 5f 2f c0 93 4e b8 54 2f b2 0e c0
       -15.68620007697703 -3.83700433909855
000210 ef 62 2a e5 92 a6 28 c0 53 ba 62 c0 8c af 0d c0
       -12.325339471267823 -3.7107176809434264
000220 91 d4 36 95 e2 78 14 c0 46 9b be 91 a0 f9 07 40
       -5.118051845046595 2.996888292912817
000230 a0 d0 c8 4c 67 f8 09 40 38 b3 12 e1 38 0e 1a c0
       3.246290778997789 -6.513888851896631
000240 36 9c 6a 65 18 c8 30 c0 70 83 25 ad 1a ff 09 c0
       -16.781622255828744 -3.249562599856681
000250 8d 2e 44 79 1e f7 26 c0 99 8b 5d 28 6d 58 0b c0
       -11.482654370854357 -3.418176951746727
000260 ce 1d a5 62 94 f3 12 c0 38 ee 03 9b 2d d9 f3 3f
       -4.73787073262015 1.2405220084464315
000270 f6 57 03 b9 7b de 0c 40 af 39 c1 9c ef 0f 1d c0
       3.608634419836558 -7.265562485974825
000280 be ef 17 d7 c0 57 30 c0 56 6b 70 3f a6 83 0c c0
       -16.342786258071776 -3.564281936281456
000290 cb 6d f6 07 a6 c1 27 c0 39 44 ef ea 84 8f 0b c0
       -11.878219841796541 -3.4450777391689624
0002a0 df b4 4a 9b 6e f0 13 c0 39 a7 22 3b 38 9c 02 40
       -4.984796930727696 2.326279127116234
0002b0 f4 f3 f4 01 ab 59 0a 40 7a 9d e2 8c ed 43 1b c0
       3.2937832024458604 -6.816335870105258
0002c0 81 7b c3 f0 0e 24 31 c0 a0 fa b7 95 b6 99 07 c0
       -17.140852973675923 -2.9500552841921746
0002d0 83 8f 66 ef 15 e2 25 c0 d6 0d fe ba 0c f2 0a c0
       -10.941573601979831 -3.3681883438855307
0002e0 e7 f3 13 d7 5e 91 12 c0 23 3e 62 61 26 3b e2 3f
       -4.641963348954028 0.5697204496409011
0002f0 44 59 9d 80 a6 bd 0e 40 7b f9 13 8c 29 bc 1d c0
       3.842602734376813 -7.433752239913129
000300 9f b8 8f 6b 18 17 31 c0 ec ce d6 a4 53 8a 09 c0
       -17.090216372097185 -3.1925423505834853
000310 90 e2 f5 c0 41 9e 26 c0 cc f1 ae 74 f1 d9 0a c0
       -11.309095411315212 -3.3564175716294127
000320 8f 5d c8 c7 04 f1 12 c0 f9 22 40 f1 e1 69 f0 3f
       -4.735369798282945 1.0258502410744639
000330 e1 7d 79 5f 4e ec 0b 40 10 44 df 0a 70 a1 1d c0
       3.4903838595343903 -7.407653970601146
000340 9c b4 6c 32 f5 ce 30 c0 fc 93 4a b2 53 56 0b c0
       -16.808428908862524 -3.417151825810377
000350 f9 83 98 65 dd 4f 27 c0 00 2c 29 f6 59 02 0b c0
       -11.65598599898111 -3.3761481505694064
000360 bb 86 7d 4a 82 6d 13 c0 74 4b a7 f3 90 a0 fa 3f
       -4.856942333137051 1.6642007367815639
000370 0b 17 38 c4 07 43 0a 40 10 52 25 d9 87 c2 1c c0
       3.282729657136661 -7.189971344855181
000380 6d 33 25 cd 0c 17 31 c0 57 61 f2 72 b4 4b 09 c0
       -17.090039083082434 -3.1619652729242875
000390 80 51 a7 51 0a 88 26 c0 9c 94 97 73 87 e4 0a c0
       -11.265703727411847 -3.3615864782937717
0003a0 7f 76 c1 17 44 e1 12 c0 75 c8 04 60 00 b7 ee 3f
       -4.719986315901791 0.9598390460362355
0003b0 1e c2 26 a8 d3 48 0c 40 cb ef f5 91 99 a8 1d c0
       3.535559953387078 -7.414648323665413
0003c0 86 ef d7 c7 7b 04 31 c0 c7 8c 9a 72 02 21 0a c0
       -17.01751374265543 -3.266117949811448
0003d0 98 aa a3 c1 a8 dd 26 c0 50 33 94 99 eb e0 0a c0
       -11.432928134182745 -3.3598243711807427
0003e0 99 ba 67 2e 47 08 13 c0 66 5d a6 a3 e8 98 f2 3f
       -4.758084034997091 1.162331237084652
0003f0 d4 f0 30 de 64 b8 0b 40 b7 b1 01 27 7a 83 1d c0
       3.4650361403165366 -7.378395661810308
000400 0b 46 69 05 98 c3 30 c0 0e 03 5b ed c6 9e 0a c0
       -16.764038408471645 -3.327527860965694
000410 e1 7a 02 36 a2 16 27 c0 47 8a 27 4b bc 26 0b c0
       -11.544206321528181 -3.393913828987283
000420 1a 46 41 7e a1 37 13 c0 04 80 c5 5b bc 56 f7 3f
       -4.804326985105513 1.4586757263969057
000430 cc c3 6d ee ef 04 0c 40 b5 d4 86 8c eb cb 1c c0
       3.5024107577560013 -7.1991407353681796
000440 37 6f c3 03 b6 f9 30 c0 db 92 0a 29 63 20 0a c0
       -16.975433573926434 -3.2658141332961867
000450 d8 93 c1 29 b2 dc 26 c0 4e 5c 6f 66 13 f4 0a c0
       -11.431046776657169 -3.3691776278242633
000460 e0 6a 8a e6 44 11 13 c0 83 85 6e e4 46 5e f3 3f
       -4.766864397238095 1.2105168269266364
000470 93 af a6 5e b0 b6 0b 40 ec ac e4 68 ad 5c 1d c0
       3.4642035860651474 -7.340505255658382
000480 90 13 7f c1 ec ed 30 c0 5e c6 3f 48 66 4e 0a c0
       -16.929393857502475 -3.288281025358443
000490 d0 2a 06 30 92 f6 26 c0 9f 1f f4 73 9e 05 0b c0
       -11.481584072830998 -3.3777436312556826
0004a0 21 2e 56 55 dc 0d 13 c0 a4 aa fa 25 b8 a5 f3 3f
       -4.763535817513486 1.2279588206826384
0004b0 9b 28 96 fb e1 ed 0b 40 a9 41 b7 af 43 5a 1d c0
       3.4911536841583035 -7.338148828086937
0004c0 6d 5b 40 45 c5 f7 30 c0 23 85 e5 b7 34 48 0a c0
       -16.967853859150114 -3.2852568022650686
0004d0 a5 30 e1 78 8f f1 26 c0 ab 44 9b cb e6 f6 0a c0
       -11.471797730912224 -3.3705573946723084
0004e0 fd 9f 7e cd d9 0b 13 c0 6d 14 ee 62 5b 3e f3 3f
       -4.761573038915228 1.2027238716557591
0004f0 06 22 f9 1b 97 ca 0b 40 a3 2c cc b3 d9 70 1d c0
       3.4739210305599526 -7.360205468499006
000500 06 6e c1 15 2c fd 30 c0 a4 ba 2c cd f3 55 0a c0
       -16.98895393345267 -3.291968920638583
000510 b1 71 fa 38 7a f5 26 c0 68 e3 ee 37 3f ec 0a c0
       -11.479448109218398 -3.3653549546983648
000520 1f ef 4f 7d 5a 0d 13 c0 d5 46 16 e6 9b 36 f3 3f
       -4.7630405025518305 1.20083227040998
000530 dd a6 4d f6 16 a7 0b 40 70 ef 22 ff 63 7e 1d c0
       3.456586765522714 -7.373428331858904
000540 1a 0b b9 b9 f0 f1 30 c0 d2 1c f3 ae a6 48 0a c0
       -16.94507942931805 -3.285474173349578
000550 66 6a 08 23 c9 f0 26 c0 14 c0 19 9d 1d f9 0a c0
       -11.470284552361772 -3.371638514850938
000560 f9 77 53 80 b0 12 13 c0 1c bc 08 2f 8d c7 f3 3f
       -4.768251423925897 1.2362186276693654
000570 28 9c a7 69 f2 d4 0b 40 46 58 c3 41 f1 56 1d c0
       3.478977990558196 -7.334904696987058
000580 08 fd 31 26 94 f5 30 c0 91 2b bb f0 ea 62 0a c0
       -16.959291827396584 -3.2982996756667906
000590 71 a8 40 7b 97 fd 26 c0 fc eb d9 51 9c f6 0a c0
       -11.495296336787051 -3.3704153437261066
0005a0 f9 95 44 91 b3 0d 13 c0 41 e0 96 50 48 7c f3 3f
       -4.763380307971141 1.2178424022695398
0005b0 ca 8e 65 45 73 c7 0b 40 b9 16 f9 36 ec 71 1d c0
       3.4723878308885547 -7.361252650216266
0005c0 ca 59 b9 49 42 fd 30 c0 7a 63 6e 62 dc 55 0a c0
       -16.989292724372525 -3.2919242563188478
0005d0 da ad 15 a2 c5 f5 26 c0 2a 27 9b 2e 49 ec 0a c0
       -11.480023446222663 -3.365373958692449
0005e0 4a a2 e6 0a 83 0c 13 c0 54 c2 7b e6 e5 2a f3 3f
       -4.762218637778071 1.1979731562861575
0005f0 be 21 ae 27 1d aa 0b 40 0a b4 48 0c 11 80 1d c0
       3.4580634212508974 -7.375065032899338
000600 97 f6 5d 23 15 fa 30 c0 4f 3a 23 96 85 43 0a c0
       -16.9768850426104 -3.2829696397305166
000610 fe 3b 52 3c 1a ed 26 c0 07 54 b4 77 ab ef 0a c0
       -11.463090786970493 -3.3670262672335443
000620 fa 39 9a 31 d0 0f 13 c0 68 be e2 61 b1 61 f3 3f
       -4.765442633665311 1.211350805631719
000630 7f da 3a b9 99 b5 0b 40 b6 6a 08 5f 4c 6c 1d c0
       3.463672110661093 -7.3557600830924255
000640 de 4e e4 35 a5 f0 30 c0 e2 76 e6 4f 20 5b 0a c0
       -16.9400209123986 -3.2944952242095136
000650 4f cc 0c 65 44 fa 26 c0 10 6b 76 8c cf fb 0a c0
       -11.488803060352579 -3.3729544614446993
000660 64 bf 55 4f f0 10 13 c0 c1 4b 72 26 25 c6 f3 3f
       -4.766541709526653 1.2358752729239628
000670 e1 d5 71 72 d1 d9 0b 40 34 6c 72 7b 37 5e 1d c0
       3.481356519793494 -7.342008522852712
000680 d2 2d ef 0c b7 ed 30 c0 cd 2b 96 65 33 56 0a c0
       -16.928574379342372 -3.292090219159468
000690 3b 62 b4 62 52 f8 26 c0 60 f8 9b 98 66 ff 0a c0
       -11.485003551978584 -3.3747074053381283
0006a0 d4 5f 4b 85 76 12 13 c0 ad 68 59 ad 6e ec f3 3f
       -4.768030245519146 1.245222737451097
0006b0 d5 a3 e8 40 6d e5 0b 40 e0 e2 9d 96 34 53 1d c0
       3.487024790858849 -7.33125529612218
0006c0 92 02 6d 89 c7 ef 30 c0 0d 1d db a8 4a 53 0a c0
       -16.93663844024065 -3.29066974562341
0006d0 aa f5 53 d7 ad f6 26 c0 c0 b5 d1 7c 36 fd 0a c0
       -11.481795052527406 -3.373639083051529
0006e0 44 a1 b6 77 ad 11 13 c0 74 9d 5d 47 da d0 f3 3f
       -4.767263288995597 1.238489416858866
0006f0 94 17 dc fd a0 dd 0b 40 02 85 32 8b 2a 58 1d c0
       3.4832172234336642 -7.336099791487188
000700 a4 89 05 4a b1 ef 30 c0 61 4b 2c d9 5a 53 0a c0
       -16.936298967697113 -3.290700623192081
000710 05 c3 3a 71 77 f6 26 c0 60 14 33 9a 7c fc 0a c0
       -11.481380022452422 -3.3732845351064924
000720 d6 5a 8b 0a 5a 12 13 c0 79 c4 84 d6 94 da f3 3f
       -4.767921604877037 1.240864599192973
000730 59 11 4d 46 53 dd 0b 40 7b 19 49 bf a2 56 1d c0
       3.4830689899701324 -7.334605206333772
000740 40 07 d4 91 1d ef 30 c0 d3 d0 c3 4a d8 52 0a c0
       -16.934044946922995 -3.290451606846639
000750 72 e4 aa 7e 64 f6 26 c0 c0 1a 0b 5f 75 fd 0a c0
       -11.481235464440235 -3.373759024168379
000760 64 e2 34 d8 66 12 13 c0 ab b6 8d bc 0b df f3 3f
       -4.767970445850185 1.24195455220926
000770 52 b3 b4 a7 e5 df 0b 40 ca d4 7c 3f 22 55 1d c0
       3.4843247510929496 -7.333138458246319
000780 8c a0 c4 1e 6e ef 30 c0 37 6f e8 b0 c5 52 0a c0
       -16.93527405071704 -3.2904161282475815
000790 d0 23 5a 82 5a f6 26 c0 4b 61 76 b0 35 fd 0a c0
       -11.481159280303388 -3.373637560475037
0007a0 49 a5 de 82 2c 12 13 c0 9b 54 ce 9f a0 d9 f3 3f
       -4.767747921790325 1.2406316988392863
0007b0 c5 db 60 3b d8 de 0b 40 44 d7 06 78 3c 56 1d c0
       3.4838108672078953 -7.3342150453734725
0007c0 6f b7 0f f0 99 ee 30 c0 44 95 7a 14 b9 52 0a c0
       -16.9320364035006 -3.290392074576319
0007d0 a4 7c e8 01 74 f6 26 c0 93 2b 39 30 3a fe 0a c0
       -11.481353816632982 -3.374134423012444
0007e0 ec 6e 1d 53 81 12 13 c0 38 35 a8 09 1b e4 f3 3f
       -4.768071459456888 1.2431898476819025
0007f0 78 09 8f 58 f2 e1 0b 40 aa d9 7a 2d cb 53 1d c0
       3.4853255194331574 -7.331829748748001
