ce_results/10x10_grid/best_weights_ce_constant.npy (npy, 6528 bytes, 1 tensors)

array f8 [100, 8]
00000000: dcc5 3d3b 83ec 32c0 b7d5 68c1 879a 03c0
00000010: 2580 3e2f 3809 2ac0 26e9 a87c 0fdc 2bc0
00000020: 1a19 61e3 e017 e13f d2ed 28d9 bdcb 1a40
00000030: a8e1 a915 0886 3040 24ec 3529 8f5d 2cc0
00000040: 2d52 9ded ccfc 2fc0 af75 99ff 8562 0cc0
00000050: 1c36 414e 51b6 25c0 f749 51a0 d4d6 2dc0
00000060: 2e32 8323 0647 1340 2ae2 b0a2 9499 0f40
00000070: 68e9 54b7 803f 2540 1171 8ffd 1bf8 20c0
00000080: 83b2 44a8 e117 29c0 ff38 23d5 5641 0ac0
00000090: 4262 788c 12d9 22c0 faf0 cec1 7f6c 30c0
000000a0: f4a3 b76e 08cd f73f 79de d073 8e0a 20c0
000000b0: 2651 e56b d8cf 1f40 095d e12b b6e9 21c0
000000c0: e2b2 2bd9 159e 33c0 fc8f 3787 cde1 01c0
000000d0: 6f22 4290 5265 28c0 1785 aa47 65b9 30c0
000000e0: dbc1 6ec6 4961 1740 2ab4 86b2 2d12 04c0
000000f0: 0c84 5748 6326 04c0 b409 77fb 186e 10c0
00000100: ccbb ee3e 5800 2cc0 bae4 0a00 c086 0ec0
00000110: 983a ca24 fa29 2ac0 2170 dedb 033a 25c0
00000120: 2a9d 223a 3547 0b40 e450 da5a ebc0 e5bf
00000130: da4f 2e24 d3d1 fcbf 9891 4093 828f 1bc0
00000140: 8adf 8307 c25e 32c0 aaf5 992a 689e 0ac0
00000150: f2b7 4a19 d516 24c0 5c7b fd2a 7d5f 2ec0
00000160: 3a12 b5c4 96e9 2240 b613 2023 9185 0dc0
00000170: 85d8 8741 3b4b f73f 9497 2119 1b94 0fc0
00000180: b2aa acf7 5d9c 30c0 a431 8c36 288b 13c0
00000190: df62 f649 6e77 2dc0 7d94 4295 992a 25c0
000001a0: 13a4 2e7e 5d5c 2040 a4d7 5c2b d187 e23f
000001b0: 446d 9727 930e e4bf 92c1 4bc5 d330 17c0
000001c0: fe69 892b 168a 31c0 88dd 2668 7c39 12c0
000001d0: 8cf5 3f50 3134 27c0 4a60 0ee5 7bae 28c0
000001e0: ee17 6d8f cf9e 2140 a871 f581 4b4c cfbf
000001f0: e880 76eb bfd4 07c0 6ce1 e9f5 81e8 09c0
00000200: 4452 710c f310 30c0 2a98 f751 5e2a 0ec0
00000210: 3044 3269 904d 2ac0 b7e6 e31d a372 27c0
00000220: 1ce8 e110 fb72 2340 23fb 7f91 fd8a fbbf
00000230: e207 6776 6a34 0cc0 b343 889d c2ba 11c0
00000240: 870b 9cc1 eae2 31c0 08e0 fc7d 636c 0ac0
00000250: 12a9 2c87 f002 2dc0 bd73 964d 68f9 26c0
00000260: 5f12 5db9 a5b7 2140 2e07 89fe 4cd5 02c0
00000270: 8c97 a52e efd2 07c0 8302 aba7 f751 12c0
00000280: 4a33 f827 a4b2 30c0 3151 3a33 34d9 14c0
00000290: cfcc 1620 cefc 29c0 ea97 bd5c a063 24c0
000002a0: 1800 f0f5 62bb 2540 de64 9a26 f5e5 0dc0
000002b0: 2e15 3e75 171a fbbf d935 ec22 57ba 13c0
000002c0: c076 e62b 9a77 33c0 56f8 0d6f 00fa 11c0
000002d0: 0dd9 5f82 e12e 2cc0 9256 c4c7 28c6 22c0
000002e0: 85f4 858e c699 2640 7fda 1109 6520 03c0
000002f0: 349e b825 459b 02c0 e01a c3dd 41d1 0fc0
00000300: 943b 8514 daa9 30c0 e279 5c9f 9cce 0fc0
00000310: a59a ab6c e124 2fc0 4de0 662a af80 27c0
00000320: f40b 80ea d030 2040 0803 0e46 5a92 10c0
00000330: d8a0 418b 954b f5bf ef34 6bde b080 11c0
00000340: 624a b840 7eb7 31c0 cd02 411b fdac 05c0
00000350: 9c1c 2bf7 f152 2dc0 7f26 28a6 2475 26c0
00000360: ec6c 7d35 5da0 2540 1142 db0a bd78 0dc0
00000370: 416e 129d a530 07c0 78b7 79d4 66d2 0fc0
00000380: e305 20de 4368 30c0 50e6 106b f86e 10c0
00000390: 9602 38fc 0ff7 2ac0 2b31 c21d 0dd2 26c0
000003a0: d0a6 14ca d4f8 2340 2980 ce01 e456 05c0
000003b0: c99d 409c bd3c 09c0 df95 d784 a531 11c0
000003c0: 7011 d37b c537 33c0 b0ab c7b8 4f6c 0ec0
000003d0: 463b bd21 e4a5 30c0 8531 2b32 dd73 27c0
000003e0: 8a04 dce7 8d20 1c40 6045 c5e7 c75e bdbf
000003f0: c019 ad40 7f97 ce3f ee49 5bcc c133 06c0
00000400: 6345 d67a 5f62 31c0 c21a 1e12 1b7d 0cc0
00000410: eec2 4afd 51b7 2ec0 18bf 0d11 ab62 23c0
00000420: 43f2 318d 4533 2240 19ff be2c 826e 09c0
00000430: f498 8ae9 8ec5 f2bf ba1f 3786 40f3 0bc0
00000440: f4dc f9e9 69f1 32c0 3a72 e1b9 a861 14c0
00000450: 4871 1089 a3a3 2cc0 e373 a48b 8238 24c0
00000460: 02e0 741b c430 2140 b79b 3794 efde f0bf
00000470: 60da e3d3 f459 febf d026 26f8 bab4 0fc0
00000480: a55b e024 06e7 32c0 11a6 2c1b e4ad 15c0
00000490: 3e40 e384 5663 31c0 7aa7 eecd 1a0f 21c0
000004a0: c1dc 984f 024e 2340 e013 65cf d917 d73f
000004b0: 70ce c1bb 11be cfbf e988 030f c104 01c0
000004c0: af9d 1fc8 3475 31c0 20d3 a3ec f29a 0ac0
000004d0: f216 78d6 e4d2 2dc0 a42c b03a 03b9 27c0
000004e0: ba98 36ce 85d2 2140 e5e9 4619 fa17 04c0
000004f0: 5fdb abda e93e fabf dc0f 0748 38ca 08c0
00000500: cc09 c409 8104 30c0 b20c 4df6 b444 0cc0
00000510: f1e1 863e e79c 2ec0 d2ef 82f3 a91c 26c0
00000520: cd5b 4794 7223 2540 3c83 2988 cadb 06c0
00000530: c2e1 ac91 4d06 ebbf 16d3 2fa9 d2d6 05c0
00000540: b5eb 276f cbf0 30c0 d34d 46a3 8cf4 13c0
00000550: 3fdf c3f4 b7b4 2fc0 c0d4 88b5 1661 23c0
00000560: 5a76 8536 fd15 2840 d4a9 5f46 d41e 0fc0
00000570: a2ac ee9e f602 ebbf 828a a321 2295 10c0
00000580: 527e 3d30 8e76 32c0 3a32 1acd 158c 17c0
00000590: 8f8f 9420 b4e2 30c0 0ddd 1e4f fd87 26c0
000005a0: e78c b96b 47b7 2340 1401 39c5 c92f de3f
000005b0: eaf3 3c2b f546 d83f 7bc4 e33d 51be 0cc0
000005c0: 5f3c 111f 44fa 31c0 a7f0 ba4a b7d5 06c0
000005d0: 1645 9079 ae44 32c0 9f48 38cd aa48 24c0
000005e0: c84c af7e 98c0 2340 da33 7ce0 85f1 13c0
000005f0: b899 f132 f125 c8bf 5cdc 0bd8 b7d5 0ac0
00000600: 9200 707c bccb 31c0 0af3 1e36 8bdc 11c0
00000610: 4285 795d 1d1f 2fc0 50db d16b 31e2 25c0
00000620: 5271 b536 1c60 2840 ed1c 1f6d 8611 11c0
00000630: 552f 29ae 91af d33f 04fe a342 bf9a 10c0
00000640: 30db d177 ea86 2fc0 ac01 1a33 be01 16c0
00000650: 570d 5242 728c 35c0 fc1b 0fef 3ecc 1bc0
00000660: 8bb5 a370 16bb 2240 a498 25f4 a0e2 fbbf
00000670: 981c 2cfa 9c00 efbf 76ec 323e 3fb9 17c0
00000680: 8217 8858 8f60 30c0 c6b7 b5aa 2e75 10c0
00000690: 72a7 3fad af9f 33c0 f889 8d35 5208 24c0
000006a0: 8556 b47b 6b18 2440 c363 fff8 e9f5 f4bf
000006b0: 85c9 e5a0 f264 febf ca0e 5240 654f 14c0
000006c0: da62 b2ca 94e5 31c0 9e43 89ca f68b 0cc0
000006d0: fc0c 1795 780b 33c0 cb87 7bb9 bec3 20c0
000006e0: 2b04 71fd 0271 2740 8c0d 71c2 af6f f43f
000006f0: 46f2 11ee a420 e0bf 6ec7 c6dc e98b 10c0
00000700: 37b1 a2fe 96bf 30c0 98cb d555 48d9 13c0
00000710: e890 9f10 875a 31c0 dc33 e862 ee19 1bc0
00000720: 32a7 9447 81dc 2540 2461 28aa 4a03 d8bf
00000730: 096c e37c 33c2 f0bf 264a bbdf a6d4 10c0
00000740: f932 fee1 0868 31c0 e0ed 4e84 02d5 03c0
00000750: 90fa b77d d96b 30c0 bdd3 8b3c bbf9 1cc0
00000760: 55f6 8af6 3514 2740 ad2e 33e1 d540 02c0
00000770: be70 b519 a2fe dc3f 1e2a 55c8 4a14 10c0
00000780: 7dd6 a45c 1cb6 2fc0 50d1 c17d 1f68 1ac0
00000790: 26ff 89ac 8b1b 33c0 8926 4be0 592b 19c0
000007a0: 035d 1e69 10c6 2440 006c e914 ca48 59bf
000007b0: fd46 919b 7942 d03f fa85 3fd4 599a 0dc0
000007c0: a549 89c0 0542 32c0 d7e8 5b8a fc52 0ec0
000007d0: 2cad c92d e069 31c0 5e9a 0a17 3687 1bc0
000007e0: 9786 e7ab 9078 2340 b9fd b979 1b66 01c0
000007f0: 0e58 3087 2b39 c13f d24e a86c 090b 11c0
-18.92387743242385 -2.45045424557858 -13.018006779078926 -13.929805656069743 0.5341648522378677 6.698966401217563 16.523560861563652 -14.182732856590583
-15.993750977949356 -3.5481071442324814 -10.85608906312978 -14.919590959475483 4.819359354860849 3.949990530989699 10.624028901210025 -8.484588550338716
-12.546643503557112 -3.281903901231203 -9.423969640441218 -16.42382441808966 1.4875568699737842 -8.020618075606068 7.952974019881628 -8.956467982540305
-19.61752087895264 -2.235255295165187 -12.197895534585056 -16.724201659327345 5.845007992277227 -2.5088762233122184 -2.5187440540034967 -4.1075171748547525
-14.000673262254985 -3.8157958987545415 -13.081986570058959 -10.613310690787388 3.4097694913686114 -0.679799725958699 -1.8012267506901396 -6.890146542373621
-18.37014815301476 -3.3273471191630124 -10.044594564791598 -15.18650183052312 9.456228396514337 -3.690218233505642 1.4558670577803536 -3.9473173106552597
-16.61080882993219 -4.885895588213689 -14.733263312651102 -10.583202995660253 8.180400794213744 0.5790792319228228 -0.6267791531821918 -5.797682841061389
-17.539400788353298 -4.556138636943963 -11.60193873196365 -12.340788991932772 8.810177309100222 -0.24451583715098235 -2.9788816829242144 -3.238529130172699
-16.066208627382608 -3.770687713974458 -13.151492392908125 -11.723900732107138 9.7245717311635 -1.7214332278815128 -3.5255936861221793 -4.432383023683474
-17.88639459666913 -3.3029241411968577 -14.50574133320018 -11.487123894325004 8.858686249362277 -2.3541507611816064 -2.9779952663693106 -4.58004629117261
-16.697817323776043 -5.2121131901115385 -12.993760111602027 -10.194582842010238 10.865989385172767 -3.737283994280559 -1.693870027521665 -4.9319730240508415
-19.4671962201744 -4.494142279842057 -14.0915642492296 -9.387029879300176 11.300342992641399 -2.3908177097867447 -2.3258154818502366 -3.977176411167747
-16.663483889129182 -3.9758846712204425 -15.572032352397693 -11.751336407716872 8.095343902712536 -4.142922491650786 -1.3309531631185134 -4.3756747010167905
-17.71677021502763 -2.709467137261845 -14.66200230027453 -11.22879523506276 10.81321112781594 -3.6839543197786573 -2.898753382801971 -3.977735195126055
-16.407285578554262 -4.108369515329812 -13.482543832623644 -11.410256319003187 9.985998454113911 -2.667427076448821 -3.154658528062758 -4.2984829670508296
-19.217857111959745 -3.802886432260003 -16.648012264918428 -11.726296966335903 7.031791327289406 -0.11472749145948091 0.23899832399383847 -2.775271984611428
-17.384269406616465 -3.5610867896496936 -15.358047404647973 -9.692711384704623 9.100140011164632 -3.178959226206541 -1.173231994887428 -3.4937754140446176
-18.94302236890958 -5.095370201478142 -14.31960705114092 -10.110370982956686 8.595246179596874 -1.054427699063792 -1.896962001510154 -3.963247240700049
-18.902437500739 -5.419815468406811 -17.38803892658347 -8.529501376516908 9.652361380968047 0.3608307385769063 -0.24798795383286487 -2.127321355147718
-17.457836635321367 -3.325658653974088 -14.911902143630389 -11.861352762227689 8.911177105106947 -2.511707494236577 -1.640359739479855 -3.0987401606707703
-16.017593965874582 -3.5335482828391713 -15.306451753583106 -11.055984124883171 10.56923354502751 -2.857319892660966 -0.8445194096776094 -2.7298939912528892
-16.940604159590027 -4.9888177405986935 -15.85296597376839 -9.689626381829271 12.042947486678873 -3.890053319734969 -0.844111738600436 -4.145638013464692
-18.46310712338738 -5.886801914905442 -16.885561023969384 -11.265604469792857 9.857966772461124 0.4716667581560767 0.37933091375799555 -3.592928393853581
-17.977601949413266 -2.8543535078334403 -18.26828727504934 -10.141928113098684 9.876163443468968 -4.985862262325975 -0.1886579035519398 -3.3543545607204077
-17.795844819397253 -4.465374799384117 -15.56077091320424 -10.94178330361106 12.18771525349499 -4.267114357971178 0.30759088523767747 -4.151120225199978
-15.763507599227154 -5.501702116453469 -21.548618454963925 -6.949458823487472 9.365405578598049 -1.7428292786585553 -0.9688248525789218 -5.930905315263876
-16.377187283731026 -4.114435832348994 -19.623774364510105 -10.01625220635195 10.0476950318946 -1.3100375868291259 -1.8996454510748617 -5.077534680374535
-17.896801632453254 -3.5683418105258644 -19.044808691146486 -8.382314487771415 11.720725936933453 1.2772672267318255 -0.5039848947340679 -4.136634301788815
-16.748397745818888 -4.96218999974635 -17.353623427349618 -6.7753234342789845 10.93067382516492 -0.3752009069153408 -1.0474123838855596 -4.207667823606732
-17.406385540542917 -2.4790087067210465 -16.421287400643052 -7.243878313097352 11.539474205458797 -2.281657943129025 0.45304157744045515 -4.0198165227871225
-15.855685134050185 -6.601682629542054 -19.107600005808443 -6.2923350377910845 10.386843953091107 -0.0015432332471820853 0.2540573138440861 -3.7003666479001796
-18.257900270001887 -3.7905207452105105 -17.413576947915473 -6.882042274496227 9.735478755962772 -2.1748570928463917 0.13455719090478663 -4.260778138897608
