ce_results/6x5_grid/10_times/ce_constant/best_weights_ce_1.npy (npy, 6528 bytes, 1 tensors)

array f8 [100, 8]
-11.022525741037441 -3.1228170431809135 -15.70290690010356 -6.2834152377151264 -5.935871617548799 9.547646367005667 -8.674840377577251 -7.403763368186166
-0.40791517124209087 -2.296605281532338 -12.151005500695142 -5.20207145004725 -15.65503048518018 -4.371232873145843 -1.0491607074580775 -7.935222500128345
-8.401457371794178 0.04473754257091711 -17.573114270054226 -10.751439787186708 7.856508620974768 17.52096124691461 2.951993327345133 -7.883947078273781
-6.273086249796084 -2.2000328020356763 -14.111909643497928 -19.10220911265144 7.2235745352288365 16.661133182197517 -7.605633897892036 -9.586190995031394
-3.3180972060129443 -4.150790622905815 -14.364375464543349 -11.519849650558102 6.1993033516938 7.115267291411035 -4.387362712084537 -6.9332011386770285
-8.989374778012712 -3.0722060076275595 -19.69668440297008 -11.551607795623958 -0.10954853659883979 17.225596307595694 -1.3979323073062748 -10.190450545508515
1.7074570306052022 -1.680035958945422 -14.198076766682327 -11.706875664597687 4.203750292886124 -4.59317935210147 -0.15720227879997983 -6.738460095701678
-0.4949470197890644 -0.9294629497843242 -14.934996391354233 -11.156125379547458 1.6948038431778811 -1.6793013464985904 -1.444535071938494 -7.159385482568579
-2.378733027649499 -2.591816573448523 -13.381306505642911 -11.237329943883575 -0.8820799859579537 5.412346448794157 -2.246611006982226 -6.419524667622647
-0.768622076478801 -2.76484508682118 -15.779114146430517 -10.967154498728537 -1.5752374310838813 3.7397466894473164 -0.1580463703380286 -9.618985201347495
0.4652099386535897 0.7361902016175572 -13.754190647955154 -10.882349812602447 3.733465562274367 4.915597051891865 -0.8121694789623786 -9.232258328826344
0.7829709228214143 -0.7097784540074387 -17.041141652906568 -14.063926966083828 5.465271752171505 -0.5429553577391779 1.3454933660674624 -8.170875119531495
0.6786075064501988 -3.9087557339343206 -14.79406954747272 -12.937092917498008 -0.6146831490739073 3.7126439751233002 -1.3981727003332316 -7.159690248740031
-1.3426394777524753 -1.0929323849260475 -14.772928351590826 -10.683358496640055 2.133497435962749 2.9491120216718647 -0.4516981365276679 -6.974721980100016
0.20884828575110087 -0.6676280751946475 -13.806829856182912 -10.340182465150669 1.775437733075971 3.675819630717744 0.08485701381156607 -5.929727790835524
0.30032156088954626 -1.0260660714398075 -16.000894743228564 -10.890231877853832 3.321995593947557 1.208616706164668 1.038307592248437 -7.4299132482477965
1.284270863888588 -2.267130713315547 -16.797201812368936 -13.243886972177116 0.7919249784969999 2.9855447430615305 -0.027296765561505176 -6.828082590760794
-2.537964823366546 -4.488603147182261 -15.61921424446699 -10.986169700127446 2.6355667439876633 3.001475871495278 -0.05053201732654174 -2.7235443705754716
0.6056697675658929 -4.768795500098653 -13.490404342411562 -10.560544048447358 2.080155010456421 3.5146953858911263 -0.5978835027888747 -6.3452684287724495
-2.0386914739405047 -4.2477998688149095 -15.270165458638138 -11.305269886063844 2.8214350434966144 2.198201568469963 -1.012079749371619 -5.026628056691522
1.4884326864516224 -3.5541197155377606 -17.557562334708706 -12.459877249558954 1.351200728184982 2.3182750572544184 -1.3130909610518497 -5.643363337309367
-0.26985868722063355 -5.10251500513794 -15.580849415140078 -12.142816786619395 1.3292879025737916 3.3091019910437662 -1.569225583789026 -4.192119987494975
-0.6699590029210832 -1.1338090374071688 -16.387171389782807 -9.48622687035307 3.4010571892213792 2.155963826765197 -0.4205852006241094 -7.641146498112361
-0.2152049041561726 -5.089188125940406 -14.205925822928073 -8.11510812286143 3.2153228791662976 2.2436435918076594 -3.954904078991375 -6.722161112685182
-2.6430128362278973 -3.0955254305506683 -15.292539463295924 -8.397491760900056 2.6362871280642137 2.3860471814979594 -3.9456277568488916 -9.556229425633575
0.4174199010779295 -2.7850649475165796 -15.812654436521964 -9.731055117546026 3.1232163935797557 0.383783675686153 -1.3299134096191914 -9.893545145306499
3.0766041002289155 -3.97892390553458 -14.33082163141803 -7.884376708075609 4.5272824017555475 0.19030902268573058 -2.695571294716064 -7.460301451939118
1.6749786259225257 -3.453670909888873 -17.145229002646353 -9.032267272492977 5.4728655239287365 0.5477920447101283 -1.4803160219045015 -9.759547979510122
1.4439461539419096 -4.843406701359398 -16.354752844948482 -7.945983975867048 3.788638560231436 0.13550607677152504 -1.6222828353760224 -7.593220904398183
-3.1429702752240454 -8.26802902122559 -18.632688956192826 -9.457829924911202 3.2045776339895853 -0.07489155910070536 -2.7446294490741563 -8.934766963278888
-0.712274163805896 -7.100961920835891 -18.457081678447242 -8.754894676156324 4.945910360152732 -0.900644212580812 -2.477837157724279 -6.543855278484231
1.0492042554758079 -5.691347212567359 -15.330727318402948 -8.442076713588355 2.217680620123134 -1.7934426427384396 -0.6684489640287448 -6.526675841110069
00000000: e025 727e 880b 26c0 dad3 7e80 87fb 08c0
00000010: b227 c869 e367 2fc0 b9b2 a49a 3722 19c0
00000020: c181 1a21 55be 17c0 0720 c81a 6518 2340
00000030: de6d 8fad 8459 21c0 c4ba f624 749d 1dc0
00000040: b2ba 013c 481b dabf a304 0097 725f 02c0
00000050: e400 ce97 504d 28c0 09a2 75d1 ebce 14c0
00000060: ba76 df27 604f 2fc0 3072 6578 247c 11c0
00000070: 9c7d ecbc 5cc9 f0bf 6e23 92f7 aabd 1fc0
00000080: 2f30 15d2 8bcd 20c0 c0b1 7dd4 d6e7 a63f
00000090: fac0 e69d b792 31c0 9ec2 3db7 bc80 25c0
000000a0: 9450 8f98 106d 1f40 4cfb 5db7 5d85 3140
000000b0: 1aa9 77ad ae9d 0740 9452 426c 2989 1fc0
000000c0: 2572 ffeb a317 19c0 baf6 36cc aa99 01c0
000000d0: 7adc 8538 4c39 2cc0 ed30 5c60 2a1a 33c0
000000e0: e21a 14b9 f0e4 1c40 b8d6 3306 40a9 3040
000000f0: 632e e34a 2b6c 1ec0 34bd e139 212c 23c0
00000100: 5232 468c 768b 0ac0 1eb2 67db 689a 10c0
00000110: 635b bf6b 8fba 2cc0 d9f7 bfbb 290a 27c0
00000120: 4008 862d 16cc 1840 b6a2 fba0 0876 1c40
00000130: 2e5f 90cf a88c 11c0 c9d4 4c14 99bb 1bc0
00000140: 8d1a b654 8ffa 21c0 46ae 4abe e093 08c0
00000150: c963 b6e8 59b2 33c0 dcd8 4456 6c1a 27c0
00000160: e044 0476 5f0b bcbf cc38 fbad c039 3140
00000170: b56f 5e44 ee5d f6bf caed e0bb 8261 24c0
00000180: d264 9c76 be51 fb3f b464 bc62 6de1 fabf
00000190: fcfe 6551 6a65 2cc0 1792 6b9b eb69 27c0
000001a0: 3cfc b1ea a3d0 1040 cdc0 7768 6a5f 12c0
000001b0: 30bb 264b 341f c4bf 4ac2 21e2 2ef4 1ac0
000001c0: e0c9 cf43 36ad dfbf 095b 8515 29be edbf
000001d0: 287d d5d8 b7de 2dc0 be76 6eaa ef4f 26c0
000001e0: 8658 79a2 ea1d fb3f 8071 b516 6bde fabf
000001f0: d669 bece d01c f7bf 5e5b acf2 35a3 1cc0
00000200: 785b 7d2e a507 03c0 9a89 e153 0abc 04c0
00000210: 08fa 369b 3ac3 2ac0 d5ae 764f 8379 26c0
00000220: 59a8 84ce ff39 ecbf 44c5 c025 3ea6 1540
00000230: 0c94 0e31 0ff9 01c0 d937 dddf 97ad 19c0
00000240: d2b8 2e53 8d98 e8bf da39 d319 671e 06c0
00000250: 418a a50c e88e 2fc0 ca6f dcdf 2eef 25c0
00000260: 910b 1f2a 2c34 f9bf 0201 f44f 00eb 0d40
00000270: 283a ed0b dd3a c4bf aefd d8a0 eb3c 23c0
00000280: 38a5 12e8 ffc5 dd3f 62a8 f2c0 de8e e73f
00000290: 37d5 cf46 2582 2bc0 bb84 c95a c3c3 25c0
000002a0: 6daf 5531 23de 0d40 20c2 0846 92a9 1340
000002b0: 247d ded8 4afd e9bf c610 4d90 ea76 22c0
000002c0: ce94 6709 190e e93f a7c1 eb4d 81b6 e6bf
000002d0: b2bc 6542 880a 31c0 3953 0909 bb20 2cc0
000002e0: 2251 bd32 70dc 1540 20b0 15ea e35f e1bf
000002f0: 52ea 430d 2487 f53f fc2c 94f1 7c57 20c0
00000300: 42c2 e016 27b7 e53f 3067 eab9 2145 0fc0
00000310: 2a4a a248 9096 2dc0 31ef 93a4 cadf 29c0
00000320: 5897 d5fe 7bab e3bf a2c4 36af 7eb3 0d40
00000330: b675 6156 ea5e f6bf 6c50 2fd7 85a3 1cc0
00000340: 153f 7488 737b f5bf 4ff2 1fab a67c f1bf
00000350: b377 d043 bd8b 2dc0 8906 352a e15d 25c0
00000360: 997a 8c1a 6711 0140 9e91 2a0b c897 0740
00000370: 023b 034d 9fe8 dcbf 42e3 cc84 1de6 1bc0
00000380: c635 9066 8abb ca3f 3047 9b8d 355d e5bf
00000390: e67b 8bcd 189d 2bc0 54fd 6465 2cae 24c0
000003a0: ad54 7a65 3168 fc3f 896b 5f1f 1468 0d40
000003b0: 602a 2873 30b9 b53f 9b48 df8f 0ab8 17c0
000003c0: 3979 93ec 7738 d33f 22e8 c541 c46a f0bf
000003d0: aee7 4ca3 3a00 30c0 4e7a 0279 ccc7 25c0
000003e0: d4af 0b6d 7293 0a40 1b06 a678 7e56 f33f
000003f0: 2254 fe6b e89c f03f 9c5d b52d 3bb8 1dc0
00000400: e6b6 f99a 5f8c f43f 5494 6b6d 1523 02c0
00000410: bf6f 006b 15cc 30c0 a4d7 d2c0 de7c 2ac0
00000420: baf6 700d 7357 e93f 4e8d 4148 65e2 0740
00000430: a033 7eed aef3 9bbf 79d1 f6e1 f44f 1bc0
00000440: d60f 5680 c04d 04c0 617b 2762 54f4 11c0
00000450: f967 42a6 093d 2fc0 ffb4 243c ebf8 25c0
00000460: 58d1 5e04 a415 0540 4a71 1ec8 0503 0840
00000470: 9a05 a323 55df a9bf c99c 86a1 d1c9 05c0
00000480: c4e2 7b90 a561 e33f 56f1 a820 3f13 13c0
00000490: b6f2 2847 16fb 2ac0 0219 28a1 ff1e 25c0
000004a0: bc2a 644f 28a4 0040 976f 4e9d 181e 0c40
000004b0: fe79 6995 dc21 e3bf 08ad 070c 8e61 19c0
000004c0: 04ab b979 3d4f 00c0 710d b23f bffd 10c0
000004d0: 23b8 8220 538a 2ec0 1a32 a255 4c9c 26c0
000004e0: b2d9 3c89 4c92 0640 53c1 34b4 ea95 0140
000004f0: 70eb 0789 7a31 f0bf a195 a262 441b 14c0
00000500: d9b6 e9ca 9ed0 f73f 946d 4251 d66e 0cc0
00000510: 280e b967 bc8e 31c0 6e0f e607 75eb 28c0
00000520: 942c 9ea7 849e f53f 7152 10cb d38b 0240
00000530: 2541 e6aa 6b02 f5bf b0c1 b4d6 cd92 16c0
00000540: 02dd 095f 5d45 d1bf baaa 89b1 f968 14c0
00000550: cfda 3318 6529 2fc0 42b3 2748 1f49 28c0
00000560: ac5d 4864 c344 f53f ac4a f576 0a79 0a40
00000570: dbb9 2649 8c1b f9bf 9ecb 1c1a bbc4 10c0
00000580: 479e e6dc 4d70 e5bf 222b f9f1 1424 f2bf
00000590: 6410 09aa 1d63 30c0 ab34 75ba f2f8 22c0
000005a0: 8740 bc78 5d35 0b40 3586 7af6 693f 0140
000005b0: 722d 7730 deea dabf 9e59 25b5 8890 1ec0
000005c0: d210 a594 d58b cbbf 1b6c d021 545b 14c0
000005d0: 84c1 051c 6f69 2cc0 3963 ae73 ef3a 20c0
000005e0: 68cc a033 fbb8 0940 0c8d 5569 fbf2 0140
000005f0: fead f0bf a4a3 0fc0 0cb4 e533 7ee3 1ac0
00000600: 620e f4e9 e324 05c0 2636 41d6 a2c3 08c0
00000610: 704a 87bb c795 2ec0 8afd 420a 84cb 20c0
00000620: 6636 afb4 1d17 0540 44f9 99e7 9f16 0340
00000630: bdd8 0e49 a590 0fc0 9056 701a ca1c 23c0
00000640: a212 f5f5 01b7 da3f ad8e 9621 d047 06c0
00000650: 4e9f 073e 14a0 2fc0 03de 3adb 4c76 23c0
00000660: 860c 66e0 58fc 0840 78e2 f367 e98f d83f
00000670: 7038 8d48 5347 f5bf 952e d1bf 7ec9 23c0
00000680: 16c8 499c e29c 0840 5359 7c0e d6d4 0fc0
00000690: e67f ef73 61a9 2cc0 931d 3a0c 9a89 1fc0
000006a0: 862f fdea ef1b 1240 dcd2 48ca 0b5c c83f
000006b0: 28bc d6ae 8790 05c0 f284 8943 59d7 1dc0
000006c0: 5861 3d63 b6cc fa3f 45f4 c836 1ea1 0bc0
000006d0: facb 58ba 2d25 31c0 4a2d 0056 8510 22c0
000006e0: 25b8 22dc 36e4 1540 403f a12e 8387 e13f
000006f0: c831 5dda 5faf f7bf 4b7a 0779 e384 23c0
00000700: 05d9 4548 671a f73f 6f43 9e01 a65f 13c0
00000710: 7937 1b15 d15a 30c0 5c8e fb05 b0c8 1fc0
00000720: e677 c4bb 214f 0e40 b04c 125c 4358 c13f
00000730: aed5 acd8 def4 f9bf 63c6 fe4c 755f 1ec0
00000740: 6219 8399 cd24 09c0 ea15 9119 3b89 20c0
00000750: 7963 47e7 f7a1 32c0 5c3f 15af 68ea 22c0
00000760: 9dd3 3b99 f9a2 0940 c27f 15dd 172c b3bf
00000770: c64b db48 00f5 05c0 ff53 81c6 99de 21c0
00000780: 52a0 ea2f f3ca e6bf a686 d08f 6267 1cc0
00000790: 1d88 0c4e 0375 32c0 2708 148e 8182 21c0
000007a0: da36 b7b9 9cc8 1340 65b8 cbcf 13d2 ecbf
000007b0: 3cea a949 9cd2 03c0 1163 eb65 e82c 1ac0
000007c0: 637b c166 8ac9 f03f 59a1 1086 f0c3 16c0
000007d0: 6fde 5017 55a9 2ec0 cb5e 06e1 57e2 20c0
000007e0: 0237 4356 cfbd 0140 ba03 9de9 f0b1 fcbf
000007f0: a28d f114 ef63 e5bf e7a4 64e9 501b 1ac0
