ce_results/6x5_grid/10_times/ce_constant/best_weights_ce_8.npy (npy, 6528 bytes, 1 tensors)

array f8 [100, 8]
-2.1075849525382324 1.8914686673922207 -15.457679474182179 0.8143182729679598 20.995085841750104 5.083901531308367 -0.9779390824980714 -5.995724873308813
15.985693224930559 4.688089455169142 -33.20102686446607 -4.763180650635714 -3.1767346105339063 23.46078477198866 -18.32876021714833 -16.75007080581161
-7.715212333018982 -2.319487270619546 -4.123503225519311 -2.1261773621980575 14.015041172509825 -0.23080320009918864 -1.056483828972734 -4.2612170617226885
4.557470417372941 -3.014355829782139 -17.521057060319187 -1.2579410489898701 8.88437391948093 14.179151525455103 -6.205652323887812 -9.200066459720176
5.17181470068891 -2.691225807631681 -22.61870538379577 -2.461078277393119 1.6011426016098484 11.879408684656914 -7.409711819298892 -7.488698947610544
-0.08312959705837475 -0.4052379257961891 -17.974417036898764 -1.420454781070902 8.152471798994977 15.64805949338186 -8.703918876449729 -12.33659137774275
7.616178911947561 -3.0131812574361505 -27.55971883075628 -3.8007353190283606 -1.7880843509290347 8.58171008586623 -8.233401232935089 -4.8767065767107916
1.3517263173081746 -1.5706253856581487 -19.194819146810232 -6.09140801641371 11.507515334097604 16.964823151486062 -10.74341610359191 -9.423951982229665
7.358109709022888 -0.04885099248269209 -22.210398723381193 -0.9278179364291952 5.379892912979112 8.84149677333732 -6.481919535012809 -11.457078497637614
6.098167525701316 -0.044106336403781254 -28.62326288854777 -4.200005533823624 0.2843036401466126 16.52019322383666 -9.686064673074256 -12.680728125536923
7.145155218555413 -2.36721485325929 -23.77304248890241 -4.199919919691963 3.5822515620795574 12.937498230280404 -8.9341301122375 -9.845279051476451
5.367259452410874 -4.134869369825379 -25.48345453669922 -7.229657490971144 2.41216617301344 15.752191859125848 -10.191250662379275 -11.728760689136365
6.928306028316554 -0.1590756247397307 -29.48023196644265 -2.0820277837141288 1.9147640114504005 15.577160366761602 -10.07295113988291 -13.15946105743009
7.824483320526682 -5.129173631244938 -22.526689027288477 -3.491786431794098 5.446869122106908 15.398985587234883 -8.904731235024359 -8.998508284473242
8.80831968167141 -3.7113462164933635 -24.294434582334734 -6.076139346281442 3.926014968432429 15.23635449171163 -9.923696245744248 -10.104087209855273
6.234847093360468 -2.7346884705158527 -23.324609251471603 -6.356395310406079 3.178227525209474 12.539549388610913 -9.037107533319352 -8.90614458842723
6.546819405047423 -2.244174029632313 -20.523894968224194 -7.075614454926246 7.685181211462521 14.320613273188108 -9.506839363698441 -8.127325648201696
6.285106606719087 -2.847724495066857 -21.577578317115137 -4.061073678359492 8.57916710559509 13.581430094891246 -8.323952532564562 -9.216205871462199
5.430411892441924 -2.9121370915422298 -22.983625791808695 -2.7184289758228783 4.232747817130299 13.584246012368778 -8.657160549167905 -9.402213401191243
7.630954214047171 -1.0943344697691675 -21.84020092612667 -6.2995159114282915 7.600610846206878 15.511581911184333 -9.60747874996532 -6.902121124847847
4.126258523030895 -3.8136296114168173 -20.71162680297544 -3.1900200187332457 5.855389542744039 12.82761524235173 -9.263338545925167 -8.101281318324403
6.161576051739206 -1.6771851814456995 -22.49707228621615 -3.593811464051536 5.851417965864144 13.501760942702392 -9.531698338297629 -8.505840014458844
3.490116283093327 -3.38612718795736 -21.699473991033983 -4.289259282133507 5.965806343590515 15.358185174178091 -10.035346677729896 -9.859091014732837
4.601120229602283 -1.0808230219981345 -23.04422927812005 -4.1169073109148515 4.2688182011212605 16.464654557655372 -8.549066897090343 -8.6215603760053
6.297957781097808 -3.150237298650497 -22.491707277422158 -1.6426919462832215 3.6546850540489184 15.173083282877483 -8.686418375798581 -9.280687425943627
6.430523988477591 -4.190541521239867 -24.190596273271566 -3.0662586426859955 6.349498660918607 13.658717368235255 -6.8353677552644605 -7.2038572770180345
5.4395428245789486 -2.064931558241773 -23.353993329649345 -2.7357589921078334 4.780439531989622 14.882190960802493 -10.030125854231315 -7.400259043918586
6.07228606543851 -3.588175725952249 -22.965812760665788 -2.453243781630972 3.40057481157239 14.979452993833899 -7.4463067950961515 -7.082207340686884
5.769763024359474 -1.9086874844350783 -20.984511650178273 -4.218808868377292 4.374413722873656 10.605755879009433 -8.381280932427758 -8.276461898264367
5.999834049532909 -3.826695795658506 -24.702979480312713 -2.827962239587208 4.820510231720242 15.541892161132195 -9.884986051137767 -9.382060565175975
4.291998246708402 -3.686150929532689 -20.839349528845112 -0.31417079769025724 1.727198484959882 13.002193667018776 -9.859779070155165 -8.164076871160244
5.051799983980524 0.04183577098202251 -20.46325332337981 0.1531129547341077 2.9579494315165427 7.484953918123272 -9.346461744656896 -6.772986975624558
00000000: 208c e57f 55dc 00c0 8ebb 3da6 7443 fe3f
00000010: 6c53 cbf6 54ea 2ec0 c3d7 dd31 e50e ea3f
00000020: 8207 1bf2 bdfe 3440 0c37 7448 ea55 1440
00000030: 1ee7 19e7 464b efbf 4cb3 1a4d 9ffb 17c0
00000040: 59ee 49c8 acf8 2f40 19b2 aa85 9ac0 1240
00000050: e63f 903f bb99 40c0 7cae 7d3a 7f0d 13c0
00000060: f183 e2d5 f369 09c0 a52f a6fd f575 3740
00000070: c0e0 2ca1 2954 32c0 2ea5 eca3 04c0 30c0
00000080: b00c 309f 60dc 1ec0 de64 9657 4f8e 02c0
00000090: 4c39 2aa1 777e 10c0 f216 e146 6902 01c0
000000a0: e00b 007a b307 2c40 007c 1e92 f58a cdbf
000000b0: 500d 6396 5be7 f0bf 4f06 457c 7c0b 11c0
000000c0: c16a 6c86 d93a 1240 ae5e db96 661d 08c0
000000d0: ba6b d9fe 6385 31c0 9e51 1bcb 8620 f4bf
000000e0: 3d36 8ba8 ccc4 2140 63b7 adbf b95b 2c40
000000f0: 39c7 d585 96d2 18c0 a00c 6b1c 6f66 22c0
00000100: 3db9 6131 f0af 1440 1e6f 6f65 a187 05c0
00000110: 1043 dd79 639e 36c0 4c65 d2ce 49b0 03c0
00000120: b458 62b4 479e f93f f3d6 e8da 41c2 2740
00000130: 91b1 c27e 8ba3 1dc0 c04e 367f 6df4 1dc0
00000140: 4004 b234 fb47 b5bf 382f 990d 6bef d9bf
00000150: 3a25 1a65 73f9 31c0 8257 e2ca 2eba f6bf
00000160: ce7d 9cc8 104e 2040 f5df 3374 ce4b 2f40
00000170: fdc6 120e 6868 21c0 980a 7fb4 55ac 28c0
00000180: d432 cd9a f776 1e40 0dde 6cc6 fe1a 08c0
00000190: b80d b9bb 498f 3bc0 dcd4 3feb e767 0ec0
000001a0: 68ac 1b56 fe9b fcbf fe18 85e7 d529 2140
000001b0: c59a cc5d 8077 20c0 d4a4 6c5e bf81 13c0
000001c0: b4b2 5fc6 aba0 f53f c8b4 9a15 4821 f9bf
000001d0: 402f e8aa df31 33c0 415b 2410 9a5d 18c0
000001e0: e055 c40c d903 2740 690e 6aa6 fef6 3040
000001f0: 777e 1809 a17c 25c0 6780 f53b 10d9 22c0
00000200: 9588 c24f b46e 1d40 603c 2e4e ff02 a9bf
00000210: d90a d4b0 dc35 36c0 1461 b33d afb0 edbf
00000220: ebe8 d4a5 0285 1540 bd58 42aa d8ae 2140
00000230: f2bb 8850 7ced 19c0 e21d 5e31 06ea 26c0
00000240: 63aa 2107 8664 1840 601d cd10 1b95 a6bf
00000250: 881f 1b28 8e9f 3cc0 7c2a 2b40 cecc 10c0
00000260: a00f 24e5 0732 d23f b1fa 1362 2b85 3040
00000270: f896 6bde 435f 23c0 044c 9965 885c 29c0
00000280: 2c28 d291 a394 1c40 2dd5 4a57 0ef0 02c0
00000290: 1941 d01c e6c5 37c0 6e95 b3ce b7cc 10c0
000002a0: b469 c981 73a8 0c40 7439 9ec4 ffdf 2940
000002b0: aa89 544d 46de 21c0 a72b 746a c8b0 23c0
000002c0: 9c01 a5dc 1278 1540 4e87 3232 1b8a 10c0
000002d0: da39 30ad c37b 39c0 8a02 5455 2beb 1cc0
000002e0: b2e1 4cc7 1d4c 0340 a286 964a 1f81 2f40
000002f0: c083 589b eb61 24c0 f8e6 fc1e 2075 27c0
00000300: 6e32 01db 95b6 1b40 6088 ec0e 975c c4bf
00000310: 6d5d 6e7b f07a 3dc0 0953 c32e fea7 00c0
00000320: bccb 8b96 dfa2 fe3f af93 4790 8127 2f40
00000330: 8c01 10da 5925 24c0 ae4b 35e1 a451 2ac0
00000340: d109 075b 454c 1f40 6fcf a617 4684 14c0
00000350: b65d 9317 d586 36c0 a360 89b9 2def 0bc0
00000360: 652a 240f 98c9 1540 947f c1d6 47cc 2e40
00000370: d932 b4ee 38cf 21c0 fe31 557a 3cff 21c0
00000380: d2fb ca13 dc9d 2140 56c7 ff48 d6b0 0dc0
00000390: 69f0 9510 604b 38c0 d6de 0879 f74d 18c0
000003a0: a630 2889 7a68 0f40 0c54 b874 0379 2e40
000003b0: add1 ddb6 eed8 23c0 4485 34eb 4a35 24c0
000003c0: ec2c a6c1 7bf0 1840 29e9 4c59 a4e0 05c0
000003d0: b10c 8797 1953 37c0 4891 6ae4 f26c 19c0
000003e0: 742c 808d 026d 0940 4352 45d1 3f14 2940
000003f0: 6d15 34c2 ff12 22c0 137c f92e f2cf 21c0
00000400: c9fc 156d f12f 1a40 336d 7e83 11f4 01c0
00000410: d70f 0bfb 1d86 34c0 680d 2ce0 6d4d 1cc0
00000420: c142 bc24 a0bd 1e40 4c03 466c 27a4 2c40
00000430: 0dd2 f672 8003 23c0 c3ef cdd3 3041 20c0
00000440: 95ed 7efc f223 1940 62a4 b2c7 23c8 06c0
00000450: 63e3 2e2c dc93 35c0 40cd 2c19 8a3e 10c0
00000460: 58e6 4297 8828 2140 a8ef 9434 b129 2b40
00000470: 70a4 391b dda5 20c0 4344 3689 b26e 22c0
00000480: e063 27e5 bdb8 1540 b523 0d88 0e4c 07c0
00000490: 0952 5fe6 cefb 36c0 a943 ddb0 57bf 05c0
000004a0: fc28 9b71 55ee 1040 77e2 174b 222b 2b40
000004b0: 8ccb f558 7750 21c0 3642 38ea eecd 22c0
000004c0: 876c 8adc 1886 1e40 88b4 68dc 6482 f1bf
000004d0: 70c8 6b68 17d7 35c0 55dd 904c b432 19c0
000004e0: 6253 9887 0667 1e40 1686 7310 ee05 2f40
000004f0: 663b 6874 0737 23c0 4a02 e1a3 c59b 1bc0
00000500: 2c09 0dea 4981 1040 46bd e03d 5082 0ec0
00000510: 8fbc 952c 2db6 34c0 565b 3037 2985 09c0
00000520: 44b4 7d3c eb6b 1740 c224 5f2f bda7 2940
00000530: b10c 554f d486 22c0 54cc 1b25 db33 20c0
00000540: 9325 4831 74a5 1840 5a52 fa20 c0d5 fabf
00000550: db0b 1d21 407f 36c0 d5ba 9039 20c0 0cc0
00000560: 1074 7a1c da67 1740 41a2 6ecf e600 2b40
00000570: d7a6 bcc3 3a10 23c0 c237 5e76 fd02 21c0
00000580: bcfb f815 c2eb 0b40 88fc e2d9 c916 0bc0
00000590: c0e4 3bba 10b3 35c0 b84f d395 3328 11c0
000005a0: 60f6 8f56 fcdc 1740 9103 120c 64b7 2e40
000005b0: 8bbe b1f5 1812 24c0 4621 09c7 dab7 23c0
000005c0: 5b6c bc0f 8c67 1240 1cef c314 0d4b f1bf
000005d0: 220d 279c 520b 37c0 9d2b d48c b677 10c0
000005e0: 9d8a 1914 4513 1140 3211 e199 f376 3040
000005f0: 71a3 dc4b 1f19 21c0 4ddd 5e29 3d3e 21c0
00000600: 819d 35d8 1b31 1940 04bf e29c af33 09c0
00000610: bebb 3387 e07d 36c0 3f06 ab59 7748 fabf
00000620: 8f8f 8284 cb3c 0d40 dfe2 3e5f 9e58 2e40
00000630: 50db b63a 725f 21c0 11a7 2543 b68f 22c0
00000640: 739e ca47 dbb8 1940 7205 0951 1dc3 10c0
00000650: dc70 d8ea ca30 38c0 424f 7b9c b287 08c0
00000660: 9990 1afa e265 1940 56c1 2367 4351 2b40
00000670: a4f9 13a5 6a57 1bc0 5460 47f6 bfd0 1cc0
00000680: 3e08 a383 17c2 1540 8d03 39d6 fa84 00c0
00000690: 99d8 8d4e 9f5a 37c0 81ba 469c d5e2 05c0
000006a0: 989a 698a 2b1f 1340 72f2 9a88 aec3 2d40
000006b0: 0860 eda7 6c0f 24c0 f63b be81 dd99 1dc0
000006c0: 460f bc5b 054a 1840 b420 9a79 95b4 0cc0
000006d0: 791e 4d81 3ff7 36c0 5cc3 9946 3ea0 03c0
000006e0: 2f70 1a91 6034 0b40 c6f8 e0dc 7af5 2d40
000006f0: a3ae 03a6 04c9 1dc0 17f7 3e29 2e54 1cc0
00000700: 0c2d 1dc2 3c14 1740 44ee 3ee3 fb89 febf
00000710: f30b 9cf4 08fc 34c0 5d05 976e 0fe0 10c0
00000720: f1a9 9b4f 667f 1140 1669 73a2 2536 2540
00000730: 31bb 1e41 37c3 20c0 6545 f769 8c8d 20c0
00000740: 32af 407f d4ff 1740 7ac0 70af 129d 0ec0
00000750: c2b3 9576 f6b3 38c0 c0cc aaaa aa9f 06c0
00000760: 5816 8dd5 3348 1340 070b ace3 7215 2f40
00000770: 151b 46e4 1cc5 23c0 4f0b 4171 9dc3 22c0
00000780: 5f68 a096 012b 1140 05b4 d3b2 3c7d 0dc0
00000790: 824d 589c dfd6 34c0 5806 5cd5 5f1b d4bf
000007a0: b2a7 e9e0 9aa2 fb3f 3a35 4087 1f01 2a40
000007b0: 1534 58f6 34b8 23c0 9653 37e2 0154 20c0
000007c0: c984 140e 0b35 1440 406a 5788 7f6b a53f
000007d0: faad 11c5 9776 34c0 58a5 968e 3499 c33f
000007e0: c8ae 3c64 e1a9 0740 45a0 89c2 97f0 1d40
000007f0: a23b 0d6f 63b1 22c0 6c2a d2e5 8917 1bc0
