ce_results/6x5_grid/10_times/ce_constant/best_weights_ce_4.npy (npy, 6528 bytes, 1 tensors)

array f8 [100, 8]
-12.125913333270645 -13.068202574092119 -12.940532241304762 4.009768080208277 13.409559092564907 10.945737595561564 -5.995994380279352 -4.232266758582
-12.219234406554193 -6.197832178490337 -10.452947871807506 -7.1321645252972665 -1.3144502060823138 -0.031111365217232456 10.576713041169501 1.502767347311936
-12.439814694178313 -7.745450418401259 -8.332391866603992 -4.747946679019659 3.985804638440083 -12.661667140775254 10.253665576715074 -8.314024678137702
-13.14639764235761 -8.99543761245992 -9.55213816464183 -4.028891917899235 12.803931240501385 -5.751496201484727 1.970390049162566 -6.5402543116504885
-8.210105146184278 -6.793997655598181 -15.239182435557113 -4.644392472431684 13.258866536019084 -1.8451614252334543 4.417221137301701 -10.502458666741116
-9.453643724238738 -5.8604238189246 -13.371687545013687 -4.10643701485758 15.031959647108227 -2.2851763472633424 4.574401620001456 -10.850953121288349
-6.254658043051794 -4.844431249667612 -11.797396047116713 -3.578885433498393 18.074031778527285 -6.860210928857345 4.061064608506555 -9.69974671421745
-8.588183662618704 -2.6968560258923664 -10.731676111396245 -6.273762705077698 13.718688673582525 1.313806332179234 5.910681610375416 -8.023046192452302
-11.28945965998463 -7.821834811771089 -9.089057473795018 -3.871951068176044 14.393943994814446 -0.7663941125578004 3.1943623678402426 -5.907778343742427
-12.812060608083502 -6.790799120185316 -10.459454250936787 -6.278280163202008 10.630614497145007 -4.145029354173901 3.4901417202066494 -7.003561702979417
-7.6267470907523425 -6.247103908401347 -10.920132352177989 -6.986667340710117 11.097263448304679 -2.81344624517035 1.7297179380844492 -7.245162468356848
-12.988926251804866 -7.879515859276802 -10.522271139031886 -4.088321950887191 10.803642207201491 -0.6196857533194384 2.1958438493280026 -7.7169116812525065
-11.049171891676433 -6.890794019165215 -8.811903433958092 -4.858441027781296 9.586339070385396 -3.776526232349956 2.701685088425467 -6.94447852417225
-13.451170447045115 -7.759217395301785 -10.992994367929388 -4.626786911639107 11.93598362054158 1.3935172787287138 2.5769367731669313 -5.5978248089865
-11.804788858547306 -6.261575440899996 -10.881092384497522 -4.34368215564581 11.438090030831406 -2.947131008509509 1.6097917894458469 -6.036217789056983
-11.032775072133628 -7.0373011568333546 -11.777432965510773 -6.173482455311011 10.514567909457005 -3.5068697610192547 3.0640702313221695 -6.626941862414065
-11.486994882434644 -7.0068119832821445 -10.637670955775814 -4.1063988904953455 8.679781263711845 0.9679547232527335 2.8134483807044837 -6.972209899149987
-12.606053354897188 -7.835053232614544 -9.308914165011132 -4.93936845923742 6.885057669040798 0.4459584847364282 5.005317058505735 -4.856902190363086
-11.86503255433431 -8.064453049115015 -11.229001241614474 -5.158452572962637 10.601446627481078 0.3724181202496024 1.92504761349737 -5.3555645522205095
-10.056018478607257 -8.86714067251919 -11.347058062869234 -1.522170506056158 12.476471360283707 -6.223595827879068 1.6309109657438559 -8.160096642572887
-12.163395296455066 -6.9524125234399206 -10.874860444100614 -3.529287398995724 8.460418215567268 -1.5743086949553238 1.5312069197342828 -5.529074330929234
-10.59971024449326 -5.712170175384445 -13.227138068067848 -4.1294337352573605 13.917802839004644 -6.014848436679059 -0.1341775244628156 -7.784205370424302
-10.789632693704892 -6.0209467929408165 -6.745089744649539 -2.536303326265807 10.125721744015737 -2.1377086789228277 1.9547915670860398 -5.1332845815640304
-9.727231503735945 -5.483900125970671 -11.729250409155696 -4.293127068119112 12.14090710481422 -4.169959373874259 -0.29288721717155297 -7.459901797597066
-9.43995049629173 -7.437651640766761 -13.286232420697228 -4.2521124284724685 12.357097379721202 -5.393153656851378 -1.361533634427745 -4.332806748459078
-9.09432285808217 -5.104135977884086 -12.829099704074265 -4.299171004073715 13.370198977205034 -6.569939021610735 -1.823005028051019 -7.147439560509037
-8.750240596342753 -6.25609143107701 -13.854764686074999 -3.642183576321557 13.020776782603242 -6.168420812581903 -1.0445566152842156 -7.170802758591332
-8.094109670099034 -6.812111023143945 -12.760403038740622 -2.4812210661014995 14.01137840163448 -3.6733297751996106 -0.9035293804877238 -7.4770835717208
-10.536875734380235 -5.614015188798811 -12.208480886623812 -3.9400482264564234 13.551880232843285 -3.377079760796578 -1.9931017106008557 -5.636643748127911
-10.648232170879204 -6.272457159023493 -12.676259558889242 -3.805918556736718 14.170025540156828 -5.019054403124366 -1.223093247422672 -7.76212442461697
-11.90093574731397 -5.6525930912759526 -13.342574966466255 -3.5460778120726903 14.511895917451186 -3.340859071813031 -0.8577108185326869 -7.067790731034819
-10.96574174151668 -6.343021174664628 -12.326464520314197 -5.632988411864406 15.267028785264667 -5.177247232053919 -2.3993966342167763 -6.344534555016904
00000000: 380e 61b6 7740 28c0 1475 a272 eb22 2ac0
00000010: 9e79 2271 8de1 29c0 3228 c4a4 000a 1040
00000020: 01b1 b8ba b1d1 2a40 b611 d7b7 37e4 2540
00000030: cb32 69f3 e5fb 17c0 003b 5056 d7ed 10c0
00000040: d09d fc7d 3f70 28c0 88d9 c284 94ca 18c0
00000050: 7e69 90c8 e8e7 24c0 5c5f 2723 5687 1cc0
00000060: 0481 75f0 fc07 f5bf e054 9160 a8db 9fbf
00000070: daff 85ee 4627 2540 1839 23c6 550b f83f
00000080: 9a97 3f64 2fe1 28c0 ad4a bf5a 57fb 1ec0
00000090: 840a 4944 2faa 20c0 3c2a f6bb e5fd 12c0
000000a0: 18c3 d28a ede2 0f40 62ef 1409 c652 29c0
000000b0: 7539 5874 e081 2440 0a7a b5d7 c7a0 20c0
000000c0: 5e46 bca1 f44a 2ac0 8672 adff a9fd 21c0
000000d0: 2f05 80da b11a 23c0 d5fb c9d7 951d 10c0
000000e0: 505f 24e0 9c9b 2940 d0c7 6138 8801 17c0
000000f0: da45 58b7 b786 ff3f 533f 206d 3829 1ac0
00000100: 612a d7e6 926b 20c0 5694 afb8 0d2d 1bc0
00000110: a9fd c41e 767a 2ec0 d987 cb9e db93 12c0
00000120: 2876 9427 8a84 2a40 b67e 93fc c785 fdbf
00000130: 97a4 8f04 3cab 1140 5e7d 2a43 4201 25c0
00000140: 3448 7ffd 43e8 22c0 1eec 0bf1 1271 17c0
00000150: 2154 74d4 4dbe 2ac0 b496 27d3 fd6c 10c0
00000160: 3a3e ce03 5d10 2e40 dab5 6889 0a48 02c0
00000170: e4b3 32f0 2f4c 1240 a4b9 a420 b0b3 25c0
00000180: 8448 fa13 c504 19c0 d52b e495 b260 13c0
00000190: e4a6 704b 4498 27c0 110d a8af 8ea1 0cc0
000001a0: b0a3 23bf f312 3240 946a 3c22 db70 1bc0
000001b0: 30ea 81b8 873e 1040 4618 8a33 4566 23c0
000001c0: 48fa b568 262d 21c0 71d3 8940 2993 05c0
000001d0: 336c 5340 9e76 25c0 5db1 2440 5518 19c0
000001e0: cb15 3af6 f76f 2b40 e4cc dfc9 5905 f53f
000001f0: 2c86 56b8 89a4 1740 8ac2 e5b5 cc0b 20c0
00000200: 604a 7a0e 3494 26c0 a715 9d10 8f49 1fc0
00000210: f5d3 f2f0 982d 22c0 1d3a 4c7b c1f9 0ec0
00000220: 065e fc06 b3c9 2c40 d80b 29f2 4c86 e8bf
00000230: 6293 6bdb 0d8e 0940 2690 69a5 90a1 17c0
00000240: 522d 7468 c69f 29c0 249b 9b3e c729 1bc0
00000250: 3890 6b96 3deb 24c0 0b50 a079 f51c 19c0
00000260: 1a3e 43e7 df42 2540 318c 3493 8294 10c0
00000270: bc8a 156c cfeb 0b40 3742 d7ad a503 1cc0
00000280: ec93 46fd c981 1ec0 b530 95ce 08fd 18c0
00000290: 2931 7196 1bd7 25c0 6486 61ec 58f2 1bc0
000002a0: 2b21 c383 cc31 2640 377c e01a f081 06c0
000002b0: 4409 76b7 ecac fb3f 7b32 bfde 0bfb 1cc0
000002c0: c650 ab8a 54fa 29c0 faa0 2fce 9f84 1fc0
000002d0: c092 6b1f 670b 25c0 4f51 ca11 715a 10c0
000002e0: 383b cbfd 769b 2540 48bb 8937 77d4 e3bf
000002f0: 66e4 7f94 1691 0140 4a66 8418 1ede 1ec0
00000300: f643 e50e 2d19 26c0 e225 af4e 2c90 1bc0
00000310: 5fb8 90ce b19f 21c0 1076 2f2a 0b6f 13c0
00000320: 3a58 77a2 342c 2340 eb6e a362 5336 0ec0
00000330: a706 5712 0d9d 0540 6b60 d460 25c7 1bc0
00000340: 00f6 15d0 ffe6 2ac0 7b80 ed48 7009 1fc0
00000350: e2bc fec1 69fc 25c0 0734 9c6d d481 12c0
00000360: b1a2 bf3e 39df 2740 d7cf 28c6 d84b f63f
00000370: d8e4 e406 919d 0440 7e56 cd2f 2c64 16c0
00000380: ad4a 0749 0d9c 27c0 b868 b06e da0b 19c0
00000390: d157 808a 1ec3 25c0 c2de 0a37 ee5f 11c0
000003a0: c13f 2656 4de0 2640 519b 146c b993 07c0
000003b0: b0a0 1009 b5c1 f93f f721 ae46 1625 18c0
000003c0: 3ee0 ede4 c710 26c0 14cf 4246 3226 1cc0
000003d0: f266 93b1 0b8e 27c0 59f6 7f62 a5b1 18c0
000003e0: bb60 ed71 7507 2540 b445 b7bb 110e 0cc0
000003f0: 3068 e140 3783 0840 393f 2e0c fd81 1ac0
00000400: 98c0 aa64 57f9 26c0 bcab 75b8 f906 1cc0
00000410: 1655 b9ce 7c46 25c0 6408 acd4 f36c 10c0
00000420: e026 304a 0c5c 2140 9422 0c2f 7cf9 ee3f
00000430: 1be1 8039 f181 0640 5fc9 e6fd 8ae3 1bc0
00000440: 3ad4 15a0 4c36 29c0 83fe d131 1857 1fc0
00000450: e8fc 57ff 299e 22c0 4646 2dce e9c1 13c0
00000460: b86a be8e 4c8a 1b40 6444 d474 958a dc3f
00000470: 7c92 c1d5 7105 1440 bfeb 8dc4 776d 13c0
00000480: b2ae 058c e5ba 27c0 2727 74fd ff20 20c0
00000490: 83f4 96a6 3f75 26c0 c75d 2b64 41a2 14c0
000004a0: 36a4 f6cf f033 2540 c83a bacf b2d5 d73f
000004b0: c26c f3b9 fecc fe3f ab9d 2d1d 196c 15c0
000004c0: 002e 3b74 ae1c 24c0 b300 bbdc f9bb 21c0
000004d0: 46ac 2b98 b1b1 26c0 c826 e775 cf5a f8bf
000004e0: 5ecc db0d f4f3 2840 f20c 014e f6e4 18c0
000004f0: 15ec c818 3618 fa3f 9319 e82f f851 20c0
00000500: 8130 5d8c a853 28c0 b3e6 813a 45cf 1bc0
00000510: cdf3 47b5 edbf 25c0 e9f8 2608 fb3b 0cc0
00000520: 2db0 b4ef bbeb 2040 d043 6a50 5e30 f9bf
00000530: a9ae bad3 d27f f83f 00fa 51a9 c51d 16c0
00000540: 7459 9e38 0d33 25c0 e2d9 7123 43d9 16c0
00000550: 5a0e dc70 4b74 2ac0 cbb7 ef46 8a84 10c0
00000560: dc66 f340 ead5 2b40 afbb b76d 340f 18c0
00000570: 4088 b6a7 ba2c c1bf 9f47 8dbb 0623 1fc0
00000580: 3aa1 86bc 4a94 25c0 2d8c 7a13 7315 18c0
00000590: 466b 57ce f8fa 1ac0 9b61 f865 594a 04c0
000005a0: 29e3 b599 5e40 2440 91ca 0202 071a 01c0
000005b0: 1d19 b285 d346 ff3f a483 dbc0 7b88 14c0
000005c0: 6555 0ab0 5774 23c0 184c be83 83ef 15c0
000005d0: 30d6 434f 6075 27c0 6893 8c80 292c 11c0
000005e0: f9e6 ddf9 2448 2840 1bc1 81d4 09ae 10c0
000005f0: eec4 ca06 aabe d2bf 3c34 307f f0d6 1dc0
00000600: 29dd 0231 41e1 22c0 3289 70c0 27c0 1dc0
00000610: 26e6 4b0e 8d92 2ac0 4cd1 acc2 2902 11c0
00000620: 9bc7 be77 d5b6 2840 fbea 49df 9692 15c0
00000630: c656 047e d7c8 f5bf 5114 d24a cb54 11c0
00000640: d374 ed15 4b30 22c0 8265 2d9f a26a 14c0
00000650: 973e a4c1 7fa8 29c0 e2a1 39e2 5932 11c0
00000660: 6f37 68b8 8abd 2a40 1f21 4a18 9e47 1ac0
00000670: 56c3 fe51 072b fdbf 7a17 6a65 fa96 1cc0
00000680: ead8 1289 1f80 21c0 e00b 05d5 3c06 19c0
00000690: 87ef 88b7 a3b5 2bc0 a0a2 9224 3123 0dc0
000006a0: 1498 2341 a30a 2a40 2405 6881 76ac 18c0
000006b0: 6475 57ff 80b6 f0bf 8cdd 18eb e6ae 1cc0
000006c0: 1aa0 8624 2f30 20c0 547f 3408 9a3f 1bc0
000006d0: 0957 0e8c 5385 29c0 e56a 286e 8ad9 03c0
000006e0: 3bcd cd63 d305 2c40 2d3e 9fb8 fa62 0dc0
000006f0: f06f 8572 b6e9 ecbf b3ff 8798 88e8 1dc0
00000700: b25b 5260 e112 25c0 798d cc65 c074 16c0
00000710: ddc7 bb01 be6a 28c0 5a58 2a01 3885 0fc0
00000720: d6bd be0b 901a 2b40 a4d6 c464 4204 0bc0
00000730: 081e 8a9e bee3 ffbf 22a6 b556 ec8b 16c0
00000740: 5448 4c16 e54b 25c0 9544 6e02 ff16 19c0
00000750: c812 62b1 3e5a 29c0 ca63 a36d 8572 0ec0
00000760: a8ea 6c96 0d57 2c40 490e 59ff 8213 14c0
00000770: 9338 9a39 ca91 f3bf cfd9 5c58 6a0c 1fc0
00000780: 8a05 4573 47cd 27c0 c780 025d 419c 16c0
00000790: 3ecd 6afc 65af 2ac0 3463 3f0b 5e5e 0cc0
000007a0: 49d1 c038 1706 2d40 e6da 2f52 14ba 0ac0
000007b0: b8be 60f5 5d72 ebbf e010 f3ee 6a45 1cc0
000007c0: 7864 98b3 75ee 25c0 9014 5cf1 405f 19c0
000007d0: 8c1b 8c5b 26a7 28c0 83d1 3e1d 2e88 16c0
000007e0: ce9a 37ff b788 2e40 94e9 634c 80b5 14c0
000007f0: 8cbf d0dc f631 03c0 dd8e 98aa cd60 19c0
