ce_results/6x5_grid/10_times/ce_constant/best_weights_ce_0.npy (npy, 6528 bytes, 1 tensors)

array f8 [100, 8]
00000000: 12bb 286b b6ef 15c0 3607 ebea 2ff3 1ec0
00000010: 966c da74 2844 32c0 3a4f 8e04 7d65 29c0
00000020: 5326 c077 0d41 05c0 c4de 83cd eaf6 0140
00000030: b918 f375 fffb 3440 624a b2ea f335 08c0
00000040: 2277 ccc5 8857 22c0 a569 44b2 678d 0fc0
00000050: 563d de5e 936f 05c0 2c15 5728 6e46 efbf
00000060: e20f dcd6 573b 08c0 92d6 16ea b787 1740
00000070: 41c0 c00b c761 06c0 8c03 89a0 5244 09c0
00000080: e289 ec2d 451e 12c0 3040 d056 988b 15c0
00000090: 2bcf 0197 1176 25c0 221f aa2d b8e3 1dc0
000000a0: 1098 83a2 4d3e db3f 8dda 1cf6 2547 1140
000000b0: e083 85bb 5d81 1b40 5617 50dd 8153 e93f
000000c0: 83e5 3dcd 1ec5 22c0 90e5 0b75 7a70 f73f
000000d0: c442 4994 bcc9 0fc0 5427 7d10 cf30 2fc0
000000e0: 763c 0a3e 8672 0b40 c3ec 608c c9bd 01c0
000000f0: b272 a1df 4176 1f40 52ad 64e4 ef60 21c0
00000100: aaf1 f43b 2c50 11c0 076a 5e0b abd7 20c0
00000110: 34b9 d8d0 36f4 31c0 b829 b5cb 3b0f 02c0
00000120: eeab 3212 5f7e 1840 20f6 ea30 a6bd cebf
00000130: 03db d6af 990d 1640 1f42 090d 1d5f 1a40
00000140: 9de8 4b4d d0b8 1cc0 5439 b4be 6424 11c0
00000150: f013 fed5 d99f 21c0 da3d 7f85 5db3 1bc0
00000160: 384b 1c0e 4063 0c40 084a d8d5 eb07 efbf
00000170: bbc3 6fde b229 0840 a03c 217c 2ef2 cabf
00000180: c0c4 dc5d afd7 20c0 8c94 4d3c d99f 0fc0
00000190: 8557 1df6 3aeb 1dc0 fc2d f675 cb17 1cc0
000001a0: fe15 878b b37e 0040 b079 1202 a569 09c0
000001b0: cc18 76cf ecd1 1440 2ad1 90e8 391a f7bf
000001c0: 5c69 ca26 0d7e 24c0 9e1a 784a 7dde 08c0
000001d0: 7097 f22d 4bb7 0ec0 1b2c 040e 4073 2ac0
000001e0: 4c45 80de aa60 01c0 1002 9416 6e39 13c0
000001f0: f129 fa21 0f8a 0f40 5b36 2dda 1882 07c0
00000200: cf39 9e27 d53e 20c0 bde2 bada 33c5 04c0
00000210: 7c53 5196 65b4 1bc0 43cd a9e1 da2e 25c0
00000220: ac8f 4180 859f 0040 5f6e 96ba 5b2e 05c0
00000230: 54e6 9726 0607 0c40 e430 309c c901 0ec0
00000240: a868 d547 3b38 1ec0 f042 b5fb b442 10c0
00000250: ccd9 44cd 40ef 1bc0 9823 767d f147 2cc0
00000260: 70b8 aa21 b530 edbf 125a c3d3 ce74 0ec0
00000270: 516e ae97 aaca 1240 a27e 7094 65f9 05c0
00000280: 01ec 0a75 f869 21c0 4c81 3d1f 1d32 10c0
00000290: 8c77 b850 d9c9 24c0 d429 0131 4247 26c0
000002a0: f491 8d45 2c2f efbf 6a25 0eff d037 13c0
000002b0: 76e9 2e8a b07a 1340 61ba 6ba3 23e4 08c0
000002c0: 2ec8 5713 c99e 21c0 fe2e cc5a 8040 14c0
000002d0: fd34 1521 dd0e 1cc0 c593 e714 a216 28c0
000002e0: 9417 5dc3 3636 d2bf 738e 157d 23f7 01c0
000002f0: 3a85 d6ce c574 1340 cd05 7be0 23ba 0fc0
00000300: 62c3 5847 4714 20c0 794b f56c 211c 0bc0
00000310: 20b6 2462 a2ac 11c0 1043 7048 8d93 28c0
00000320: c4e5 adff 5bb1 0940 5e17 187e 175a fabf
00000330: 5e3e ac31 40e9 0e40 bdf8 c31e f2b2 19c0
00000340: e373 d364 dde3 21c0 6b01 31d5 2aa2 00c0
00000350: 25a1 b04f d6d6 17c0 9fa6 98da f47e 28c0
00000360: 58de 1fa3 e3e2 fb3f d2ee b662 63b7 10c0
00000370: a349 cdf3 8c59 0c40 0ad3 edf1 0f1b 16c0
00000380: af41 d96a eadc 25c0 c05c 1a02 7074 16c0
00000390: 051e be92 7936 16c0 7db9 dad1 bedb 23c0
000003a0: 6885 632c 221a ec3f 90c3 9d6e bac2 0ac0
000003b0: 6598 2e17 dbf6 0140 cf73 551d 05ce 0dc0
000003c0: 2ff1 c587 c8b7 25c0 1f91 33ab fb3c 11c0
000003d0: 6e1a a84b c4bc 14c0 398c bcf2 6317 21c0
000003e0: 6478 7b67 2b77 c2bf 9ba9 18b4 4ed3 05c0
000003f0: 8cff c7d9 7c92 0340 4f35 4c67 13fb 12c0
00000400: 96a0 48aa cdc0 13c0 6432 03c0 8d5e 19c0
00000410: 591e b35a 93d0 1dc0 91c8 f73a 4cf0 24c0
00000420: 187d e01e cde8 f2bf 34df f2dc e6fd 11c0
00000430: 5cbe 8e5e a9d1 0140 a038 28e1 f4cf 18c0
00000440: 25ac 7d32 8cff 27c0 92e2 5ac0 7445 05c0
00000450: ce1d 4233 6f24 20c0 b141 447a 30f3 22c0
00000460: 0856 1fc9 3d1d f33f 91a6 3e81 6035 10c0
00000470: 77c9 ce06 82db f23f 6ff7 7e76 e955 17c0
00000480: 9cf5 7873 6f3d 1ec0 58b1 82c0 091f 18c0
00000490: fc9a d23e 9fe9 1cc0 5e42 e8cf c004 25c0
000004a0: a7c3 855c 79e4 ff3f fd42 f14d 94bd 07c0
000004b0: 06d1 506f 73d7 fd3f 473c 41ec b1f3 1bc0
000004c0: 2a96 1674 53e9 22c0 1812 30e1 b013 febf
000004d0: f874 84d5 75f5 f4bf aa08 e89c 0946 2bc0
000004e0: bc7e 6d25 b864 ff3f 1010 003d 6720 07c0
000004f0: c2da d4f4 047f 0b40 0d1a 9c53 fece 0bc0
00000500: c870 e7a6 bf5f 1fc0 c1bb 7955 8a8f 17c0
00000510: fb22 b7e9 3028 14c0 74de 9632 1f04 27c0
00000520: c88b 3cf0 ac9f c83f 2f44 a77e 8a06 0ec0
00000530: ab24 68e6 06c4 0140 d150 e098 95be 1bc0
00000540: fe41 9286 e0bb 21c0 3a38 d724 fc11 0dc0
00000550: 0c4a 05de 6cbb 20c0 7811 8f1b c10c 26c0
00000560: ed5b 7890 46d0 fb3f f8aa 5b4f 00e3 07c0
00000570: 0233 048e 09bf 1340 0224 4432 3cf4 21c0
00000580: d99a c3c9 80e3 1ec0 74a8 cdfe 41bb 14c0
00000590: e714 179c e879 23c0 38e8 d624 a53e 24c0
000005a0: 277c 2bf6 e13a 0140 6ba1 5553 fd26 07c0
000005b0: f29f 4a7c 2c92 0c40 d468 48e6 7087 22c0
000005c0: 65a7 b91b ff97 1dc0 93ce fb1a 92b6 05c0
000005d0: 8ecf fe7c 2ec7 0cc0 8e08 65ee a153 26c0
000005e0: cffb 9e51 ab28 e4bf 00f5 6901 a79c b53f
000005f0: e0f5 f77f f912 0d40 c399 4903 f008 10c0
00000600: 372a 3588 18a1 20c0 5aed bc96 18c4 04c0
00000610: eecb aae6 7979 14c0 7a4c ddfd 1b70 25c0
00000620: 3c3a 79e6 6685 c83f 6a30 ad79 1204 02c0
00000630: 4cb1 5a35 fabb 1740 edcd 21bc 5e00 11c0
00000640: 0f22 bc5d 1602 22c0 01bb c7db f932 fcbf
00000650: 3410 9b3c 2e4f 13c0 7ea9 db6a 79fd 1dc0
00000660: eba5 881c 89cf 0640 78d4 48be e351 c43f
00000670: 60ad 4aa2 bc06 0940 b40a 6a97 d235 1bc0
00000680: 8c74 ded3 a3f2 20c0 6fb6 4f0b cd3e 04c0
00000690: 3c6a 1370 ac99 15c0 1ca9 a414 f4d4 21c0
000006a0: e292 f2e9 d053 0340 c83f 30fa c6ea b93f
000006b0: d251 178f 67cf 0c40 13a7 ce19 2b30 16c0
000006c0: e45d bb42 e2c4 20c0 a7aa e920 d32d 0ac0
000006d0: cab7 50b4 690e 00c0 737a 928e 90d2 21c0
000006e0: 67a6 1f0b f96a ebbf 780b a61f 6116 cebf
000006f0: b6c1 53af 5823 0740 7541 aaf6 8cf4 16c0
00000700: 7aa0 7c60 2982 2bc0 9fc4 45ea e5a0 07c0
00000710: 10e8 1ff6 14c5 07c0 c8dc c480 1ede 22c0
00000720: b98a 005a ef3b f6bf 2800 4119 26a1 abbf
00000730: c883 e937 41d4 efbf b2ea 7657 8600 20c0
00000740: 7564 b07b a1dc 23c0 8253 bff7 fa02 06c0
00000750: 0596 fba2 191a 04c0 aeef f4b2 62bf 20c0
00000760: 38df eaf5 d875 d13f 329a 99d9 84a9 fc3f
00000770: 50eb e613 bef1 b5bf 0cc7 4e43 adc9 19c0
00000780: 1b2a e0d5 7365 27c0 6425 8da9 8cf0 0bc0
00000790: 3c76 5e21 ea60 04c0 0e3c 68fd f51c 25c0
000007a0: 527b 0a00 8654 fb3f f01d 5978 5373 f43f
000007b0: 00b7 919b 5f9c cd3f 3c80 2080 4ad9 17c0
000007c0: fa56 591e 2fea 1ec0 71d2 bcc8 bf08 0dc0
000007d0: 0819 42db 541d 08c0 63ce 73f2 5811 27c0
000007e0: 8814 244e 5ab6 c93f 5e96 7fa3 b52a f8bf
000007f0: 26ea b4c6 4299 e93f d628 3f10 4bda 12c0
-5.484094309197433 -7.737487478823644 -18.266242316557133 -12.6982194350927 -2.65676396899361 2.245565038287028 20.984366771554708 -3.0263441405925713
-9.170965367516661 -3.944045441353597 -2.679480305821623 -0.9773474491018184 -3.028976133909951 5.882537515300685 -2.7977429311941084 -3.158360723668414
-4.529560773431941 -5.386323315106026 -10.730602950068336 -7.47238227225151 0.42567768927108407 4.319480748663989 6.87633412363445 0.791443760158226
-9.385000623517731 1.4649605342986867 -3.973504217611067 -15.595329776074927 3.430920109450706 -2.2176695792273633 7.865485662678724 -8.689330231942822
-4.328293740105815 -8.421226840281646 -17.95396142283535 -2.2574382700597333 6.123409542410611 -0.24016263378682456 5.5132815813910865 6.592884257974702
-7.180482108839127 -4.285540561437603 -8.812208831086508 -6.925161443606578 3.548462019194087 -0.9697169472368055 3.0203606965883103 -0.21051579533602638
-8.421259816359793 -3.953051062696039 -7.479717107334982 -7.023237078810322 2.0618658924674937 -3.1765842592132785 5.205004922469197 -1.4439028820607498
-10.246194088180964 -3.1086374109175514 -3.839498862233931 -13.225098073968232 -2.172200907029639 -4.806084015639968 3.9424116758793777 -2.9385239644096095
-8.122719991745639 -2.596290310695933 -6.92616877433181 -10.591513683297881 2.077891351700563 -2.6476358964116993 3.5034297003847232 -3.7508728220183105
-7.5549136375431445 -4.065143521250079 -6.983645636870687 -14.140514298125524 -0.9121957452350795 -3.807035116576352 4.697916383763713 -2.746775779421868
-8.706973702986945 -4.048939216736766 -10.394236109273855 -11.139176875488296 -0.9745084150750345 -4.804508195150769 4.86981407080963 -3.1113960997820844
-8.81012783476407 -5.062989634239555 -7.0145154160684315 -12.044205334919647 -0.28455895498734063 -2.245673157902098 4.864035827487266 -3.9658887422126328
-8.039606313310006 -3.388735629306606 -4.4185881934077145 -12.28818727846513 3.211601254934722 -1.6469950604964292 3.8638919716538984 -6.4247517401801675
-8.945048476039977 -2.079183259542494 -5.959801907687766 -12.247961836942805 1.742892873005891 -4.17909006349119 3.5437258765243356 -5.5264280129820325
-10.93147596265848 -5.6137085274305605 -5.553198140004956 -9.929190214109207 0.8781901232688769 -3.345082153501103 2.245535069570041 -3.725595692796993
-10.858951800263268 -4.3095537901138234 -5.1843425580360485 -8.545684419170458 -0.1442617659840294 -2.7281774587656407 2.446527196327173 -4.745191206003553
-4.938284550364321 -6.342337608523483 -7.453687112028626 -10.469331591364865 -1.181836243260312 -4.497950985263561 2.2273738276779067 -6.203082578735263
-11.999116494980692 -2.6589140918479837 -8.071160890408375 -9.474979229766946 1.1946390014976505 -4.052125949334042 1.178590799897021 -5.833898402690337
-7.559995464570786 -6.030310638405659 -7.2281465354960766 -10.50928353986927 1.9932798017655189 -2.967568024564001 1.8651003216046447 -6.987983409387261
-9.455714824444915 -1.879807357444525 -1.3099268284343548 -13.636792090725368 1.9620896780033226 -2.890821911396422 3.437021172281079 -3.476071026994083
-7.843504531742106 -5.890176139407175 -5.039249088099264 -11.508050518910046 0.19237291078851926 -3.7531938452525746 2.220716285756301 -6.936117542925971
-8.866947369912847 -3.633781707590086 -8.366064966340694 -11.02491079446257 1.7383485453954066 -2.9858404350137526 4.936559885984709 -8.97702176172061
-7.722170975269102 -5.182868939688081 -9.7381027963806 -10.122353697999742 2.153751300050789 -2.894037867594468 3.571373911883705 -9.264533230151223
-7.398434098440565 -2.7141458614440324 -3.5972566380750726 -11.163344812234097 -0.629964503685068 0.08442157539862549 3.634264945749905 -4.008728076331354
-8.314640289773804 -2.595750024452781 -5.118629078077886 -10.718963559402471 0.19157110456076676 -2.2519883638361096 5.933571656856952 -4.250361384928948
-9.004076890197238 -1.7624453148998216 -4.827324816669762 -7.497533483178243 2.8513357381059357 0.15874907294497453 3.1282894782104194 -6.802561155173567
-8.473906155495818 -2.530664528246056 -5.400071860489842 -8.915924687481088 2.4159258153107297 0.10123866661183378 3.601271741770895 -5.547039416540218
-8.384538731929702 -3.272375352030696 -2.0070375525601536 -8.9112591317946 -0.8568082062967733 -0.23505796475737006 2.8922589967189323 -5.738818983213027
-13.754221930707207 -2.9535635283032913 -2.9712313869940843 -9.433826469451006 -1.3896325603206334 -0.05396384294772388 -0.99466000480981 -8.00102494551297
-9.930919518739964 -2.751455245519936 -2.5127442105319937 -8.37379988899178 0.2728178407228259 1.7913864612579684 -0.08571994768037183 -6.446950008090209
-11.698149379361942 -3.4924557920646055 -2.5473215681984396 -10.556564253782224 1.7081356050109275 1.2781557751749197 0.2313346395125606 -5.962198259338091
-7.728695368006578 -3.629272049200431 -3.0143220071360055 -11.533881737362384 0.20087746444201948 -1.5104271303802288 0.7999585991850082 -4.713176969389869
