ce_results/6x5_grid/10_times/ce_constant/best_weights_ce_7.npy (npy, 6528 bytes, 1 tensors)

array f8 [100, 8]
00000000: fca8 d439 7af5 1540 4c50 1393 5690 33c0
00000010: b3b6 313d 722c 39c0 e60c 55fb 2ec1 2440
00000020: 3ac7 faa9 fa81 22c0 6953 2d76 446c 0840
00000030: 50a2 b297 b3fd f73f 5ae8 b735 4074 2440
00000040: 041a 9445 264e 0240 4c66 d07e 4bae 2ac0
00000050: b39e c1dd 0ac0 2ac0 81a6 68f4 42b7 1bc0
00000060: 4189 344d 518d 07c0 99e7 a15c 4e7e 21c0
00000070: 5fb4 0ed3 0e34 1cc0 d122 8c50 e009 15c0
00000080: 2841 13ac cb64 3ec0 45a1 ef0a d7d0 2ac0
00000090: e0f1 2336 07c8 d33f 3a7a 666f 3ee3 2dc0
000000a0: d495 c98c 561a 2540 be4a 3254 86ff 29c0
000000b0: a20f d3fe 5b46 0240 5a3f 9478 ad01 1840
000000c0: 8e4d a317 103d 1240 a8db f57d 57ff 23c0
000000d0: 50fb 807e 16f6 35c0 80a4 6f98 cb4b e33f
000000e0: ca87 9ddc 25fe 23c0 0b17 af8c 02c1 1240
000000f0: 4841 a28f c313 3140 e014 24e3 60a2 e13f
00000100: 71db d683 6f7e 02c0 8c0d 432a 33f2 18c0
00000110: 7d1c 9b29 7b20 31c0 4c60 2d02 3736 13c0
00000120: fac0 019e b62f 1dc0 2daf a3f5 7256 1cc0
00000130: 88be cee9 e004 2540 aedf 5565 a370 0dc0
00000140: fa64 97c5 90bd 12c0 8933 c0fe 3a14 22c0
00000150: ea7e cee8 bfd4 30c0 8f9a 268a 0f4a 12c0
00000160: 1cad cbb9 13cd e4bf 0028 c204 ef4b e1bf
00000170: 5058 8993 7151 3340 9829 728e 7fef f2bf
00000180: e078 6e08 c890 d23f 7ae0 fe10 a289 1ec0
00000190: a2dc aed3 3f87 33c0 7746 470e 7003 10c0
000001a0: 4ba0 3dd5 140d 21c0 a337 4d15 f986 10c0
000001b0: f429 730f e355 2740 e278 2a60 ed65 08c0
000001c0: 6d02 5b5b 7733 31c0 89ad b60e a20c 24c0
000001d0: f86b 99d8 951c 27c0 f8e4 6d56 f7ce 23c0
000001e0: 2471 fbed f921 1640 c2d0 8659 85e2 0ac0
000001f0: 257e cb7a 9ecd 2940 e42c 7639 d967 fb3f
00000200: 1f22 5615 4e60 15c0 1fea b7ee 1c75 27c0
00000210: 4534 3a71 9b4b 2cc0 c839 6fe8 d8e4 21c0
00000220: a0b1 9386 36c3 10c0 6145 94ae 4bb7 07c0
00000230: 3ec9 f5b2 e221 1740 f8c6 f23b fef2 b9bf
00000240: 42fe 57bf 6dae 23c0 695c 6d1e 27ca 20c0
00000250: b0e5 2089 503f 2cc0 6b2a 9949 0e10 22c0
00000260: 2402 38cf ac69 ec3f f69d f970 ac7b 13c0
00000270: fc70 cc11 36bd 2340 c64b 82ed 5426 f3bf
00000280: cbfe 784a c51f 20c0 e8a8 b583 0424 20c0
00000290: 59e2 1610 d010 27c0 6e0d 2497 5ac5 22c0
000002a0: f2ac 65e8 b4c8 04c0 e7f8 145c ca93 24c0
000002b0: 8ce4 87c7 953b 1b40 2024 582d 8fc5 e5bf
000002c0: cefd f783 5a3a 23c0 a457 d71d c741 20c0
000002d0: 0bb0 7c6b 5567 2fc0 2df2 231c 83a6 23c0
000002e0: c40c c374 ce29 eabf 6fc3 501c da32 20c0
000002f0: b9a1 1fdd 38ff 0f40 c76c 0a58 c392 04c0
00000300: 7171 6bd3 54fd 1ec0 e5f8 15d9 8c5a 21c0
00000310: 650f 1303 7b56 2ec0 025e cce8 3f5c 24c0
00000320: d232 157a 49e5 00c0 9f9b b76e 6729 18c0
00000330: 5c3b 827f 56ae 1b40 42d7 e92e bb41 f4bf
00000340: dd09 fade e04a 13c0 26fc 4122 12b3 1ec0
00000350: 2480 170f 5e7f 30c0 ae5e ab58 a973 22c0
00000360: 002a c9ba bdfa 01c0 bb0e f589 0e96 20c0
00000370: 7057 3368 6b3c 1040 26a8 e032 db97 0fc0
00000380: 3748 9d6e b42b 1cc0 0e35 241a 9166 0dc0
00000390: 9444 6cb8 b835 29c0 8306 7302 f2c8 1ac0
000003a0: 32c3 279e 238e 13c0 79b8 c5d7 a9c7 1ac0
000003b0: 410f 07e3 63c0 1a40 a64b f6f1 3c6f ffbf
000003c0: 9858 aaf8 c7c1 19c0 5ad6 b704 064b 24c0
000003d0: b408 2170 cb7f 2dc0 1a10 553b 29b2 27c0
000003e0: 8991 5280 b7d6 08c0 a3e1 c8ac b310 1dc0
000003f0: 1c6a ddb6 8905 f73f 2463 2d2a 0f3d fabf
00000400: bae9 4df0 1566 1fc0 a8b3 98cd 89be 1fc0
00000410: b537 ecd3 c630 2dc0 44af 13de 8c34 22c0
00000420: 5fa0 f729 6ef6 09c0 f6bd 93c7 6c67 17c0
00000430: 80e8 4461 97cd 1740 605d c656 0e7d febf
00000440: ce2b 901a 7675 1ec0 9a2d 2322 27b6 21c0
00000450: 0890 b145 534e 2ec0 9f13 730f 7507 24c0
00000460: 9edb 220a 9a23 0cc0 d4ba 07ef a658 15c0
00000470: 5c91 471c a0b0 1240 36c1 b593 b7da f4bf
00000480: e9cc d394 abbe 21c0 04dc 0714 b090 20c0
00000490: a6d4 7bba f860 29c0 4493 3298 e958 24c0
000004a0: ef5f 9a31 e79a 03c0 0a72 ca9c acd4 1ec0
000004b0: c086 ce62 b191 0940 f3ac afb4 ef48 e63f
000004c0: 0eb5 1dcd 318f 21c0 ead3 6876 43e2 1fc0
000004d0: 6d1b bc21 9bdd 2bc0 6ea8 a145 e2fe 21c0
000004e0: b4ee 7aa3 f3bd 07c0 f628 0f8f bf66 13c0
000004f0: 526b a243 213f 0d40 db26 27bc b909 13c0
00000500: 7718 bae7 dd81 25c0 924e 2998 f4f1 20c0
00000510: bae3 73a5 b672 2fc0 801c 78e4 dafa 21c0
00000520: 7430 b5fa 6e82 0ec0 f8d6 d6ea 9c94 19c0
00000530: ee33 e175 f1d6 1140 34d0 c773 97b6 0ac0
00000540: c4a5 cbea dbb7 1bc0 73ce 4195 242f 20c0
00000550: a7d7 a18f 96b2 2dc0 d92f 4c09 ec90 1ec0
00000560: ae19 c4cf d006 09c0 fa77 cdfc 8737 12c0
00000570: 86de fa42 9540 1440 d99a 6c19 2cec f9bf
00000580: 6ec9 334e c1f4 22c0 40d7 7d4e c2c8 1fc0
00000590: 588b 2363 2ff0 2ec0 1410 baf4 6329 1fc0
000005a0: 3458 a03c f990 e5bf 21fb bca3 be9c 1fc0
000005b0: 9d90 721e a5ed 1040 52e6 9be2 0135 d0bf
000005c0: 9f77 6b02 d8c1 22c0 674d 6434 462e 1ac0
000005d0: fffd 5f20 c5d4 2ec0 3bde de06 e278 20c0
000005e0: 682f 2cfa 3a99 f1bf 70d6 8a0c 96bd 12c0
000005f0: 9aa3 dcbc 6f66 0140 8cfc 8465 1bc2 02c0
00000600: 14fe c0c5 61c0 1ec0 e3b1 8103 12d3 20c0
00000610: 917e c0ad 8a8b 30c0 bc8a c318 cf23 1fc0
00000620: b34e 0441 ba07 f8bf 7932 d302 506c 15c0
00000630: 609b 7841 2ab8 e73f 1548 b68d b8c5 f6bf
00000640: a488 2b37 ec01 23c0 4ef3 e549 9e88 1ac0
00000650: 3782 cfda 45e4 2cc0 becd fe7b 451e 20c0
00000660: ea96 cd14 64a0 febf 4a5f 9386 0a78 14c0
00000670: 60d7 548d 402a ef3f d854 3923 10d6 01c0
00000680: 6269 12eb 5177 1fc0 988d be1c f7de 21c0
00000690: e10f f6c2 b0b4 2fc0 fb0a 6083 05d8 1ec0
000006a0: eb69 9efe bd4e 15c0 8468 87f8 4add 20c0
000006b0: 7294 b163 be04 0d40 a05d bae4 1042 f53f
000006c0: aa36 5068 3afd 1dc0 4806 8fea b67b 1cc0
000006d0: 7e37 7219 b51d 2cc0 952c 4f93 4294 20c0
000006e0: 5291 c1a6 b05b 02c0 8df2 46f5 0a88 16c0
000006f0: 5240 2d74 31bd 0240 8e81 f693 238e 03c0
00000700: 6d8b 9631 9419 24c0 3917 da00 02e0 1fc0
00000710: 844e d19f edbe 2fc0 4e8a d2f1 3bde 20c0
00000720: 5d72 ef11 d377 06c0 74d2 799b 50ee 11c0
00000730: dcac 28c4 01b3 0a40 eb24 22c2 1cde f6bf
00000740: 5d79 4a2a 1be6 23c0 7567 23d6 3137 21c0
00000750: 9cd8 2e66 cd14 2dc0 7c1b e58e e997 1fc0
00000760: 8f0b d6f1 3942 02c0 af4e b4bb eeca 15c0
00000770: ec5b 3d0a acdc 0d40 7c9b 2735 ad49 fabf
00000780: e361 8781 c7a4 1cc0 f2b6 a7cc c628 21c0
00000790: 41a8 e1bd c172 30c0 da2d 8884 4fca 22c0
000007a0: 8e26 bb20 443a 0ac0 4120 a2dc 0f13 19c0
000007b0: 9988 47a8 e077 0940 2cc3 daf2 a28f 11c0
000007c0: a79a d1ff e40a 21c0 29f5 37f2 3234 1cc0
000007d0: 33e8 8aff 2ac4 31c0 8b6a 78b5 5c3a 22c0
000007e0: adb1 fbb0 7a4a 10c0 003c 8abf d0f5 16c0
000007f0: faa7 5b3d cc45 f53f bcac 9837 19a2 0fc0
5.489724067311041 -19.56382102223897 -25.173618149411322 10.377311567432525 -9.253865539419724 3.0528649551946967 1.499438850945939 10.227052382182752
2.2881589351484326 -13.34041973394337 -13.375082902798885 -6.928966349494318 -2.944002726712967 -8.746691603435282 -7.0508378007626495 -5.259644754937384
-30.39373279066163 -13.407890645744041 0.30908375060223925 -14.943835717448668 10.551441573722435 -12.999071723117023 2.284355154815743 6.001638301895435
4.55963169988844 -9.99871438623616 -21.961280733575506 0.6030023553149846 -9.996382612447537 4.688486288248678 17.077202775109328 0.5510715900751642
-2.3117361354774677 -6.2365233043123105 -17.126879310959783 -4.802944215793172 -7.296595066887898 -7.084422910800453 10.509528452384316 -3.6799991528350438
-4.685122573247321 -9.039512597047876 -16.831053305067066 -4.572324904066263 -0.6500338200397979 -0.5405192463815638 19.318139287024962 -1.1834712566656886
0.2900867540682963 -7.634407296711396 -19.52831767100418 -4.0033571463587725 -8.525549567959521 -4.131809552038166 11.66774795800027 -3.0497691643678175
-17.201039991110907 -10.02467390041308 -11.555830734947435 -9.904230786242337 5.533179968330192 -3.3606059068934835 12.901599728908943 1.712853645762885
-5.344047864324721 -11.728736362410073 -14.147670305590632 -8.94696737630592 -4.190637686504857 -2.964499820613739 5.783091350795358 -0.10136403049071052
-9.840681056491238 -8.394829703187684 -14.123661313310407 -9.031359004923806 0.8878997847787713 -4.870774998889365 9.869553142744273 -1.196858337182435
-8.062052085180218 -8.07034694283034 -11.532837393563726 -9.385456774855552 -2.598001304247753 -10.288653256950466 6.8081885506336555 -0.6803661237364658
-9.613971828482047 -8.128472263848217 -15.701823576899207 -9.825219039333286 -0.8176033287531017 -8.099320301874938 3.999620177772354 -2.571661651437896
-7.747393897469338 -8.676855834896239 -15.168907257153203 -10.180175089785738 -2.111956552287986 -6.040433626133477 6.920251838992808 -1.266047652488354
-4.823123439799443 -7.674873862531092 -16.497528975713195 -9.225901385230227 -2.2474321930542374 -8.293079672970057 4.059003475316658 -3.94914855716799
-7.042680481290566 -3.675081447820623 -12.60492492982511 -6.696235693235965 -4.8888077461022466 -6.694983836596401 6.68788103800381 -1.9646577312130176
-6.439239392659282 -10.146530291977957 -14.749598983795615 -11.847970823415427 -3.1048421883771806 -7.266310405503108 1.4388520377311869 -1.6399070403624103
-7.849693064456398 -7.936072552151849 -14.59526693590656 -9.102637233641538 -3.245327308530292 -5.851000898735483 5.9507727812107305 -1.9055312528269823
-7.614708342599398 -8.855767313760953 -15.152979066777348 -10.014564974591677 -3.517383650959757 -5.3365743015735525 4.672485772960808 -1.3033977289124556
-8.872402811865372 -8.282593370398907 -12.6893976474915 -10.173657184766519 -2.450636279605525 -7.707689714294711 3.1961391181256147 0.6964033631351455
-8.7796768282665 -7.970960474155598 -13.932824186527535 -8.997820068343767 -2.9677498599902155 -4.8503401139262134 3.6558251651708042 -4.7594975851913786
-10.753646127192253 -8.472569232027386 -15.724049730679202 -8.989951266920116 -3.8136882387680604 -6.3951298421504745 4.4599054735854065 -3.3391560597756555
-6.929549854926737 -8.092075981410039 -14.848804939752723 -7.6415254070998 -3.1283279639930788 -4.55422968868333 5.063069387971728 -1.6201592438825883
-9.478037303754459 -7.946053720885004 -15.469111536110788 -7.790420364242909 -0.6739469703777616 -7.903070982369884 4.2320751912522185 -0.25323531274589073
-9.378601146334232 -6.545189684507341 -15.415566455571932 -8.236099447923257 -1.0999097607009052 -4.685142703985193 2.1750178103288365 -2.344778817292143
-7.687872972397162 -8.412246808607 -16.545084819312766 -7.7849696988438915 -1.5018866100044022 -5.355773967876865 0.7412310866101102 -1.4232717071176968
-9.503755306305102 -6.633416323337611 -14.445845449286123 -8.059123873571362 -1.9141579449291677 -5.117227652306449 0.9739077339533928 -2.22952296751701
-7.866523430823095 -8.935479067097546 -15.852911083733433 -7.710958531128877 -5.32689664689904 -8.432212606934861 3.6273162640159677 1.3286293921172287
-7.4972931193312125 -7.120814957599187 -14.058022303764798 -8.289570430197537 -2.2947705295393144 -5.632854301886835 2.342379481917342 -2.444403797111767
-10.049958753230124 -7.9687576420890815 -15.872906679439673 -8.43405109114715 -2.8085080529402107 -4.4827293675522135 3.337405712596235 -1.429226644834041
-9.949426004019807 -8.607802097150605 -14.540629571169397 -7.898351891263584 -2.282337083191528 -5.4481763199616315 3.7327500152564337 -1.642987449298487
-7.1609173048859445 -8.579641719315507 -16.448268764106846 -9.395137921927859 -3.27845025607241 -6.268615195651422 3.1835339686231916 -4.390270037271687
-8.521278375946464 -7.0509755942014545 -17.766281100666856 -9.113988562535516 -4.072733655321298 -5.740054123699338 1.3295404812620277 -3.954149660441173
