ce_results/6x5_grid/10_times/ce_constant/best_weights_ce_6.npy (npy, 6528 bytes, 1 tensors)

array f8 [100, 8]
-19.578959582520703 -4.36350681884751 -11.921607994413897 1.6395117934437262 0.7906294235231061 6.790654108730362 -5.078766850424462 -5.436504136991198
-14.723023207202504 -13.934337013632547 -9.647212147713608 8.624123985574013 -2.5538309670625137 12.542644805001 -4.676483756959689 -4.477865128412333
-12.554817640994038 -3.849322464802503 -8.235050980641114 4.20743794219071 3.223819582334608 4.28392265632209 1.5533320747917982 -5.139634159851639
-4.5754462208685025 -9.53780533480987 -11.869344189746048 0.3803707847786732 0.5952653786890151 5.87846730916313 -0.28304729274251916 -0.09388895156530208
-13.70444131600608 -9.597674865949092 -6.21692472155895 7.231121316382972 1.1236244195223188 10.162969480883923 -7.041340167748359 -6.441755673596827
0.20283621028460264 -3.736061763209404 -8.207742509669249 -0.36121611069814663 2.7758899906565753 2.6128426429666023 4.634895220664759 -8.387664430811984
-5.6923764341557 -4.090137316152161 -9.955877597620493 -1.768024124494529 1.7071921579260614 4.3532661639803365 -0.047425993693598345 -6.215578233385704
-7.549530605299552 -7.817298301335965 -10.605246467330137 1.7471359337183463 -0.46991679196005753 6.89616455767265 -1.2688659313790724 -6.308185222041714
-0.974571558592872 -1.7734845732639775 -10.610277962772669 -4.590081826241001 2.001190690973393 1.7584158204472282 3.8639304486185004 -4.994557855518469
-2.7327727730939104 -3.359474973694792 -10.376405708063736 -3.3600658873881164 1.0683332971647923 3.0219588576196337 3.1399140438461295 -4.4304371802443985
-2.582762388823608 -3.3395063385764647 -15.18063458896535 -3.9037840695021195 3.008077415405422 0.8580402996918735 2.249599426642865 -3.3031278366838803
-3.339898346444979 -2.4112257360500062 -12.976646986452378 -4.611108530213975 3.3030894881761137 3.4603056543695634 2.726732371854708 -4.721570231794097
-2.474476372928986 -4.345869901622903 -11.474978919913921 -7.165126132793537 2.2449926562169136 3.054451018394218 0.4158431576765992 -3.2006335262104733
-6.236587561511532 -3.154010328196342 -11.34195076820139 -3.8169714457882216 0.246386441264564 3.3020013101818826 1.2334120504544395 -4.982712026351676
-2.2072906722632597 -2.168968345051985 -12.663545678339936 -4.4611421199330055 1.4403606603845076 4.039204766434526 3.28876820627364 -4.943429505539604
-2.536216483769284 -4.428999243035059 -14.26945286025115 -5.196855125779069 2.0238350884515364 3.2783816165782764 0.5717488109976416 -6.058801281215256
-0.8988140849047532 -3.2962626323917887 -12.633071566694166 -7.190805522568022 2.0402540736587524 2.855986222896564 2.5573215743673385 -2.3133686996079135
-2.2345172380384204 -3.0781749853889453 -11.839332548005094 -9.285378589390717 3.1956013399039693 3.927303040767913 2.848482749537714 -3.4872854189280496
-2.7653806875394453 -3.8170874259259184 -13.410234061890945 -4.78873156293851 2.116742929577959 4.708065044152023 1.1501987842924934 -5.591245350994707
-3.9129426065720017 -3.7109247766247133 -12.97281464368822 0.6994390044120333 0.5036430150876565 3.980458715597527 0.6549378268574271 -5.981097500234883
-4.808843412538516 -2.8520851728036627 -13.383110638369097 -3.456198403540361 0.3582166416927761 3.400134837443023 0.30720654135889447 -7.325112345358553
-0.37968019781469153 -4.841560698841638 -11.842103666472964 -8.946979311645897 1.7142145668246402 5.735355474464917 3.8461048495683636 -1.9391904418160255
0.8472057320415047 -0.6714920748680935 -11.385279663876375 -8.377051751029676 3.891648186936815 6.289516552780141 0.8679444448957307 -4.465262509174622
0.11360696381908686 -2.978375149272282 -13.113435145719428 -4.781162545515094 1.72048091271793 6.08980929675236 2.548378370980754 -3.375308132689107
-2.0497208734954935 -2.428387980195735 -11.747520508669854 -4.886462133195864 2.702822956476742 6.785277983596147 3.4202999965305656 -6.2161822482964375
-2.266450924252747 -1.8920999853608038 -12.845817171599501 -2.4835256460541473 0.21078706640756528 4.27492878529673 1.256073789519394 -6.2538032386901445
-0.15374361902126354 -3.0615907945205487 -11.965765972282027 -5.367408392292667 5.1169498000940425 7.050451844330845 1.2865006271402595 -5.964111451876205
-2.2595638017274187 -3.683666844399565 -11.2566480514879 -1.1375981364418908 -0.7012364732083358 3.7081055427763085 0.5852250561795046 -4.516624690698283
-2.8829105325601043 -3.0583386419685947 -11.982326645629477 -2.0459333630376983 0.6170618256775029 4.823328173327195 1.076317458093185 -4.315781158721815
-1.4232330229531671 -1.8736644853923385 -11.671619759016421 -2.791653778715994 0.3719807094201004 5.3688889946068405 0.10197897598781491 -6.004003262403354
-2.321799826831264 -5.010527650426148 -13.599965830393778 -2.28910203111928 1.3487453991306988 4.04179724327055 3.667167773048203 -6.2963794821328225
-1.4300632122290666 -2.1129353766934216 -11.619700746713033 -3.4639181518626296 1.1170819736392452 5.636381200446879 0.7015167751389626 -4.151444030553113
00000000: daa1 f8b1 3694 33c0 ce4a ab21 3b74 11c0
00000010: cc7a c700 ddd7 27c0 2bf4 e3b7 703b fa3f
00000020: b52f a913 d64c e93f 9cc7 0d3b a129 1b40
00000030: f553 da41 a850 14c0 9ac8 c3f0 fabe 15c0
00000040: 195e 0a19 3072 2dc0 fafc c96b 61de 2bc0
00000050: fb01 0064 5f4b 23c0 0e61 d52d 8d3f 2140
00000060: 495d 18ee 3e6e 04c0 aea5 358a d515 2940
00000070: 16ab 7128 b8b4 12c0 20b8 e979 55e9 11c0
00000080: 64a0 ce0e 111c 29c0 ccad 9093 69cb 0ec0
00000090: 1d7e 259a 5878 20c0 72a2 a69c 6ad4 1040
000000a0: f4a6 d2eb 61ca 0940 bffc ed9e bc22 1140
000000b0: 06f0 d0bb 72da f83f 70de d741 fc8e 14c0
000000c0: b3f2 2cc6 414d 12c0 d53e 8938 5b13 23c0
000000d0: 92da 7fae 1abd 27c0 bf9b 3eb4 fe57 d83f
000000e0: cb21 bdfa 690c e33f d3d7 2def 8c83 1740
000000f0: b43a 6364 721d d2bf 50bf 6d38 1b09 b8bf
00000100: 0665 3c88 ac68 2bc0 fac8 a570 0232 23c0
00000110: 8c28 a383 21de 18c0 e517 fd10 abec 1c40
00000120: 915d 6d99 5dfa f13f fc48 5dbc 7053 2440
00000130: 20f6 b113 552a 1cc0 ecae 6b99 5bc4 19c0
00000140: 20f8 ce74 89f6 c93f 5b90 8659 74e3 0dc0
00000150: 6a09 ea39 5d6a 20c0 a428 8f2d 2a1e d7bf
00000160: 554f b9cf 0535 0640 0a16 290b 1ae7 0440
00000170: 3f91 04f9 218a 1240 e251 c8f3 7bc6 20c0
00000180: 1be1 f453 fec4 16c0 4a17 e4f4 4c5c 10c0
00000190: a484 d9c9 68e9 23c0 78e3 13aa d349 fcbf
000001a0: 4b7b 64b9 a850 fb3f d050 f49a be69 1140
000001b0: a0e2 c947 3848 a8bf f67b 588a c0dc 18c0
000001c0: 90a6 a726 b832 1ec0 de41 8dd8 e944 1fc0
000001d0: aa67 6edd e235 25c0 9cc9 0fcf 44f4 fb3f
000001e0: d8d1 53e1 1d13 debf 4227 6c29 ac95 1b40
000001f0: d481 e45c 464d f4bf 5f1e 27e8 943b 19c0
00000200: 8c94 78b1 b02f efbf 9c11 225c 3160 fcbf
00000210: ff27 675a 7638 25c0 1cad 0669 3e5c 12c0
00000220: ab52 d643 7002 0040 0a70 99a0 7822 fc3f
00000230: 38ae f65d 54e9 0e40 14ba dd5f 6dfa 13c0
00000240: 5ab3 bef8 b7dc 05c0 2aff 3d6a 34e0 0ac0
00000250: ac52 bc3f b8c0 24c0 bee5 5539 6ae1 0ac0
00000260: 64cf c8a7 e417 f13f b8ab fac3 f82c 0840
00000270: d88f 1441 8b1e 0940 5287 3086 c4b8 11c0
00000280: 9bb0 ca53 7fa9 04c0 d4c3 6719 4fb7 0ac0
00000290: e243 0823 7c5c 2ec0 5842 6924 f33a 0fc0
000002a0: 1c05 58e4 8a10 0840 cc73 3aee 1075 eb3f
000002b0: 6c40 f4fb 2dff 0140 1684 8849 ce6c 0ac0
000002c0: b890 cf9f 1cb8 0ac0 cfdd fcb7 304a 03c0
000002d0: 8f19 e512 0bf4 29c0 774d 3e6f c671 12c0
000002e0: 82d2 7b2e ba6c 0a40 0173 1dbb b4ae 0b40
000002f0: de7b d00f 59d0 0540 884a 8d4e e3e2 12c0
00000300: 37a3 c344 bacb 03c0 7e90 30b8 2b62 11c0
00000310: afa3 de6f 30f3 26c0 b640 30d3 16a9 1cc0
00000320: ccb1 b1b5 bef5 0140 80e5 f903 846f 0840
00000330: 9a20 9f9e 2c9d da3f ee70 0cc0 e59a 09c0
00000340: 6554 7d02 44f2 18c0 cfcb 56c4 693b 09c0
00000350: ba88 cc2b 14af 26c0 f568 4b53 2889 0ec0
00000360: 485e b445 9789 cf3f 88a4 b4a9 7f6a 0a40
00000370: 1d1b 3346 0ebc f33f ee43 ba0f 4cee 13c0
00000380: aa17 1103 88a8 01c0 cd75 6013 0c5a 01c0
00000390: 8cbe 5742 bc53 29c0 75ae cfa3 35d8 11c0
000003a0: 26be ac9e b70b f73f 04bc 564b 2528 1040
000003b0: 168f 90b4 654f 0a40 077f 6162 12c6 13c0
000003c0: e9eb 2ade 2b4a 04c0 9960 db93 4bb7 11c0
000003d0: 482f adb9 f589 2cc0 9315 dd63 94c9 14c0
000003e0: 452c 6b73 d030 0040 2917 1824 203a 0a40
000003f0: 4e60 9829 c44b e23f 3421 2f67 363c 18c0
00000400: e033 7bc1 15c3 ecbf 6332 69f1 be5e 0ac0
00000410: 36f5 d5f4 2144 29c0 aa4d dd85 62c3 1cc0
00000420: 3329 4fba 7052 0040 a656 094e 0fd9 0640
00000430: 861a 7a03 6575 0440 903f e372 c781 02c0
00000440: 3ec9 dd92 4ae0 01c0 eae2 ec34 1aa0 08c0
00000450: eb4c e8fe bcad 27c0 d0d2 7824 1d92 22c0
00000460: d787 6f6f 9790 0940 e6a2 4cdb 1d6b 0f40
00000470: 8be0 e352 b1c9 0640 b8e8 d0e5 f5e5 0bc0
00000480: 7ac6 efe8 7f1f 06c0 de98 e221 6589 0ec0
00000490: bf0d ef32 0ad2 2ac0 5293 303f a927 13c0
000004a0: ce9c c4ea 16ef 0040 814b c000 0fd5 1240
000004b0: a7f6 26d7 3667 f23f bbbc d96b 6f5d 16c0
000004c0: 5ed0 72da b44d 0fc0 6c27 4c54 f9af 0dc0
000004d0: ee6b cfc2 14f2 29c0 30e3 2fe8 cd61 e63f
000004e0: 5621 d5f4 d71d e03f 6d8e 34bd fad7 0f40
000004f0: be82 682c 40f5 e43f e2c8 b6d2 a4ec 17c0
00000500: 79c0 9172 413c 13c0 32c9 f407 12d1 06c0
00000510: 0417 dd13 27c4 2ac0 cc8b 3d59 4ba6 0bc0
00000520: e404 3d7e 05ed d63f e876 c6e4 7933 0b40
00000530: 003d 10a0 45a9 d33f 065d 2b40 ea4c 1dc0
00000540: e462 232c ae4c d8bf b67e 7c16 c25d 13c0
00000550: a7af 3636 28af 27c0 f403 eb78 dae4 21c0
00000560: 0e6b ed40 6c6d fb3f a80b 8706 01f1 1640
00000570: a210 8f9e d2c4 0e40 c80c 858e ec06 ffbf
00000580: 9a43 0332 4f1c eb3f d69c a2f2 dc7c e5bf
00000590: 6853 4860 43c5 26c0 dc24 57ed 0cc1 20c0
000005a0: 5573 d371 1822 0f40 8e5d f706 7728 1940
000005b0: 224e b26d 33c6 eb3f f0d6 73c6 6ddc 11c0
000005c0: d069 3392 5815 bd3f a1bf aa59 b6d3 07c0
000005d0: f429 e22b 143a 2ac0 c763 0713 e91f 13c0
000005e0: 7840 58fe 1687 fb3f 6cb6 e1f7 f65b 1840
000005f0: 9a91 0933 1463 0440 9194 de8c a100 0bc0
00000600: ccbb ac0e d465 00c0 7c85 67ad 566d 03c0
00000610: 12a7 1302 bb7e 27c0 e1df bcba bc8b 13c0
00000620: ab90 67a4 619f 0540 d241 67e9 1f24 1b40
00000630: 8edc 9c3e c65c 0b40 c4a2 19e1 5edd 18c0
00000640: 763c ad05 b121 02c0 0d30 5ea2 0a46 febf
00000650: 85d4 c4f2 0eb1 29c0 80a3 a4b1 42de 03c0
00000660: 78f4 5112 12fb ca3f 5850 76ee 8619 1140
00000670: ce93 75d4 e018 f43f 162c 07ff e403 19c0
00000680: 101f d5f3 dead c3bf 729a 8150 237e 08c0
00000690: f714 a5e0 78ee 27c0 18b1 d4e7 3978 15c0
000006a0: eab5 3ab0 c177 1440 09b2 f5a5 a933 1c40
000006b0: 4e9d 7dae 8195 f43f 8e07 4e08 40db 17c0
000006c0: 5428 bd2f 9613 02c0 fa71 9052 2678 0dc0
000006d0: 0072 975f 6783 26c0 ae22 801a 9a33 f2bf
000006e0: 5c26 e678 8770 e6bf 7fb9 223d 33aa 0d40
000006f0: 4de7 a2e5 29ba e23f c46b 1b10 0611 12c0
00000700: e21d b565 3310 07c0 0cc9 fa3f 7a77 08c0
00000710: 9cef a184 f3f6 27c0 7256 a04f 125e 00c0
00000720: 40a3 1c71 f8be e33f 4d43 698a 164b 1340
00000730: 3bfc a9a7 9838 f13f db9c d522 5c43 11c0
00000740: b4bc 82fd 8fc5 f6bf fcfc 869c 87fa fdbf
00000750: 57a5 888b de57 27c0 5ab8 8a93 4e55 06c0
00000760: 04f1 6c2d 88ce d73f 47c3 5e09 be79 1540
00000770: c04a bf4e 4b1b ba3f 1b66 646e 1904 18c0
00000780: 39ca a0c9 0b93 02c0 d822 a9c2 c70a 14c0
00000790: 7c84 a8b8 2e33 2bc0 75ea c6b9 1450 02c0
000007a0: 5e59 3e0e 7694 f53f cfa3 83e5 cc2a 1040
000007b0: 597f b10e 5c56 0d40 12dd 5b1a 7e2f 19c0
000007c0: e7c8 7bf6 89e1 f6bf 70ad aba9 4ae7 00c0
000007d0: e6e0 906a 493d 27c0 822a 52b8 1ab6 0bc0
000007e0: 03b5 fb58 91df f13f 92d5 6e83 a78b 1640
000007f0: c026 da4e d372 e63f a599 d924 149b 10c0
