ce_results/6x5_grid/10_times/ce_constant/best_weights_ce_5.npy (npy, 6528 bytes, 1 tensors)

array f8 [100, 8]
-19.20123266535439 -4.318042167607101 -12.717792445442344 -0.6925408803852079 12.11927778650763 10.033926086364886 -5.584369530042833 -1.7060278920645886
-22.852108640676263 -8.069875064114298 -10.08306442728761 0.9856273115290559 16.18065720297736 0.7227634800772353 -7.167576492160562 -1.2634098389420183
-10.9314964474177 -6.838826658267786 -11.918029469846681 4.033297389609441 7.49426234397513 0.16048332170313184 -8.037448948064458 -4.743858039369132
4.20897742142347 -2.915146713093339 -16.261385790478297 11.248437410530249 4.159220913565662 6.50361253884612 4.316730906762631 -12.661946103948008
-12.410354993846003 -12.111868882928109 -11.190095960523658 -1.7970826119156458 7.898950520849607 3.4574911303638323 -4.431725165489825 -0.859483965975655
-6.063301521723057 -5.642427200531132 -12.14583025412942 4.507409095487163 13.132946498984651 9.43167203572442 2.4700865257429605 -3.6489319409129033
-6.403266832455035 -5.593420122396614 -11.402251784914961 3.881862629074196 8.182933935044957 10.490991171283673 0.23504985786331423 -4.916509300115634
-5.552378770889555 -5.894825285849191 -18.313678075034318 3.5885078227612337 4.070679086434117 3.88546080590905 -3.054518316888488 -3.6732298743494756
-9.288327890161408 -7.75736486624909 -13.125688154913671 3.8058222513936424 6.297822225567958 7.093053297784081 -7.62344849630788 -4.215725574342097
-3.532780981142372 -4.548490357272562 -13.826934164875132 6.937085634889546 8.198949158316156 9.404046425562104 0.17085203867228493 -6.218295691829725
-3.3747924406691463 -3.275232105826869 -13.92006910233812 7.401478092565511 6.140905196676675 10.172660496987458 -2.8597019120063107 -4.576931044029342
-7.2061196303770085 -8.042669854211002 -13.67936886796452 5.237328973776736 4.999512786454647 9.03379392938351 -2.105632548570667 -3.3404748164597278
-8.987446334953276 -9.317415014472125 -13.655096708550445 6.088420866251338 6.5588627828685535 6.407642406423616 -3.545523563219751 -1.2539018933750112
-7.0119109111308475 -5.935720272123967 -16.518080052443004 4.111925503222154 5.309432907690107 9.092113645006593 -2.4863271389426265 -6.939347473469121
-3.9638225522477635 -6.272676829635299 -14.970673576638566 5.429147761331245 6.815600710573315 8.30906055232095 -3.9431920141649015 -2.789048567477102
-5.743510667239671 -5.7622922488348856 -15.162247590975788 5.235993647873504 4.576462148728001 9.02622957018099 -3.26119109743931 -10.644230665467752
-6.591210365580636 -5.900604005654539 -16.242698518199663 3.653351886254227 6.864853461509642 8.209468594180581 -5.593387696914444 -5.881704984931228
-11.359772422820308 -9.572134685292125 -16.532098134717753 3.6886328948876743 9.369078178847527 -0.408553942648088 -9.881481545693784 1.8009303773286751
-7.1989168306856275 -8.005429859744712 -16.449165870841952 6.180270269569326 6.304499237978901 4.535202273636145 -5.95024030977577 -4.123765521110855
-5.507520384089565 -4.762890561083157 -16.809514727627953 4.563161649548736 4.5403445486334295 9.284509646908665 -4.406423618145542 -9.07339184170296
-8.688210210083156 -7.711806039060166 -16.757106587786158 3.510396501564167 7.401712555331769 3.140845153600565 -6.778221015233647 -0.934498268526001
-8.809550586386305 -7.16417066741126 -17.079464421118423 4.788609765373656 9.531462663510023 2.409220048482962 -9.369189154183765 1.1566680057571643
-5.5281972049827885 -4.348305967347539 -16.717290500077866 2.4390714406851166 7.60297365051076 5.835243841998596 -8.390642764085989 -1.2396051123378884
-9.846515189513292 -6.522457599536559 -17.249713332104204 6.630004852199194 10.588097416343997 2.347482390618438 -9.477407551451085 -1.4956964668442718
-6.828987204253955 -8.300178736915464 -16.71004484871914 4.614065945466927 4.922018166185071 4.7153330941456435 -8.016704843478344 -1.3988790908559865
-4.653865093568918 -5.635293566947947 -13.365043796172701 5.716081105778891 6.91672613039879 6.1265778232513926 -8.076262779875318 -5.332813219433351
-4.88644447679296 -3.151528470869838 -15.772969692125669 3.003882502755288 8.186067150351688 5.07152688391033 -5.903927189250583 -4.310370952990997
-7.905098380520751 -5.184936510689974 -15.314735500569093 3.957892742329201 7.195706893564713 5.660131225018329 -8.051296864278765 -2.7804135528774125
-8.147991975109468 -8.954531858546462 -18.557126878124212 5.545084856720743 5.080320372558922 5.00238230206269 -7.400368673372514 -1.9572648788102458
-7.758035705805419 -6.293485438032956 -18.03113608505505 1.4462793718763978 7.775731887920196 3.8311903859575924 -7.323569078643294 -3.390797016495868
-7.331083698360682 -5.990782122440537 -16.987858208597977 3.5601720118906566 4.9794850488287565 6.27871347614766 -5.383358294655505 -1.9044976680303334
-8.402682563370092 -7.8280782660245025 -16.46872567810601 1.3065372356649432 3.3907234448820316 3.8424713373880115 -3.6875150948415323 -1.2248915586374842
00000000: 8295 e4fb 8333 33c0 5d7c 92d8 ac45 11c0
00000010: 41fb cc7d 826f 29c0 73b8 0c7e 4b29 e6bf
00000020: 0c61 60fa 113d 2840 40d6 8ec2 5e11 2440
00000030: 5e40 51f7 6456 16c0 1ab3 27e7 e34b fbbf
00000040: f457 b8ca 23da 36c0 875a 16aa c623 20c0
00000050: 9052 ad6b 872a 24c0 70f9 a149 428a ef3f
00000060: 1993 ea8c 3f2e 3040 9098 b5e0 e020 e73f
00000070: cea1 052c 99ab 1cc0 a435 3b3c ed36 f4bf
00000080: 98ff 331a eddc 25c0 aa17 2160 f55a 1bc0
00000090: ed82 6bf5 07d6 27c0 aca8 fdb5 1822 1040
000000a0: e811 6ce8 1ffa 1d40 e05a 22ad b78a c43f
000000b0: b469 2e82 2c13 20c0 13d4 ffeb b5f9 12c0
000000c0: 0177 5a2d fed5 1040 e838 9e70 3852 07c0
000000d0: 4fbe dd2d ea42 30c0 23a9 3230 337f 2640
000000e0: 406a a2ce 0aa3 1040 68cc 6001 b303 1a40
000000f0: 32b6 581b 5544 1140 b657 8899 ea52 29c0
00000100: 42a3 bc0c 1ad2 28c0 893b d3e0 4639 28c0
00000110: 051a fb41 5461 26c0 1435 66b2 d9c0 fcbf
00000120: bd15 3f7c 8698 1f40 5bfb 181c f1a8 0b40
00000130: 528e 6a29 16ba 11c0 78a8 a984 e480 ebbf
00000140: aa59 361d d240 18c0 415e a16f d891 16c0
00000150: a781 5843 aa4a 28c0 c13d fb3f 9607 1240
00000160: 7883 4290 1144 2a40 7911 f81d 04dd 2240
00000170: a8d9 72b9 bcc2 0340 e267 bc3a 0331 0dc0
00000180: d4d2 03fb f19c 19c0 56ed 4986 a95f 16c0
00000190: 4def 29f2 f3cd 26c0 8a81 7bfe 0d0e 0f40
000001a0: 80b1 4884 a95d 2040 8393 de31 63fb 2440
000001b0: b0e7 391e 1d16 ce3f efe7 f969 81aa 13c0
000001c0: b9e6 cfc7 a235 16c0 ad6c 6914 4d94 17c0
000001d0: a0be d134 4d50 32c0 e998 e196 43b5 0c40
000001e0: 96fb 3219 6048 1040 4427 9a79 6c15 0f40
000001f0: 5b8d a04c a76f 08c0 642b 2858 c662 0dc0
00000200: 2e89 95b6 9f93 22c0 8fb7 cea7 8a07 1fc0
00000210: 96b2 a532 5a40 2ac0 8fff c0ef 5272 0e40
00000220: 6358 3b4f f830 1940 0012 1b5d 495f 1c40
00000230: e887 5948 697e 1ec0 2bd7 3a2a e7dc 10c0
00000240: 8d7f cfac 2243 0cc0 c7a0 ca74 a731 12c0
00000250: e32a 34ea 63a7 2bc0 a59b 6d60 93bf 1b40
00000260: b911 01aa dc65 2040 bab5 4f2c dfce 2240
00000270: c0b4 46c7 7ade c53f c210 e5e7 88df 18c0
00000280: 2fb2 db2d 93ff 0ac0 56af eae3 ac33 0ac0
00000290: 6134 214c 13d7 2bc0 6f84 b612 1d9b 1d40
000002a0: 4640 ae73 4990 1840 96be e7f4 6658 2440
000002b0: 9601 6365 abe0 06c0 d69c f802 c74e 12c0
000002c0: a621 3e06 11d3 1cc0 02b9 b8d2 d815 20c0
000002d0: 04a8 7b3c d65b 2bc0 ab0e d35d 06f3 1440
000002e0: b306 a747 80ff 1340 d202 1b70 4d11 2240
000002f0: 7e08 ace0 55d8 00c0 f672 4edc 4ab9 0ac0
00000300: d85b e690 92f9 21c0 94d5 8438 84a2 22c0
00000310: 00e2 f5d5 684f 2bc0 7e55 e3ff 8a5a 1840
00000320: ea7c 7d86 463c 1a40 6c35 d002 6da1 1940
00000330: 4ccf 3975 3b5d 0cc0 ac02 876e fb0f f4bf
00000340: 1817 b75f 320c 1cc0 19e8 7b74 2dbe 17c0
00000350: e2f3 f1e4 a084 30c0 c1b5 5f99 9c72 1040
00000360: 3e57 ebfa db3c 1540 29a3 0985 292f 2240
00000370: 9e53 a77b ffe3 03c0 3a85 d84d e4c1 1bc0
00000380: 4269 2899 e8b5 0fc0 6da4 4698 3817 19c0
00000390: 0b82 8520 fcf0 2dc0 f946 c082 72b7 1540
000003a0: e906 2ad5 2c43 1b40 8467 492f 3d9e 2040
000003b0: 337e 3541 a88b 0fc0 8e28 02b2 f84f 06c0
000003c0: 0b16 40dc 5af9 16c0 e4f5 da56 960c 17c0
000003d0: 0c31 c21d 1253 2ec0 c5b8 9e51 a8f1 1440
000003e0: b3ac f017 4c4e 1240 213b 54f6 6d0d 2240
000003f0: c410 ac5b eb16 0ac0 5487 0e9a d849 25c0
00000400: 70e6 0440 665d 1ac0 3bbb bbef 379a 17c0
00000410: 8974 767d 213e 30c0 3eef c18d 103a 0d40
00000420: b310 5425 9c75 1b40 e216 b377 3f6b 2040
00000430: 9c62 4006 a15f 16c0 cbff ebab dd86 17c0
00000440: 2508 4c17 34b8 26c0 4f79 64d6 ee24 23c0
00000450: 17e0 5695 3788 30c0 5ef0 93f6 5182 0d40
00000460: 7ea2 a7d0 f7bc 2240 50d3 946f bf25 dabf
00000470: 8e90 958c 51c3 23c0 5cfe 0f5f 9cd0 fc3f
00000480: caac 89da b0cb 1cc0 020d dcb3 c702 20c0
00000490: dcbe d588 fc72 30c0 27f7 00c5 98b8 1840
000004a0: ef1a f3a5 ce37 1940 600c 9810 0c24 1240
000004b0: b64f b7cb 0bcd 17c0 902c 8663 bc7e 10c0
000004c0: 46df 6e6c b307 16c0 f41d e92e 330d 13c0
000004d0: dbca 705b 3ccf 30c0 64b1 8c72 ad40 1240
000004e0: 52cf d314 5029 1240 0bbd 993f ab91 2240
000004f0: 4407 5183 2da0 11c0 9ad0 8f9d 9325 22c0
00000500: 3029 b216 5d60 21c0 526f abae e3d8 1ec0
00000510: b120 c2bc d1c1 30c0 f2af d1c2 4a15 0c40
00000520: 8f2b 3e89 5a9b 1d40 be1d 846c 7320 0940
00000530: 27f4 45f8 e51c 1bc0 109c afe9 68e7 edbf
00000540: 3ef9 196a 7d9e 21c0 b5f9 fd5a 1ca8 1cc0
00000550: 32e6 c1c7 5714 31c0 2758 7e51 8927 1340
00000560: 26a4 cddf 1b10 2340 9ad0 2829 1546 0340
00000570: ac83 5e5c 06bd 22c0 ace7 904f b681 f23f
00000580: 70f5 64ba df1c 16c0 8c09 cb51 aa64 11c0
00000590: e090 a759 a0b7 30c0 2bcd 32e3 3783 0340
000005a0: 7e2c b5ec 7169 1e40 0747 6629 4a57 1740
000005b0: 3456 1054 02c8 20c0 5421 972b 6cd5 f3bf
000005c0: bd0d 5d70 6ab1 23c0 8939 fe1f ff16 1ac0
000005d0: 43c3 8236 ed3f 31c0 4211 f2fd 1f85 1a40
000005e0: 7f1e c41a 1b2d 2540 ff22 fdd8 a4c7 0240
000005f0: 13b1 38c3 6ef4 22c0 1e6c 1d6b 5fee f7bf
00000600: f74a 8c05 e250 1bc0 5503 0407 b199 20c0
00000610: 25f1 cb7f c5b5 30c0 9978 05b4 cd74 1240
00000620: c254 b887 25b0 1340 7a68 5447 80dc 1240
00000630: 3cd9 8889 8d08 20c0 078e a40a cf61 f6bf
00000640: 787f a3cf 8e9d 12c0 3c9a 9565 8a8a 16c0
00000650: c156 3c05 e7ba 2ac0 596a 8a5d 44dd 1640
00000660: 45ce 3541 baaa 1b40 ed0d ed9d 9d81 1840
00000670: deee 42ea 0b27 20c0 2492 14fd cc54 15c0
00000680: b02e d619 b88b 13c0 0864 168f 5436 09c0
00000690: 37f5 f8ae c28b 2fc0 7ee2 b28c f307 0840
000006a0: a73d 8b31 445f 2040 f8b7 ec57 3e49 1440
000006b0: 922f cf16 9f9d 17c0 14e6 12e2 d13d 11c0
000006c0: 2bff 1f1c d29e 1fc0 caff 24ff 5fbd 14c0
000006d0: 3cab f302 25a1 2ec0 9209 8bab c3a9 0f40
000006e0: 4ad9 4d63 67c8 1c40 ac16 9a70 f9a3 1640
000006f0: e6ed 2495 431a 20c0 90b5 f775 493e 06c0
00000700: cb54 aa9a c54b 20c0 f1e4 5666 b8e8 21c0
00000710: 1d44 f9dd 9f8e 32c0 4aa4 84b9 2a2e 1640
00000720: 575f f580 3f52 1440 36cb 9581 7002 1440
00000730: 52e9 d93e fa99 1dc0 2e97 41fa f450 ffbf
00000740: c889 1683 3a08 1fc0 acd0 5872 872c 19c0
00000750: 7309 d388 f807 32c0 b46a b1d6 f523 f73f
00000760: 8a53 c475 591a 1f40 f47f 2325 47a6 0e40
00000770: 4614 4bb1 554b 1dc0 02cb a92f 5a20 0bc0
00000780: 9bca e29a 0753 1dc0 d25f b596 8ff6 17c0
00000790: 7203 8b46 e4fc 30c0 9fa3 b976 3b7b 0c40
000007a0: d88f ee20 feea 1340 e208 c410 671d 1940
000007b0: 6cc8 a813 8f88 15c0 0cfa f78b d278 febf
000007c0: 20b0 b068 2cce 20c0 1d6a bcbf f34f 1fc0
000007d0: c042 f267 fe77 30c0 acfe a296 93e7 f43f
000007e0: e963 0c9d 3320 0b40 ee30 cf9c 61bd 0e40
000007f0: 46ce fee9 0780 0dc0 50e9 17e4 2799 f3bf
