ce_results/6x5_grid/10_times/ce/best_weights_ce_0.npy (npy, 6528 bytes, 1 tensors)

array f8 [100, 8]
000000 16 65 de 50 d0 57 0d c0 b9 18 37 a0 b9 d9 10 c0
       -3.6678777997846153 -4.212622168886974
000010 3f 9d 18 57 09 ee 15 c0 0f a0 19 b8 29 c4 18 c0
       -5.482457505109152 -6.191565395893135
000020 98 f5 80 04 75 84 04 c0 ae 7f bb f1 3b 99 0a 40
       -2.5646763183455725 3.3248213658661916
000030 d8 be 34 87 41 b6 16 c0 13 5f af a6 23 a1 08 40
       -5.677984345049218 3.0786812803525065
000040 20 ac 41 5f be 95 0b c0 6c 6f d7 88 a0 af 03 c0
       -3.4481170122067084 -2.460755414080202
000050 c4 8e 5d 51 1c 0c 22 c0 59 aa 9c b1 a0 bb 1d 40
       -9.023653547926536 7.433230185687159
000060 3f b0 b4 22 2c 7a 27 40 00 1d fe 9c eb 8e b8 bf
       11.738617977673242 -0.09593079169109231
000070 c7 46 c4 8a e7 30 e1 bf b0 90 f2 69 7a 87 db 3f
       -0.5372197828566748 0.43014393183171773
000080 d5 6d c7 c7 c9 65 06 c0 d6 42 fa bb 11 9e 05 c0
       -2.799701271794883 -2.7021822629688854
000090 b1 e2 b9 6b 06 44 2c c0 30 c5 be 97 e6 c3 21 40
       -14.132861486855605 8.88261865810145
0000a0 f6 a1 8b 3d 3b fe 28 c0 b8 ce 62 de bc fe 07 40
       -12.49654571847439 2.999383675947538
0000b0 ab 6d bd 8f 02 49 f2 bf e7 96 90 f5 08 29 20 c0
       -1.1428247084466914 -8.080146478557664
0000c0 88 9d 29 80 22 c0 06 c0 46 5a 45 48 5f c1 fa bf
       -2.8438158047389983 -1.6722100089151737
0000d0 32 23 86 25 61 ac 2a c0 82 6a 6c 48 66 d7 07 40
       -13.336678669571118 2.980175557907672
0000e0 b4 29 66 02 1e eb 1a c0 8a 03 72 e9 78 e8 e7 3f
       -6.729606664166955 0.7471279677848639
0000f0 6c 8d a8 b6 27 81 f5 bf 3b 3d b4 7c f3 46 0c c0
       -1.3440320143789348 -3.534644102335418
000100 72 32 f5 73 60 43 10 c0 4a fe 2f f0 17 b3 0b c0
       -4.065797626343384 -3.4624480023046873
000110 f6 87 64 f1 48 04 2d c0 4e 78 04 e2 4e f2 13 40
       -14.508369010469305 4.986629039309333
000120 da f3 57 03 ef da 28 c0 d8 54 81 ea 29 30 c8 bf
       -12.42760477493896 -0.1889698405308653
000130 a1 f6 dc 16 c2 d7 03 c0 7e 0b 41 83 68 c6 1a c0
       -2.48035066472842 -6.693758059353852
000140 48 01 c6 ee d0 01 f2 bf 56 23 f6 2f cb 7f 0b c0
       -1.1254433943832556 -3.4373992678633085
000150 fd 7e 82 12 22 0d 2d c0 33 c3 45 a4 ec 78 16 40
       -14.525650576047605 5.618090216405835
000160 f9 81 a8 28 c0 da 01 c0 02 42 06 e2 2f 0d 02 40
       -2.2318118263649436 2.2564389856490843
000170 9b 60 f9 6a 19 c8 f7 bf f8 b5 6e de e8 48 15 c0
       -1.4863523653676 -5.321200824267628
000180 32 94 ff 53 0a 3e dd 3f 74 5e 03 98 aa ea 08 c0
       0.4569116421028553 -3.1145831943538784
000190 37 71 a2 09 64 3e 2c c0 4a 1a 76 25 ba b7 19 40
       -14.121856976584793 6.429421029408852
0001a0 a4 ac 53 0e 7b 65 02 40 f2 9a 0b 3b 1a a3 0c 40
       2.299551116875209 3.5796398747364657
0001b0 d0 46 32 ba 6f 46 e3 bf 49 ac da 30 6b 40 13 c0
       -0.6023481976173688 -4.812908900591602
0001c0 37 8c b3 65 b5 48 ca 3f e5 00 cd 25 54 e8 0d c0
       0.2053438898647941 -3.7384417489230253
0001d0 60 f5 53 82 7b 58 2c c0 0e aa 62 46 81 36 14 40
       -14.17281729960331 5.053227519771566
0001e0 2d d1 15 db 2b 52 03 40 32 28 84 db 73 19 05 40
       2.4151227108033226 2.6374280118661995
0001f0 8e 90 42 f1 8f c0 f7 bf 74 54 80 f8 01 7a 10 c0
       -1.4845122741908514 -4.119148142655025
000200 c0 c3 d8 fc 03 bd cd bf 22 c1 59 5a e2 cf 0e c0
       -0.23233079763443065 -3.851505952705467
000210 42 a1 e5 93 18 06 2d c0 6e de 5d e7 a0 5e 1d 40
       -14.511906263142581 7.342410674194623
000220 c2 6e 5c 8b d2 5e 07 c0 04 88 40 1a 6d a2 06 40
       -2.9213000190337377 2.8293096590941804
000230 dc 5a e0 f0 44 91 e7 bf ec 43 e6 43 82 de 17 c0
       -0.7364830689064905 -5.967293797425537
000240 c6 79 f5 36 c3 28 f8 3f c0 7e b6 d5 a3 0d 13 c0
       1.5099517962295166 -4.763320292724245
000250 1a 9d ed 3a 2a 81 2a c0 0e 09 df ee 09 40 0b 40
       -13.252275315766884 3.406268945867061
000260 bb 14 07 6e 47 cd 0d 40 e3 9a 97 ae ce f0 e7 3f
       3.725233897772879 0.7481454286579176
000270 7e 0c b0 04 ec d2 fe bf 10 e2 74 67 de 42 0f c0
       -1.9264946158516802 -3.9076507647080305
000280 10 29 09 5d ae e4 e0 3f 84 bc 37 c9 b9 d9 11 c0
       0.5279151742081769 -4.462622779871825
000290 b0 25 26 86 fa cd 2b c0 ea 2b 2a 49 6a 24 14 40
       -13.902301971584933 5.03556169814963
0002a0 e0 94 44 94 fe 32 ca bf da b8 05 56 be 6f f7 3f
       -0.20468122710841552 1.46478112795335
0002b0 57 27 5b 8e 66 93 f8 bf 3d f8 07 0b c5 e2 13 c0
       -1.5359864769729563 -4.971454784737998
0002c0 ff 7d 60 4c 71 7b e6 3f 86 c8 85 f9 c3 46 12 c0
       0.7025686732994813 -4.569106959143147
0002d0 b4 32 bc 26 8c 13 2b c0 ce 73 44 a2 12 c4 0d 40
       -13.538178644631763 3.7207386662616733
0002e0 86 34 aa df 46 60 fb 3f 2c ea 53 70 8a 57 e2 3f
       1.7110050904186962 0.5731861299421488
0002f0 3e a1 fb 2c 7d 09 ff bf 77 e9 e8 31 bf b2 11 c0
       -1.9398166424890202 -4.424557475891894
000300 c6 ca f6 1b ac f5 de 3f e7 69 6b 85 bc 42 11 c0
       0.48374464732038935 -4.315172276192675
000310 9f 85 42 fd b3 e0 2b c0 7b 96 d7 95 5b 39 14 40
       -13.938873209352833 5.056013432773052
000320 2e 77 39 95 fd 39 d0 3f 33 d7 ce 36 44 23 fa 3f
       0.25353946278288475 1.633609975904119
000330 f2 61 44 f5 3a db f7 bf e6 5d f4 e8 f7 8e 13 c0
       -1.4910230236765725 -4.889617576518026
000340 c2 5c 3b 4c 60 fd e3 3f 5d 36 a9 09 98 5d 11 c0
       0.6246797074226367 -4.341400290444281
000350 32 b8 62 9b 56 96 2b c0 6f 66 c5 24 64 a1 12 40
       -13.793629508782121 4.657608580158565
000360 8c a7 9c 8c e0 58 f2 3f b1 ff 0b 33 28 93 f6 3f
       1.1466985218671395 1.410927009012067
000370 a0 c7 67 f3 e7 57 f9 bf ed 8d 4e 6a 2e 9a 12 c0
       -1.583961439897827 -4.650567685169773
000380 f4 84 7f 27 ee d0 b9 3f d7 e7 53 03 8a 94 10 c0
       0.10084427322682982 -4.14505772781009
000390 48 ba 31 2a 7e 49 2c c0 d4 a0 72 c4 5e 15 17 40
       -14.14354068619754 5.770869321342804
0003a0 cc 35 ad c6 d8 1d f0 bf 67 52 e3 08 41 01 fd 3f
       -1.0072868119053622 1.8128061625658576
0003b0 ed b6 cb cb 36 22 f4 bf 8b ac 42 a3 9f 7a 15 c0
       -1.2583530388614534 -5.369749594635446
0003c0 3b ea ae b2 53 cb e2 3f c2 b5 4b 94 1b 5b 11 c0
       0.5873201837451413 -4.33897239410493
0003d0 8a d3 d5 99 13 59 2b c0 2a b9 b6 4b f4 5d 11 40
       -13.67397766814408 4.341752226855798
0003e0 aa 64 bc 56 da e2 fb 3f e5 00 73 af d7 aa f0 3f
       1.7428840053674244 1.0417095998273507
0003f0 de 0f 53 76 03 e7 fa bf fc d3 94 d0 9b 37 12 c0
       -1.6813997861909153 -4.554305323680634
000400 bd d1 19 62 40 6c e8 3f 9b 7c d9 f3 64 b0 11 c0
       0.7632142940552097 -4.422260103368127
000410 73 c8 fb a3 fa 35 2b c0 23 51 06 de cf 29 10 40
       -13.605427860722761 4.040832013259464
000420 0e ed b7 df 94 40 01 40 03 ca 6a 36 c4 4e f0 3f
       2.1565339544300803 1.0192300916356778
000430 00 c1 9c ef 0a 8e fc bf e7 79 d9 48 b7 67 11 c0
       -1.784678398118615 -4.351285112641995
000440 d9 67 0f 31 52 68 e5 3f 83 df 7b 4b b3 5f 11 c0
       0.6689845045286759 -4.343457393107999
000450 03 ab 2c c6 2d 7e 2b c0 24 fb c2 70 ab 16 12 40
       -13.74644297881378 4.522138368511865
000460 60 90 ff f0 7c 59 f8 3f e2 90 92 37 8c 96 f5 3f
       1.5218476690288512 1.3492548151780785
000470 12 92 65 89 74 f6 f9 bf a0 9f 4a f0 75 38 12 c0
       -1.6226697318135206 -4.555137400202426
000480 47 7d 43 0d 4f cb e1 3f ef 8b 73 c9 56 60 11 c0
       0.5560679682784347 -4.344081065823942
000490 41 63 da 3e 64 72 2b c0 63 77 39 6e a5 ab 11 40
       -13.723421062620789 4.4176232550215415
0004a0 90 f1 3e e7 3f af f6 3f 33 ff 9c be 88 d8 f1 3f
       1.4177855523149425 1.1153647847967931
0004b0 d2 5c 18 21 98 b8 fa bf 64 6f 6e e5 66 74 12 c0
       -1.6700669567851958 -4.613673767915177
0004c0 6c b1 e3 1d ad 5f e1 3f b6 45 77 24 f9 5d 11 c0
       0.5429292281892635 -4.341770715503506
0004d0 67 89 12 b5 88 6b 2b c0 ef 2f dc 52 c5 9d 11 40
       -13.710027369034561 4.40407304257313
0004e0 1e 3f 94 f0 6c 57 f7 3f dc 9d ab 23 cd 21 f1 3f
       1.4588441274281148 1.0707522767423745
0004f0 a1 bb b9 85 e7 ce fa bf ca 90 c5 56 20 77 12 c0
       -1.6755137656834693 -4.616334300812193
000500 13 04 e5 75 02 74 e2 3f b7 b9 69 6d 31 54 11 c0
       0.576661329520109 -4.332219800546617
000510 33 7c 62 f3 cf 75 2b c0 e4 53 91 60 64 f5 11 40
       -13.73010216309749 4.4896407211972225
000520 a1 27 61 3f c7 45 f7 3f 77 0b 11 43 2b fd f2 3f
       1.454535720421042 1.1868088359630897
000530 a9 5a 1d 91 db 3f fa bf ea b2 85 8c 67 73 12 c0
       -1.6405902546445452 -4.612699695263226
000540 2c a8 81 ce 6a 00 e3 3f dd 45 1f 21 94 5b 11 c0
       0.5938009293870485 -4.3394322562539545
000550 9b c3 db bc 04 76 2b c0 2c c3 ca d2 16 ea 11 40
       -13.73050489599864 4.478602689386019
000560 90 b2 c1 d3 23 57 f7 3f c2 80 23 1a 0e 40 f3 3f
       1.458774401830997 1.2031384488146135
000570 7f ab 5b f0 29 4f fa bf a7 66 ed 03 a9 66 12 c0
       -1.644327105425617 -4.60025411735993
000580 d5 67 39 af 50 a4 e3 3f 45 0d dd 9b fd 65 11 c0
       0.613808004603238 -4.349600253455098
000590 cb d8 f8 4f 56 70 2b c0 f7 ab 34 3a 87 ba 11 40
       -13.719408511282742 4.432156476464107
0005a0 8b d0 d2 79 61 59 f8 3f be a8 5d 9c 92 08 f3 3f
       1.521821475861574 1.1895929439584019
0005b0 19 89 ec 41 8a 8d fa bf 0d 22 4a d6 39 4b 12 c0
       -1.6595556807665786 -4.573462818407745
0005c0 74 7c e0 32 c4 f7 e1 3f ae 47 53 cc 92 67 11 c0
       0.561494922036117 -4.351145927985199
0005d0 6d 32 21 2b 3d 65 2b c0 48 d8 46 bc 70 69 11 40
       -13.697732303430906 4.352969114135767
0005e0 a4 70 4a 95 44 8e f8 3f 3a 3a 41 32 81 d5 f0 3f
       1.5347333747550147 1.0521251643255156
0005f0 a3 9e 7d a0 ea 13 fb bf d7 d9 ff 81 da 59 12 c0
       -1.6923624295394937 -4.587747603646185
000600 ad c7 1e d0 8d 46 e3 3f 21 38 e3 87 99 6c 11 c0
       0.6023625435684515 -4.356054423564303
000610 fb 26 97 0b 10 69 2b c0 50 c6 80 eb 8b 82 11 40
       -13.705200540734486 4.377486877188474
000620 23 ff 6f 94 74 d2 f8 3f 83 c6 fc 2b fa 04 f2 3f
       1.5513807104434327 1.1262151449449511
000630 fc 1f 78 a3 76 e2 fa bf 4f 62 40 73 0a 45 12 c0
       -1.6802889237897025 -4.567422676853837
000640 7f 46 9b fe 22 ea e2 3f f6 d1 16 18 ab 68 11 c0
       0.5910811398300239 -4.352215172188599
000650 08 dd 97 2d 72 69 2b c0 93 1e b5 2b 55 8a 11 40
       -13.705949234760297 4.385090525560048
000660 6e 55 4e d2 27 a2 f8 3f 2f 99 c9 48 ff de f1 3f
       1.539588757999208 1.1169426768552275
000670 79 2b e0 2a ea d9 fa bf 9f 6e 7e 6d 67 4e 12 c0
       -1.6782018351393317 -4.576566420404247
000680 7b 29 ce 00 52 d6 e2 3f 97 0f e6 8a 51 60 11 c0
       0.5886621490219989 -4.344061060230067
000690 8a cc 2c 64 e9 6f 2b c0 dd c8 2a 10 30 bf 11 40
       -13.718577509373308 4.436706783877722
0006a0 95 86 f3 37 4b e6 f7 3f ec 0d d3 72 68 85 f2 3f
       1.4937240777584624 1.1575703130082458
0006b0 69 2a 17 e6 07 8c fa bf 67 4e 89 e8 b5 5e 12 c0
       -1.6591872203740883 -4.592490800266751
0006c0 a7 b6 08 03 50 79 e2 3f 97 d8 84 df 16 5d 11 c0
       0.5773086604364907 -4.340907566531448
0006d0 82 56 69 80 eb 70 2b c0 65 59 e9 15 45 c6 11 40
       -13.720546734675057 4.443622915618424
0006e0 4e a7 03 d9 f7 99 f7 3f 24 69 ad 02 97 66 f2 3f
       1.475089881622313 1.1500463585458158
0006f0 ef 47 67 3a 8f 86 fa bf 3a 15 51 36 4e 68 12 c0
       -1.6578514367470196 -4.60186085576907
000700 13 e4 1c 3e 7b c7 e1 3f 38 59 dd 71 79 51 11 c0
       0.5556007588521673 -4.329564837584535
000710 d5 62 52 ee 0f 77 2b c0 9d 49 35 3a 40 f7 11 40
       -13.732543418461697 4.491455945494093
000720 32 1d f1 a9 d4 97 f6 3f c9 f3 a6 d5 f7 a1 f2 3f
       1.4120680464128097 1.1645429940974614
000730 b5 0c 74 57 d9 46 fa bf b8 6b 94 9b 59 84 12 c0
       -1.6422971168656606 -4.629248076375852
000740 e9 20 c8 5f c3 a6 e2 3f 2d 27 a3 af b2 5f 11 c0
       0.5828568335282657 -4.343455070813246
000750 9b 8a 37 f5 d4 6f 2b c0 05 5b 1d 65 d5 bc 11 40
       -13.718421614675483 4.434407787243576
000760 ce fb aa a2 c7 cd f7 3f f6 7d c9 36 74 63 f2 3f
       1.4877392152991322 1.1492807521934743
000770 c5 81 7f d4 ba 92 fa bf 60 d1 86 34 02 62 12 c0
       -1.6608227062898646 -4.595711537102346
000780 ac f0 1c 33 50 42 e2 3f e4 31 b7 4e 2c 56 11 c0
       0.570594882803126 -4.334153394633606
000790 76 ff af 92 1b 76 2b c0 6e 89 6f 44 a5 ed 11 40
       -13.730679115280264 4.482075757320088
0007a0 13 2c 19 c2 fc ec f6 3f 08 40 55 e9 dc cf f2 3f
       1.4328582365003555 1.1757477869578015
0007b0 e2 62 45 4a 19 50 fa bf b2 90 88 3d c0 77 12 c0
       -1.6445553685390952 -4.616944276294975
0007c0 1c 63 da 47 4e ff e2 3f 44 f7 f9 06 ff 63 11 c0
       0.5936652568226211 -4.347652539259631
0007d0 6f 3f 42 15 14 6e 2b c0 5e d9 a8 a4 cb ae 11 40
       -13.714996971451653 4.420698712163668
0007e0 c4 3d a8 d9 fb 28 f8 3f 5c d5 4b c2 28 69 f2 3f
       1.5100058080896455 1.1506736364074959
0007f0 93 ab 8e 6e 09 a3 fa bf 36 59 46 a8 fe 56 12 c0
       -1.6648039168019053 -4.58495581559537
