ce_results/6x5_grid/10_times/ce/best_weights_ce_8.npy (npy, 6528 bytes, 1 tensors)

array f8 [100, 8]
000000 f5 d7 e5 48 d7 0b 1d 40 f1 5c be a1 2e 23 19 c0
       7.261563433674373 -6.284357573741759
000010 7c 8d 3f 58 7c 1c 2f c0 70 f4 42 ab 24 84 1a 40
       -15.55563617492475 6.629046131097411
000020 5a 58 5f b1 ef 9b 31 c0 e3 9f bf a9 13 8c f8 3f
       -17.60912617280733 1.5341984396745765
000030 51 16 2c b3 5b 7b 23 c0 1e 68 d1 3c 5f da 31 c0
       -9.740933989650474 -17.853015709995923
000040 20 c1 98 cd c9 ff 31 c0 58 0b cc 88 c3 e3 27 c0
       -17.999173021119645 -11.944851183803323
000050 08 7e ca f3 7b 8e f2 3f 6f ef 9e e2 2e 9e 1d c0
       1.1597861788831114 -7.4044757279879
000060 20 32 77 da 6e aa 20 40 58 ad 73 c4 3c 47 0f 40
       8.332876994180936 3.909783873348413
000070 66 70 5b 70 3a fe 24 c0 40 af 68 9c 47 33 dd bf
       -10.496539603387827 -0.4562548663550281
000080 18 e8 cc 3e 08 6d 22 c0 c0 8f dd 3e a7 4f b5 bf
       -9.212953531754508 -0.08324666294862393
000090 c1 39 01 93 41 2b 25 c0 94 36 84 32 8e a4 1a 40
       -10.584484666728601 6.660698689765599
0000a0 dc 1f 06 95 33 42 0b c0 af 41 19 83 44 8a 01 40
       -3.4073249475950274 2.1925134889681526
0000b0 d8 0e fc cf e9 24 ec 3f 1b a9 78 34 08 28 30 c0
       0.8795060217093704 -16.156375197847506
0000c0 39 ee a9 72 cc 15 26 c0 60 e0 a7 0a 8e e4 d0 bf
       -11.042575438731648 -0.2639498809871892
0000d0 0e f1 cc e5 83 58 29 c0 43 80 12 49 f0 68 17 40
       -12.672881299273765 5.852479116205418
0000e0 6d 58 dd f8 d1 58 24 40 0c be b5 2e da e4 0a c0
       10.173476960200981 -3.3617442750180597
0000f0 a0 21 4e 62 30 e4 ce 3f 61 d5 09 25 ac 1f 1a c0
       0.2413387756353247 -6.530930117345037
000100 34 f4 b5 50 44 d2 14 c0 0e da 8c b6 c4 a5 1a c0
       -5.20533872709807 -6.661883213374052
000110 cc f3 47 c3 ce c9 2d c0 4a b9 33 c4 f1 a4 15 40
       -14.894155600102657 5.41107851567933
000120 57 b0 fb f1 08 86 29 c0 c5 d5 17 24 ec 2d f3 3f
       -12.761786996816381 1.198711529720968
000130 7b 27 a2 fa c0 8c 00 c0 fa 16 4b 84 d6 b2 2a c0
       -2.068727453301958 -13.34929288307784
000140 48 74 07 92 94 a9 1c c0 55 f5 08 7f 3b 60 18 c0
       -7.16560581369874 -6.093976960107587
000150 d8 97 85 fe d2 e4 26 c0 72 cf c9 21 81 b5 0a 40
       -11.446922258193737 3.3386252059662462
000160 32 50 64 f9 71 4c 0b c0 e7 d1 fa 87 12 22 f8 bf
       -3.4123267635095766 -1.508318453951796
000170 c2 7c d3 05 c2 b1 11 c0 9b e7 1e 50 bb 6d 24 c0
       -4.42359170058552 -10.214319709560916
000180 8b 5d 67 cd 04 dc 1c c0 75 5f 47 7f b7 17 19 c0
       -7.2148620695437655 -6.273160923701529
000190 69 e4 b7 6b d4 d8 29 c0 e2 8e fc a9 87 b8 14 40
       -12.923495641896993 5.1802050171279195
0001a0 e2 a8 50 02 d9 bb 21 c0 dc 4e 11 5a 6f e3 c2 bf
       -8.86689002260795 -0.14756576440651414
0001b0 f0 19 f3 17 50 6c e4 bf 8d 46 11 41 77 b5 2a c0
       -0.6382217853322896 -13.354425462111317
0001c0 fe db 38 26 e2 a1 1c c0 4e a2 d1 cc f5 39 19 c0
       -7.158089253635806 -6.306601715369267
0001d0 bc 9f 19 f2 66 a8 2a c0 d8 13 5a 98 fd 63 13 40
       -13.328910413387227 4.847647076127906
0001e0 2b e4 b0 11 28 ac 19 c0 45 dc 37 1f e5 69 f3 3f
       -6.418121601506793 1.2133532733403325
0001f0 7c 5d 15 68 a1 7d 04 c0 9c 6e 90 e4 fc 38 28 c0
       -2.5613430148620733 -12.111304419165485
000200 5b 1d 21 cf 71 d4 17 c0 e3 e4 b4 00 e2 d4 17 c0
       -5.95746539725891 -5.957893382111453
000210 43 0b 17 9f 0d d4 2b c0 de f7 22 f7 50 84 17 40
       -13.91416642338084 5.879215108403484
000220 98 fa 66 16 04 99 2d c0 cc 1a 3c f4 76 c6 c4 bf
       -14.798859310217537 -0.16230666089560086
000230 d9 2e d0 d3 5a 3b ef 3f 2b 4b 80 1a 34 a9 2d c0
       0.9759954583145954 -14.83047564331135
000240 ab 0a 81 78 97 59 1f c0 fd d7 41 12 53 c9 15 c0
       -7.8374918774376665 -5.446605954426556
000250 ba 98 10 35 52 e0 27 c0 46 be 40 78 40 a9 11 40
       -11.938127191806746 4.415284995032897
000260 ea e9 f2 67 52 0d 14 c0 d3 f9 bd bd b6 8f e3 bf
       -5.013009666634824 -0.6112931924724826
000270 af 93 d8 d8 03 c4 01 c0 dc 1f 0f 78 04 65 27 c0
       -2.2207104626745244 -11.69729972061753
000280 eb 8e 0a 23 34 5c 20 c0 6d 9d c5 ff 67 b9 15 c0
       -8.180085272826053 -5.4310607876171675
000290 f1 cf 48 91 e7 09 26 c0 18 f0 58 ea d8 fb 0b 40
       -11.019344844949929 3.4979723270789798
0002a0 08 8e 2c 73 b5 5c f4 bf c8 e3 ca 44 1a e8 f5 bf
       -1.2726339816080117 -1.3691656768044016
0002b0 dd 6e a9 b8 fb 89 10 c0 61 89 dc 32 3a 19 24 c0
       -4.134749303189634 -10.049272145672775
0002c0 5b cb 95 0e e8 d9 1c c0 0d 90 b4 7c 8d fb 16 c0
       -7.212799289601061 -5.7456569180685735
0002d0 4b 7c 38 6f f4 cd 28 c0 a3 70 69 35 ee 1f 12 40
       -12.40225551189919 4.531182131348177
0002e0 73 28 15 17 04 2e 1b c0 8c ca d9 0e 9d 94 e1 bf
       -6.794937477747328 -0.5493912973455095
0002f0 d5 dd 52 c5 80 8d 01 c0 33 b4 01 11 05 07 28 c0
       -2.194093267051111 -12.013710528810497
000300 36 c1 77 28 fc 6c 1b c0 58 fa c3 92 7b 4a 17 c0
       -6.856430656728028 -5.822737019740622
000310 5f 97 1a 7f 06 45 2a c0 41 1c 65 7d d1 c1 14 40
       -13.134815189357765 5.189275702759063
000320 e7 c2 b6 29 4f 27 23 c0 e4 24 4b 06 d8 72 b8 bf
       -9.576775840339407 -0.09550237802172351
000330 fa 43 c8 82 7d 2b ea bf 3f c3 3d f7 26 59 2a c0
       -0.8178088716832683 -13.17412541035594
000340 64 0d 00 5b e7 70 1c c0 da 20 08 0f 15 fc 16 c0
       -7.110257551077073 -5.746174082633127
000350 21 20 8a d9 e9 3f 29 c0 8f 4c ea af 26 07 13 40
       -12.624831007109664 4.756983517337303
000360 1e 84 e2 88 b1 f2 1e c0 de 2d e2 47 fd 87 db bf
       -7.737005366158909 -0.4301751329410005
000370 dc 8c a8 d0 46 15 fb bf c9 18 80 87 a7 d5 28 c0
       -1.6926944876402592 -12.417293772112673
000380 30 7d f3 4c c8 9b 1d c0 48 ed 95 67 4c 23 17 c0
       -7.402131273614302 -5.7844711480386835
000390 be 08 dc 4b b1 78 28 c0 1a fe 63 2b 5a 0c 11 40
       -12.235727663621557 4.262062719324172
0003a0 fe ad c4 e7 c0 35 16 c0 a0 30 1f 81 19 33 93 bf
       -5.552493687991499 -0.01874961710545675
0003b0 fc 13 62 ef ae 52 0a c0 74 28 c3 64 22 0d 27 c0
       -3.2903727247053194 -11.525653027365685
0003c0 b3 22 4f 96 2c 29 1c c0 0e 24 c2 c3 1d 1b 17 c0
       -7.0402091489601615 -5.77648073074762
0003d0 ac 10 c2 9c 27 6d 29 c0 bf 6d e7 42 14 46 13 40
       -12.713192843141165 4.818436665892874
0003e0 f5 e5 d7 b1 3b 11 20 c0 24 8b bc 11 87 04 dd bf
       -8.033658559422273 -0.4534013436515798
0003f0 30 48 26 7b e7 4c f8 bf 01 3a 92 4c cb 09 29 c0
       -1.5187754450348727 -12.51912917408936
000400 79 43 f4 67 45 c9 1c c0 7f 54 41 6c f2 00 17 c0
       -7.196553825648942 -5.7509247698664
000410 2b df 8a cd f4 cf 28 c0 ab a2 30 b8 ee 21 12 40
       -12.406164572908514 4.5331372050938326
000420 0f 3a 7b 95 cf 31 1b c0 95 11 3e 33 7a fd e3 bf
       -6.7986434322797455 -0.6246920586423125
000430 b0 04 c9 12 a7 0f 01 c0 01 a4 87 1b 6a 04 28 c0
       -2.1326428859325333 -12.008622036273666
000440 9f e4 c0 4b be e5 1b c0 9e 72 02 71 db fa 16 c0
       -6.974358733795412 -5.744977727674863
000450 cc 51 5f a3 03 b9 29 c0 16 84 5d bc 96 15 14 40
       -12.861355882058795 5.0210828239514935
000460 5f d8 58 42 3e a2 21 c0 52 02 81 67 55 30 e0 bf
       -8.816881249757158 -0.5059000989495621
000470 80 6a 41 5d ec 19 ee bf ae 97 18 9b 4b c1 29 c0
       -0.940664465083799 -12.877529951812758
000480 46 9a ee 79 e5 5c 1c c0 33 68 7d f8 ca 12 17 c0
       -7.090719132602834 -5.768352396635282
000490 fa a5 4b d8 92 4b 29 c0 50 20 fc 19 79 07 13 40
       -12.647604712709825 4.757297903073848
0004a0 ca 59 50 b4 a3 ee 1e c0 90 45 c6 20 42 ff db bf
       -7.73304635754034 -0.43745473099360144
0004b0 96 bc 48 34 ba fb fa bf 1c 0c 9a 27 92 d0 28 c0
       -1.6864568750714048 -12.407365071825602
0004c0 7b 1b 93 a0 e8 43 1c c0 94 04 dd 99 c2 18 17 c0
       -7.0663170900141905 -5.774179844012128
0004d0 d3 6e 3d 19 8c 4b 29 c0 10 1a b3 39 53 05 13 40
       -12.647553242444166 4.755200292164332
0004e0 87 bc d3 15 06 1a 1f c0 2d b8 ac e3 10 51 e0 bf
       -7.775413838432661 -0.5098957487841794
0004f0 f2 ef 83 eb 17 49 fa bf 47 b1 0d b9 33 d0 28 c0
       -1.6428450774974377 -12.406644614144751
000500 b8 bc 71 51 3c 5a 1c c0 ef 18 fe de 50 21 17 c0
       -7.08812072045037 -5.78253506112945
000510 ac d4 1b 84 68 3b 29 c0 ae 5b 16 db cc d4 12 40
       -12.61603176917773 4.707812712897903
000520 f0 0a 49 8e b4 4d 1e c0 4c 02 c1 99 61 de dd bf
       -7.575884078224348 -0.4666980744841893
000530 a0 58 a8 6b 73 ca fc bf 28 4f a5 b0 4c a4 28 c0
       -1.7994264798522082 -12.32089759843764
000540 2d 20 7c e7 fc 22 1c c0 85 f8 f9 30 c8 17 17 c0
       -7.034167878104239 -5.773224606759077
000550 fc 2c 87 96 a4 68 29 c0 36 74 af cc d3 43 13 40
       -12.704380706788008 4.816237638672694
000560 38 12 eb 26 3f 17 20 c0 fc 77 fe 0b 30 04 e0 bf
       -8.045403686709605 -0.5005111917741938
000570 8f 60 25 fc 0b de f7 bf f6 31 35 9a 75 09 29 c0
       -1.4917106484845453 -12.518475359910536
000580 6b f0 44 31 3c d8 1b c0 dc bf 43 88 ff 20 17 c0
       -6.961167116005622 -5.782224778304194
000590 82 1a b3 fb f4 a7 29 c0 65 1d c1 0d ef bd 13 40
       -12.828040948498941 4.935482230102342
0005a0 53 7b 1a 95 33 29 21 c0 59 fd 83 06 df 20 de bf
       -8.58047166775001 -0.4707562984112506
0005b0 b8 6d db bd 4c 4a f3 bf b1 a6 9a 39 c8 77 29 c0
       -1.2056395927710195 -12.733949470642388
0005c0 6d 6d b5 25 50 ea 1b c0 35 8a 94 d1 0f 1c 17 c0
       -6.978821362684681 -5.777404093447832
0005d0 4b 1d 3a 17 0d 96 29 c0 ae 30 6c 81 af 9f 13 40
       -12.79306862434773 4.905942938068774
0005e0 7a 8e 32 16 20 e6 20 c0 78 bc 2f 01 ba e3 df bf
       -8.44946355216165 -0.49827432742944877
0005f0 09 a9 3d 13 cc 2e f4 bf 70 de c7 8a a3 5c 29 c0
       -1.261425089988338 -12.680935227296885
000600 b5 48 52 f7 63 e9 1b c0 e6 1f c0 d3 b9 1d 17 c0
       -6.977920402905672 -5.779029186822276
000610 0a 65 2f b4 d5 98 29 c0 e5 d1 1c 31 93 a2 13 40
       -12.798505430970653 4.908764617332484
000620 eb a4 ba 15 7a eb 20 c0 90 07 b1 e3 e0 fd de bf
       -8.459915808709829 -0.4842455123472229
000630 d1 7a da d6 66 3b f4 bf 2c d4 51 b8 15 5f 29 c0
       -1.2645023720466961 -12.685712585438601
000640 ae e6 48 52 01 f6 1b c0 17 7c 98 94 1c 20 17 c0
       -6.990239415835886 -5.781359025771073
000650 71 d0 fc ed 09 92 29 c0 01 6c 42 d9 80 8f 13 40
       -12.785232007132636 4.890139956168242
000660 b3 b9 ea f0 58 be 20 c0 80 e7 82 b2 3b 8a dd bf
       -8.371772316601755 -0.46156208451031233
000670 ba 91 e6 d1 a2 44 f5 bf 23 f9 dc 61 48 4d 29 c0
       -1.3292568396801543 -12.650942857956187
000680 dd a7 50 3d 4d 1d 1c c0 94 64 e7 ae ad 19 17 c0
       -7.0286149578550665 -5.775076611397839
000690 89 64 1c 4a 52 75 29 c0 ef 49 c0 5d e6 59 13 40
       -12.729143444028766 4.837792839871766
0006a0 50 52 0b 53 d6 3f 20 c0 0b 6e b5 7e d4 91 dd bf
       -8.124682040340446 -0.4620257604017019
0006b0 9c d4 5e 48 4c 68 f7 bf 3b 9c 50 d9 8d 1c 29 c0
       -1.4629633738489138 -12.555769721117136
0006c0 09 7a 2a c8 02 0b 1c c0 15 54 c0 18 c4 1d 17 c0
       -7.010752799599239 -5.77906836198692
0006d0 de ef 5a 97 80 85 29 c0 7a 4d 95 75 65 76 13 40
       -12.760746698237138 4.865621411550245
0006e0 e3 93 c5 4b 3b 80 20 c0 58 9b c9 28 3b 8e dc bf
       -8.250452392452592 -0.4461810968700113
0006f0 fc 49 9d 96 e5 72 f6 bf 87 b3 c3 08 34 36 29 c0
       -1.403050983750858 -12.605865739716831
000700 e7 c3 48 a9 22 fa 1b c0 05 93 03 a2 52 1e 17 c0
       -6.994272847238768 -5.779612094371946
000710 84 9c 72 c7 ec 8e 29 c0 0e 86 a1 c1 4c 8b 13 40
       -12.779150231114052 4.886034989818212
000720 a2 c0 01 c3 96 b3 20 c0 57 26 b6 ab fc c9 dd bf
       -8.350759595836568 -0.46545330780700084
000730 fc 7e c7 0c d4 62 f5 bf a3 65 92 3f 7b 49 29 c0
       -1.336628007811611 -12.64351843511651
000740 84 92 7c d9 96 01 1c c0 83 7e 72 8c 45 1d 17 c0
       -7.001552007892887 -5.778585619438334
000750 1d 4d 59 ce 4f 88 29 c0 86 b8 54 8a be 7e 13 40
       -12.766233871842411 4.873773728772113
000760 f7 a2 d3 0a c4 97 20 c0 72 52 d6 93 3c 13 de bf
       -8.29641755898909 -0.46992411076761365
000770 3f b8 9b 98 4c d7 f5 bf 30 69 9b ad 30 3e 29 c0
       -1.3650632821331923 -12.621465134831482
000780 7a 97 3f 0f 7e 00 1c c0 49 3b d6 ff 13 1e 17 c0
       -7.000480879074411 -5.779373166514071
000790 d7 bc 53 ee 82 8a 29 c0 fb a3 d2 48 e6 81 13 40
       -12.770530173990137 4.876855028015593
0007a0 62 44 c7 06 c8 9d 20 c0 41 5b 85 31 5c 92 dd bf
       -8.30816670591793 -0.4620581134417315
0007b0 78 9a 33 17 02 ce f5 bf a2 7a bf 11 e8 40 29 c0
       -1.3627949625312379 -12.626770548461824
0007c0 ce 7a f7 60 27 ff 1b c0 21 a5 d3 76 f9 1d 17 c0
       -6.999173655610049 -5.779271942775524
0007d0 90 a2 d0 e8 b1 8b 29 c0 80 35 8e 31 8e 84 13 40
       -12.772841716259137 4.87944867544627
0007e0 e6 a1 53 2f 8a a3 20 c0 2d 2f dc 7a 1b 92 dd bf
       -8.31941364189056 -0.4620426845365156
0007f0 ae b0 9c c3 65 b2 f5 bf 22 86 73 11 52 43 29 c0
       -1.356054081067707 -12.631485505439802
