ce_results/6x5_grid/10_times/ce/best_weights_ce_3.npy (npy, 6528 bytes, 1 tensors)

array f8 [100, 8]
00000000: 1df0 e028 c150 22c0 9ee9 54e3 87fc 1ac0
00000010: ed7b 0cdb 89d4 21c0 d38b 5f36 acaf fdbf
00000020: 1138 03bb 3ba0 1640 1faf 2308 25a3 21c0
00000030: d695 ee2a 4433 e0bf 7556 7ac4 2d5d 21c0
00000040: 6274 89d3 0e11 2440 8d16 ea51 64eb 17c0
00000050: 6a2d 4d02 88ea 31c0 d008 3864 350c cc3f
00000060: 70b3 a4ee 7424 c3bf 1af8 33f9 414d 2c40
00000070: 74ea 9229 0bf5 20c0 96f8 3030 e5fa 30c0
00000080: 0e25 0a08 27a0 e1bf bc99 a661 120d 21c0
00000090: fcec 3adf 054e 2fc0 41a4 5b77 a3f0 0340
000000a0: c05a 8461 db3d cf3f 426e d400 8bf8 2240
000000b0: 04a4 409a 8ff9 1ec0 aaca 661d 83ea 0fc0
000000c0: d0d8 6094 a2f9 0d40 cc3d 76fc c02b 0cc0
000000d0: 78e4 8b80 75c2 24c0 be08 30ca 242d ec3f
000000e0: b6bf 9b0b 8de8 1140 e2c8 f25d 2748 1740
000000f0: 5a57 4fff 5414 07c0 4d90 ddfd 2ffc 22c0
00000100: 7390 f7f4 f1f5 07c0 7c45 a794 2ef0 f8bf
00000110: f3f3 6b3e 1211 14c0 a286 5db0 a018 01c0
00000120: a04f 5912 6c18 2240 a062 613e d781 d4bf
00000130: 07b1 36c4 4a77 f9bf 3285 0b66 af33 22c0
00000140: f332 1c67 c1e3 e03f 33b4 1ef1 3cb3 1fc0
00000150: ffd2 2d3f 789d 28c0 07fc fdef bdec 1840
00000160: abc6 3146 ae52 1240 6cc0 0277 eae1 0e40
00000170: 3ca0 d218 8b19 0cc0 53aa 8d3d 279f 20c0
00000180: d42c 95b0 d25e fa3f af00 0375 397a 16c0
00000190: 48bf e832 d98e 26c0 0eab 048c c15d 0040
000001a0: df7d 2ccd 54c3 1140 a522 249e e8a7 0f40
000001b0: dd0a fcdf 86bd 07c0 ac1a ea80 d653 1cc0
000001c0: caa2 f7b0 ab51 e3bf 97f2 4f3d 112c 07c0
000001d0: f465 ad66 7c24 20c0 9e8a bac8 fffd 04c0
000001e0: 28d8 7737 f458 1740 400c a513 e8ce 92bf
000001f0: 90c2 ecf0 e504 00c0 67f3 a7f5 dca8 1dc0
00000200: e453 8276 9719 bdbf 5ca1 8fc1 e37a 0ec0
00000210: 1e71 9c4f 2595 21c0 9023 1e61 9c79 cf3f
00000220: 1d90 bc39 e881 1840 f828 e4a1 0670 0040
00000230: 44ff 9a89 4ab6 03c0 1d11 eb4f 8659 20c0
00000240: 3090 1808 f2ae e5bf 5038 54f4 bcb5 0cc0
00000250: 4272 fb37 fba9 20c0 ea88 d609 bb80 c6bf
00000260: 72e6 23b4 f919 1a40 2b00 139b 5cca f93f
00000270: 8323 47f2 5a31 03c0 c521 cb99 9226 20c0
00000280: a656 9849 e438 cb3f 67e7 dcd6 333f 12c0
00000290: 10d4 6d2e 039b 23c0 6254 917e 7b21 c2bf
000002a0: 7068 9013 32d9 1340 0331 cbae ca82 f53f
000002b0: 4639 ea70 128e 03c0 bb17 551e 68dc 1cc0
000002c0: dc1e 355f 8e30 e2bf 2181 73c2 ec0b 0fc0
000002d0: 2af9 879b 284e 21c0 00e3 53d3 1d03 aabf
000002e0: 2d59 35ed 50cd 1840 b8eb 4160 ec03 f73f
000002f0: 8c8c 7234 8b50 03c0 ba3c d652 5dce 1fc0
00000300: 362e d3a9 3143 d1bf 624e c56f b253 10c0
00000310: a601 d37a b538 22c0 c065 0283 c9ad debf
00000320: d18c 025e 0641 1640 f410 80bb 7cfb f13f
00000330: 4c10 01f3 29f5 02c0 0021 ab49 15ec 1dc0
00000340: 8850 6797 5153 e3bf 2b06 a266 9a4d 0fc0
00000350: 420e 5252 8888 21c0 9d8b 5ec7 d4ef e5bf
00000360: 2b11 be4e 9172 1740 258b 5fa9 ac85 ea3f
00000370: 5dfd ce41 4797 02c0 770b 0292 9644 1ec0
00000380: 0a78 47a9 6a12 ecbf effe 114b 5058 0cc0
00000390: e7b1 5fa2 8e93 20c0 5ec1 6df7 3869 edbf
000003a0: bab4 f515 8327 1940 1f59 3bc2 da5d e93f
000003b0: 65f8 1288 ce36 02c0 d77a 637d b304 1fc0
000003c0: 71f7 3413 c089 e9bf be98 6b20 1b08 0dc0
000003d0: 4360 e63f 78cd 20c0 86c9 58d9 b128 eabf
000003e0: fefd 5ba9 52d0 1840 2a97 a243 786a eb3f
000003f0: 5e02 8893 415d 02c0 196a df78 33f2 1ec0
00000400: af59 a114 e699 e3bf bdbf dee4 a0a8 0ec0
00000410: 4abc 84ea 325f 21c0 8911 faeb 2114 e5bf
00000420: 1a51 e467 0bd3 1740 8c74 44e0 760d ee3f
00000430: 8f69 cda7 769c 02c0 9b70 1768 a98a 1ec0
00000440: 79e5 000c f238 e5bf d752 cf51 ab0e 0ec0
00000450: a24a b7e7 6532 21c0 ce42 6d54 3386 e7bf
00000460: deb0 0c82 c815 1840 374a 2869 4824 ed3f
00000470: 8ddb 3509 0280 02c0 826b 264d fa9c 1ec0
00000480: bcfa 470c 347e edbf 1539 c6ea 4f52 0bc0
00000490: e1b9 8040 ab5d 20c0 a0c7 7439 2407 f1bf
000004a0: 6f26 f4ec d860 1940 21a4 dc19 11fa e83f
000004b0: a7f2 56d8 0bfe 01c0 bbd2 2264 84f9 1ec0
000004c0: 3167 6302 858f e2bf 40d8 f73a f1b2 0ec0
000004d0: c379 6977 f06c 21c0 96dd 337e f05f e5bf
000004e0: ebbd 78f7 75b2 1740 daf9 0212 e597 ee3f
000004f0: 99ec f018 859e 02c0 7dfc 6d93 a37b 1ec0
00000500: 0013 5c8e 7bd3 e9bf 4706 07e1 5326 0cc0
00000510: 88df d611 01ab 20c0 298f 7b54 1200 efbf
00000520: d489 75be 66de 1840 497f 4ec3 a12c eb3f
00000530: 51a8 4d0e 0e28 02c0 fb26 c2be d1d1 1ec0
00000540: a0ed 4927 2bb5 eabf 9b47 3c52 0e0c 0cc0
00000550: 069f 350e e69d 20c0 1f7f b405 a679 efbf
00000560: 2995 f951 e0f4 1840 6917 b516 d271 ea3f
00000570: 0a0a 0243 4c1f 02c0 0c63 1d59 56d5 1ec0
00000580: 5822 a0c4 60c0 ebbf 7c8a ac8b 91cb 0bc0
00000590: 8851 5be3 f386 20c0 4600 46a4 2630 f0bf
000005a0: bd78 dfee 7e1b 1940 2af9 496f 09d9 e93f
000005b0: fed0 b710 1f13 02c0 7eaa ce8c c7e1 1ec0
000005c0: a9dc 37eb c61c ecbf c181 8c67 4a9e 0bc0
000005d0: 55aa ed66 4f7b 20c0 5156 e3da 488b f0bf
000005e0: 3554 ba6e ca2b 1940 a6f4 8719 7ab6 e93f
000005f0: ed55 c9fe cf0a 02c0 e9cd 4703 50e5 1ec0
00000600: d61f e353 6af2 e8bf 1827 20e2 eaac 0cc0
00000610: 6b81 df70 99cc 20c0 98b4 d283 2809 edbf
00000620: c32b c9ca 44ae 1840 0cae b40c cb49 eb3f
00000630: 0259 2bb3 cb3d 02c0 c046 9aa2 a8c3 1ec0
00000640: 13cd f138 b399 eabf 9b86 bf67 1a0f 0cc0
00000650: c6c8 6de8 8b9f 20c0 756b ed2e ee72 efbf
00000660: 8103 9a0b b9f1 1840 d910 c1a2 7683 ea3f
00000670: 239a 9f8c 1d20 02c0 5b83 565a 60d4 1ec0
00000680: 10cd 2478 df71 e8bf 40cb b3ea eece 0cc0
00000690: 5a0c c980 e6d7 20c0 f134 f6c9 3586 ecbf
000006a0: 0bb2 5d8d 289c 1840 f517 d8c1 dd95 eb3f
000006b0: 0076 f79b a544 02c0 42b2 6c29 cabe 1ec0
000006c0: 6467 711e 0132 eabf c0b7 40ba 763a 0cc0
000006d0: 597e 6100 3bab 20c0 4ca5 475b 92c2 eebf
000006e0: c48b 3073 07e1 1840 8295 ed5c deb2 ea3f
000006f0: 9d46 6559 7428 02c0 7e9d a95b f9d0 1ec0
00000700: 884d 1d0c 307e ecbf e6ba fc68 e279 0bc0
00000710: 3d4b 9e6d 1d71 20c0 0199 e2d7 b0d6 f0bf
00000720: 9af9 7c29 8b3a 1940 4ee1 e6c1 3083 e93f
00000730: 7c35 f3b0 8b03 02c0 12a0 7b08 33e8 1ec0
00000740: 9431 ac8f 628a ebbf 7e76 8753 c6cb 0bc0
00000750: b241 4d04 8689 20c0 aff7 796c f436 f0bf
00000760: 9809 bb8a 3e15 1940 bd81 053d 2200 ea3f
00000770: 1b7f b58d 3f13 02c0 ded0 7817 b7de 1ec0
00000780: 461a 314b b471 ebbf 7084 95a0 51d4 0bc0
00000790: 8312 7e11 078c 20c0 f3bd 7e6d 1b26 f0bf
000007a0: 302e 5ebb 7411 1940 fbe2 7be2 7e0c ea3f
000007b0: 7c22 d714 e514 02c0 852e 2b8d ccdd 1ec0
000007c0: 0b18 a026 29f7 eabf 8d45 a066 22fb 0bc0
000007d0: 709e 076f fa97 20c0 c20d 0dfa d7b8 efbf
000007e0: 2763 69ed bcfe 1840 8059 e395 df4a ea3f
000007f0: b775 8408 3a1c 02c0 c371 ad45 a4d8 1ec0
-9.15772369142365 -6.746612121637012 -8.915114255212723 -1.855388843913478 5.656477853843186 -8.818641905170407 -0.5062580908312906 -8.68198980325108
10.033316240815285 -5.979874877846339 -17.916137832491053 0.21912257569790095 -0.1495500722170635 14.15089396247281 -8.478600787338316 -16.98005963512022
-0.5507998616241438 -8.525530864321688 -15.652388549750405 2.4924992871133616 0.2440752245099329 9.485435510570031 -7.743711862750391 -3.9895078942293667
3.7468921272330604 -3.521364185675088 -10.379802720143047 0.8805107068040099 4.477100545293004 5.82046267313328 -2.884927744492342 -9.49255364732394
-2.9950904024172416 -1.5586381727956384 -5.016671157206463 -2.1370252398053973 9.04769952144835 -0.32042485324704195 -1.5916240372271788 -9.100947560220991
0.5278021825666585 -7.925037162302988 -12.3075580352247 6.231193303944571 4.58074292830285 3.8603104875292527 -3.512472337653916 -8.3108462558204
1.6481501481783214 -5.619359806354779 -11.27900084582474 2.0457793177532784 4.440753179398114 3.9569866518762233 -2.9675424097816703 -7.081872953690134
-0.6037195640938873 -2.896517256738956 -8.071261604944972 -2.624023025696558 5.836869112672538 -0.018367410849588817 -2.0023917028668805 -7.414905393958953
-0.11367174762047189 -3.810004722781896 -8.791300285193355 0.24589876882626216 6.126862432607621 2.054700150275604 -2.46400935653938 -8.174852845616039
-0.6776056440471674 -3.588739308185758 -8.33199477142728 -0.17580354671833415 6.525366606417821 1.6119047219836016 -2.3990992477378668 -8.075337225004555
0.21267369836339362 -4.561721188767343 -9.802758646876129 -0.141646801758415 4.962105088890993 1.3444315746192508 -2.444371111057225 -7.215240930503508
-0.5684272632142569 -3.8808226768016003 -8.652653560970595 -0.05080502705272316 6.200504022961735 1.438457847600814 -2.414328012223967 -7.951527876211168
-0.2697261961409113 -4.081735369126905 -9.11075958085787 -0.4793571261776286 5.563500851541179 1.123898250983129 -2.369708918065987 -7.480549956388359
-0.6039207417584445 -3.9128921526141958 -8.766665050999226 -0.6855262655193318 5.861882429457448 0.8288176830359119 -2.3238663808148616 -7.5669806302784
-0.8772481256708045 -3.5431218972079175 -8.28819758814002 -0.9190945465652864 6.288585990068151 0.7927068513479617 -2.2767611151494287 -7.754590949246185
-0.7980652213225153 -3.6289579899631397 -8.40130805670936 -0.8174676175170112 6.203440328826671 0.8567467995642108 -2.2955352331048706 -7.736524475704322
-0.6125364687857678 -3.8323381309964746 -8.685935333922448 -0.6587075814173186 5.956098197279312 0.939143598577759 -2.3263981923639174 -7.6354118599230345
-0.663201354450549 -3.75716270364715 -8.59843372452207 -0.735131897827239 6.021272689842787 0.9106790593962789 -2.312503883319954 -7.653298573942154
-0.9216556777826876 -3.4151914922468998 -8.182947173799166 -1.0642435306913072 6.344577505494825 0.7805257325281937 -2.2490460301908857 -7.743669094682157
-0.580019478478084 -3.8373741728674133 -8.712772113442844 -0.6679613556761292 5.924278132194995 0.9560418464459943 -2.3274023006939157 -7.620741180027037
-0.8070657520734983 -3.518714674021598 -8.333992536048541 -0.9687587404300518 6.217188812183355 0.8491982283194172 -2.269558059449118 -7.704901676750292
-0.8346153037413622 -3.5058866905828387 -8.308395809217028 -0.9835996734072728 6.239136963709179 0.8263941234115296 -2.2652821764943427 -7.708337204378733
-0.8672336426107661 -3.4743986999540635 -8.263579468629146 -1.011755601590282 6.276851398839594 0.807743756638762 -2.2593365961166674 -7.72048778544797
-0.8785128206353835 -3.452290352797917 -8.240840164672742 -1.0340050268472576 6.292764406321159 0.8035250185636371 -2.2552795319741024 -7.723938037164296
-0.7795917166158641 -3.58443237934706 -8.399608161242858 -0.9073679518384266 6.170184296158314 0.8527579544219761 -2.2801736829379715 -7.691072979608805
-0.8312622177312811 -3.507374582798389 -8.311614287759209 -0.9827795902777853 6.23605745437169 0.8285477808754208 -2.2656813608366675 -7.707398807077733
-0.7639005037839599 -3.6010416351431616 -8.42168047384455 -0.89138307042745 6.152498444408148 0.8620442186372644 -2.2835189995664678 -7.686318061122224
-0.8186040491666344 -3.528546767330198 -8.334434520627086 -0.9612514288720972 6.219754981840143 0.834334546566126 -2.269753168490594 -7.7040762254977135
-0.8904037701235419 -3.434513874256811 -8.220927644322382 -1.0524147446645318 6.307171486142034 0.7972644602914813 -2.2517312835904573 -7.7267571759657745
-0.860642700777634 -3.4744993711199745 -8.268600592070332 -1.0134166943894163 6.2707463909777275 0.8125163261248002 -2.259398562527975 -7.717495314358727
-0.8576299160566314 -3.4786713166836805 -8.273491427077948 -1.0093035008575242 6.267046859381978 0.8140253470911313 -2.26020256310977 -7.716600614319423
-0.8426709894563386 -3.4976242082272564 -8.296832532577554 -0.9913139232452794 6.2487675757954895 0.8216398169995927 -2.263782564680436 -7.711564148627477
