ce_results/6x5_grid/10_times/ce/best_weights_ce_7.npy (npy, 6528 bytes, 1 tensors)

array f8 [100, 8]
0	0xc01db7c008d1f074	-7.429443490804363
1	0xc01fa060838c97a5	-7.906618171173169
2	0xc004b47eefde3312	-2.5881327380833534
3	0xc0313008775d37e8	-17.187629184969325
4	0x4025ae683632dd22	10.840638822277985
5	0xc001ade4a545733b	-2.2099087631053442
6	0xbfe3b26f1c523e26	-0.6155314973020196
7	0xbfed78b557b1c51d	-0.9209849083692095
8	0xc0337d9c11a59460	-19.490662672924714
9	0xc033ed6e1e8ebd3e	-19.927461538170284
10	0xc0179622732cb358	-5.896615790942484
11	0xc0151bfaf8c1bca2	-5.277324568581351
12	0xbfee9a668aaf84e8	-0.9563477238372373
13	0xc019021756a47464	-6.252042154109493
14	0x401b6abf2c800faa	6.854244895282969
15	0xc03108db32172318	-17.03459466042395
16	0xc01dd6776bf4e267	-7.459439932653004
17	0xc02174e598e2ad93	-8.728314187689454
18	0xc025c3e3d16fe765	-10.8825974892713
19	0xbfe275688b9486d0	-0.5768320776153022
20	0x3fe384ca957ce6c4	0.6099598807988618
21	0xc012dd7ef2bf7626	-4.716304581581005
22	0x40127556fdc9eb29	4.614589658211835
23	0xc0293b30b0aa6dbe	-12.61560585098675
24	0xc00c55cf3c6137a1	-3.541899177281224
25	0xbfd2441df5f63460	-0.2854075338335118
26	0xc02620aceaaa316e	-11.063819249415896
27	0xbff9727d649ff75e	-1.5904516153963963
28	0x3fd145566fb68048	0.26985703381979365
29	0xbfd7be6c5ad22410	-0.3709975134775627
30	0x40235b401428ac45	9.6782232570314
31	0xc030fb357fabdc33	-16.98128507562451
32	0xc01bbbee40ca931a	-6.93352605091493
33	0xbfe12cc27f95ed08	-0.5367138378054799
34	0xc020be5a5cf550be	-8.371783165879943
35	0xbfd571875c7325f0	-0.33505424526501226
36	0xbfce2549acbcfb50	-0.23551293310625931
37	0xc00192ea1f466276	-2.1967356150965385
38	0x40293200ffcfe27a	12.59766387379317
39	0xc033ed79396a5f54	-19.927630985708063
40	0xc0152270f9613f88	-5.283634087143476
41	0xbff400cbdddc7190	-1.250194422383263
42	0xc02440e5699725eb	-10.126750278187464
43	0xc0140c472920deae	-5.011990206366745
44	0x4006067d80571240	2.753169062287526
45	0xc00408c9fd5c5797	-2.5042915147595965
46	0x4022057eedb60026	9.010734013049
47	0xc02be3e623df66d3	-13.945115204830847
48	0xc016df85973e0f45	-5.718283045924015
49	0xc0060074a785407e	-2.7502225005665073
50	0xc022055109dd3306	-9.010383899928922
51	0xc011a6fea8df7cf0	-4.413080824509265
52	0x3ff91e5be06e691c	1.5699118391845053
53	0xbffc3545e94b120c	-1.763006125737891
54	0x40212ab6aa948aad	8.583424883492023
55	0xc02d81f38196dece	-14.7538109299343
56	0xc01c16ee39724bf8	-7.022393128968353
57	0xc00d5fb0267becda	-3.6717226988381357
58	0xc0198100ba1b23d2	-6.3759793356957335
59	0xc00b2225304c0701	-3.39167249423997
60	0xbfe17990b0c1e304	-0.5460895015995395
61	0x3fd44997607c888c	0.3169916574717113
62	0x4020df1a63cbef78	8.435748213428937
63	0xc02f8e497df1596f	-15.777904449187842
64	0xc017743fdf2f733e	-5.863524901648644
65	0xc016f5480f717e9e	-5.739532700826798
66	0xc0212f720cb4e3e5	-8.592667004662824
67	0xc01aac7a686e8cac	-6.668435699221998
68	0x40012684578c34ae	2.1438071098005684
69	0x3ff3dc6dddc65314	1.241315714175646
70	0x4011ea8c37d4da48	4.479050514570709
71	0xc02b53370ca813b8	-13.662529368893829
72	0xc01a2b186e4ab07d	-6.542085383709602
73	0xc00ffe86e6114fdc	-3.9992807363541782
74	0xc020ad833b9c8671	-8.338891852242542
75	0xc012c85e392b4c4a	-4.695671933429432
76	0x3ff6426801df030a	1.3912124703494464
77	0xbff256e63532d0b5	-1.1462156370226186
78	0x401e09eaa05fbb6a	7.509684091418288
79	0xc02cafa5bdf44894	-14.34306138617493
80	0xc018f1574ec99d6b	-6.235684615188215
81	0xc0120eeb7543b22d	-4.514570076233707
82	0xc0213db6058d6c07	-8.620529340279985
83	0xc017071d8f8e9f8b	-5.756948702888518
84	0x3fffaa95956d79b7	1.9791465603844764
85	0xbfde6099d147e64a	-0.47464604795058973
86	0x4019538a00920538	6.331581124222161
87	0xc02b6f75bb543ff9	-13.717695097002421
88	0xc015e152ac435854	-5.470041934595503
89	0xc015015a2acad4c4	-5.251320522909001
90	0xc022e5c04378f3f1	-9.44873247958637
91	0xc01a25fa73c61218	-6.5370882119791744
92	0x4004d83cfa185a28	2.6055850542718595
93	0xbfedb58a60a48820	-0.9284107101013923
94	0x4016e4e179042b52	5.723516360167951
95	0xc02ad7a120dce55d	-13.42115118690952
96	0xc017df7ad61ebd61	-5.968242021204191
97	0xc015a9df9d4be0fe	-5.415892083889274
98	0xc0211d61698a25c1	-8.557383821595865
99	0xc018bdc560fcd05f	-6.185323253088511
100	0x3ffea10d13c102e3	1.9143191119803127
101	0x3fb33bb4c84774ce	0.0751297940218649
102	0x40162f19a9baa851	5.545996334092778
103	0xc02b86ae6c4f9c00	-13.763049492567006
104	0xc017b045501fa73d	-5.922139408046687
105	0xc01466fbf59c3ffc	-5.100570523893108
106	0xc021b1ce7310b1b9	-8.847278209483976
107	0xc018b81bd068fc15	-6.179793602378614
108	0x40012bc734188399	2.1463760442715736
109	0xbfdac7713a4948c8	-0.41842299167650454
110	0x40175b61b7607ab6	5.839239945663101
111	0xc02b4148b7c8af34	-13.627507918593984
112	0xc0180a2c713ab701	-6.009935158928557
113	0xc0154542a5bb340f	-5.317637052107798
114	0xc0215ad1b863d907	-8.67738128870816
115	0xc01921ce9dd4c26e	-6.2830147420032585
116	0x400081f98518e909	2.0634642027117747
117	0xbfb76ba8933fa886	-0.09148648829401126
118	0x40165197e013395c	5.579680920766204
119	0xc02b45ed524cefa6	-13.636576244250886
120	0xc015709a6ec01dfa	-5.359964113689324
121	0xc0149218bb8ffe8e	-5.142672472633093
122	0xc022ef066c7c2086	-9.466845884468295
123	0xc01948a79dd4c1cc	-6.320951906309755
124	0x40041b7707702efa	2.5134106236563385
125	0xbff0035a5e4ca5b7	-1.00081860385613
126	0x4017a420e73e9bd4	5.910281766125042
127	0xc02b224c485dcd38	-13.566988240671535
128	0xc017284f4c412c9c	-5.789364997365876
129	0xc0151b22b85d47c3	-5.27649963445032
130	0xc021fba7309a54e5	-8.991509932364758
131	0xc019787f38dec2c2	-6.367672813984145
132	0x40023a868ae05835	2.2785769319262053
133	0xbfdaa3686b087236	-0.4162236256832189
134	0x40168fdf9bc00c7c	5.640501435848929
135	0xc02b1f3421e7ac59	-13.560944613962578
136	0xc01865cd4132d2e5	-6.099415796973266
137	0xc0160d961631307e	-5.513267847778591
138	0xc02132508a33f20c	-8.598270720330241
139	0xc019ad66f1a6ddca	-6.419338012513842
140	0x400075125c86e162	2.057163927904342
141	0x3fba8e15dac43300	0.10373055067993775
142	0x40156500f89634fc	5.3486365167311725
143	0xc02b322d7838a5eb	-13.598003155627302
144	0xc016e83f14d2b818	-5.726803136216425
145	0xc0155ab43c20fd9a	-5.338578166497792
146	0xc0221fe43a50265d	-9.062288114818495
147	0xc019b124e81bc1e1	-6.422992350286649
148	0x4002a1c0b0b1cd05	2.328980808664371
149	0xbfdcdd68bdc5662c	-0.45101374180157694
150	0x40165bdc017eb68f	5.589706443175273
151	0xc02b16e716310385	-13.544731801493763
152	0xc0177dd178b75283	-5.872869383038622
153	0xc015ac79d424c8be	-5.418433489556433
154	0xc021d497d4f5c0f1	-8.915220885276058
155	0xc019e69847b3874f	-6.475190277416757
156	0x40022825295ccd71	2.269602130074127
157	0xbfd001faa9f08a67	-0.25012079806962223
158	0x4015d81b2f2c85ae	5.46104119977228
159	0xc02b0dd4e748241a	-13.527014949375417
160	0xc018774a7f97c77c	-6.116495126379842
161	0xc01603148065ce2d	-5.503007894719798
162	0xc02128ea1b0e07e4	-8.57991108461642
163	0xc019a5c6b6205c8c	-6.411890836453619
164	0x40005fbbbd30479b	2.046744802509193
165	0x3fbe08c36243f968	0.1173212160974565
166	0x40156a2da2ef02e8	5.353689714277358
167	0xc02b32c1641399cc	-13.5991317056586
168	0xc0182ff038506c4b	-6.046814803990013
169	0xc015f2a746b0361a	-5.4869662327814925
170	0xc0215e1d9ac9aa84	-8.683819615476075
171	0xc019ca346f2bfd18	-6.447465645847181
172	0x4000fba0801b8e4e	2.122864724007548
173	0x3f8b800c2d29c020	0.013427825096386015
174	0x401579e3427ee5f3	5.369030989642385
175	0xc02b22b11c34bbe8	-13.567757493436105
176	0xc017ab951fd9117f	-5.917561051963616
177	0xc015b70f79dacf6e	-5.428769973735923
178	0xc021b0003ae9acf3	-8.843751755738117
179	0xc019c9cc74e53b71	-6.447069002619956
180	0x4001b8710b825cc5	2.215059366145939
181	0xbfc6e15842be97a1	-0.1787519765759358
182	0x4015cfa7549fe0fa	5.4527867529470715
183	0xc02b1a4bb73f613d	-13.551358915793225
184	0xc01787ffda86e004	-5.8828119416066365
185	0xc015ab22ac1fb220	-5.417124452051695
186	0xc021c9effe015dbd	-8.894409120241898
187	0xc019d7755330b115	-6.460408496710689
188	0x40020192c9a7b174	2.2507682565976044
189	0xbfcdc12d11ba91f4	-0.23245776525176576
190	0x4015dcae13ece87e	5.465507804236152
191	0xc02b135d5a90a780	-13.537821607740398
192	0xc0177658d45c3968	-5.865573232773706
193	0xc0159a9278bfba4b	-5.400949370100146
194	0xc021cdf57e655fee	-8.902263593554348
195	0xc019be16e2ac65b9	-6.43563417603712
196	0x4001f2cf96d4f459	2.243560007451873
197	0xbfd05e74e7d30992	-0.25576517714594005
198	0x4015fbaad5756ded	5.495768866817781
199	0xc02b1ab5f514e2d6	-13.5521694744106
200	0xc017a912c6ec4a45	-5.9151106912345925
201	0xc015a8f805d30966	-5.415008631711634
202	0xc021aa8ced656284	-8.833106440187528
203	0xc019ae306d26330d	-6.420106606918819
204	0x400193589cb5fd8e	2.1969463580168798
205	0xbfc738142bbb1b20	-0.18139888892457012
206	0x4015e865ba9eef34	5.476950565291009
207	0xc02b22ac011412b8	-13.567718537998516
208	0xc01790c548fed1cb	-5.891377583077381
209	0xc015a0e6b362c0a6	-5.407130053427101
210	0xc021bcf475a6fee1	-8.869052578578193
211	0xc019b99336a19432	-6.4312256370658805
212	0x4001c923b8fad682	2.2232126666593226
213	0xbfcbfdb9ee2311ca	-0.2186806118753693
214	0x4015f011dad84341	5.484443110894802
215	0xc02b1d1dde39e940	-13.55686850029872
216	0xc017b4dd16e1a9dd	-5.9266246390565955
217	0xc015b27923b93cc7	-5.424290235692019
218	0xc021a4d46da3e832	-8.821933199175053
219	0xc019b5336720c59e	-6.426953898787728
220	0x40018bec1ef6cc85	2.193321458727555
221	0xbfc4f8165b22858a	-0.16382102441734175
222	0x4015da4b37725fa1	5.463177553516204
223	0xc02b216eeaf5d6ea	-13.565299360761362
224	0xc017afa3b89d11b5	-5.921522984110585
225	0xc015afa3dfdbcfd4	-5.4215235689079755
226	0xc021a7f240ad2975	-8.828020115983898
227	0xc019b48dee286002	-6.426322671140953
228	0x400192a2385ba0e6	2.1965984728777697
229	0xbfc5f59121a2bf3e	-0.17155660765046749
230	0x4015de5959867350	5.4671377170860325
231	0xc02b2143d0f6d99c	-13.564970522053777
232	0xc017a0c9d41f550c	-5.907019915020339
233	0xc015a718d0424da4	-5.413180593535262
234	0xc021b0b09cbd2f05	-8.84509744462367
235	0xc019b22564f128d7	-6.42397077295228
236	0x4001a50aea49ecd7	2.205587225323693
237	0xbfc8c82e1c81f893	-0.19360901252725124
238	0x4015ea764df6b8b4	5.478966921027837
239	0xc02b20eb8e57c012	-13.5642971498601
240	0xc017a83e03e2128c	-5.914299069093101
241	0xc015aacc11ed1527	-5.416794090361953
242	0xc021ad444e31273a	-8.83841175413146
243	0xc019b5e838ffcb1f	-6.42764367161979
244	0x4001a123c41fa0b2	2.203681499686433
245	0xbfc782372fd9d893	-0.18366136394951535
246	0x4015e343595b04d7	5.471936603718141
247	0xc02b1ff44ce04359	-13.562410738349785
248	0xc017a77756aed0e8	-5.913541178150105
249	0xc015ab26fe4bd7ee	-5.417140935305708
250	0xc021ad6a3b13e8ea	-8.838701101475142
251	0xc019b546401acfb7	-6.427025796543538
252	0x4001a072d66971ed	2.2033440352372424
253	0xbfc79482e7f691bb	-0.18421970678640584
254	0x4015e3bd24286fae	5.472401204078706
255	0xc02b204c06c8a76c	-13.563080036157508
