ce_results/6x5_grid/10_times/ce/best_weights_ce_2.npy (npy, 6528 bytes, 1 tensors)

array f8 [100, 8]
000000 1e 65 dd 67 f9 2a 36 c0 59 65 76 1b 3f 11 32 c0
       -22.167868129302512 -18.067369190602538
000010 97 b4 cc 4b f1 cd 3d c0 5a 12 15 38 e7 a6 1c c0
       -29.804463136174117 -7.16299140575992
000020 db 86 de b7 bb 35 07 40 2a f3 e5 38 48 60 d8 bf
       2.901236950376967 -0.3808765941283122
000030 ad 13 92 ef b9 c5 24 40 51 56 1d b3 f5 f1 11 40
       10.386184202748916 4.48628883234558
000040 4c 51 22 24 dc 36 2a c0 42 49 20 a5 42 08 06 c0
       -13.107148293675571 -2.754033365295215
000050 1a 36 69 dd 83 60 0e c0 a3 9a 51 25 78 3d 19 c0
       -3.797126512311263 -6.31002863226482
000060 63 b6 c5 91 04 2f 11 40 a6 23 a9 aa 20 fe 07 c0
       4.295915868465815 -2.9990857441775516
000070 0c f0 7a 38 dd 27 0a c0 8b 2e 87 a4 70 ab f0 3f
       -3.2694649136083225 1.0418554713132007
000080 7c ba 50 2b 29 e5 23 c0 80 f8 b3 ec 27 ba bb 3f
       -9.947579721073673 0.10830926445848554
000090 84 47 33 11 91 92 23 c0 86 48 d3 0b bc eb 15 c0
       -9.786263024816215 -5.480209526797017
0000a0 30 67 1a 2d e7 aa f5 3f da e1 bf 27 a0 25 09 c0
       1.3542243730393686 -3.1433718781884012
0000b0 54 0e be f7 5d 77 24 40 31 07 24 d6 2f de 19 c0
       10.233138791990463 -6.466979356717091
0000c0 dd e0 5d 77 f7 c8 22 c0 5f ed f1 25 12 1e 18 c0
       -9.392513017854464 -6.029366104975764
0000d0 28 9f 45 f6 b9 93 2b c0 48 0a cb 49 55 0b 1d c0
       -13.788528152464622 -7.261067536370838
0000e0 22 d1 de 55 1e 85 06 c0 5c 7d 10 e9 ae 25 e7 bf
       -2.814999266493161 -0.7233500053443254
0000f0 7b ab 2c 66 53 e8 14 40 9a 41 40 58 a6 4d 07 c0
       5.226880642391616 -2.9129149336442426
000100 ff b5 78 6e c6 4f 1c c0 3c b1 6c f7 9b 0e 1f c0
       -7.0779053937126255 -7.764266839989713
000110 cf 72 04 e2 bf 27 2c c0 14 00 5b e4 4e 73 07 c0
       -14.077635825198199 -2.931302818324193
000120 a1 5d dc 9f 9f 14 ec 3f e6 dc 4e 0a 33 a7 e8 bf
       0.8775175211221048 -0.7704100800828229
000130 df f3 e6 86 2c ad 1c 40 f0 99 11 14 fa 2d d0 3f
       7.169115169378499 0.2528062053665101
000140 9a b8 8c 7c e9 08 25 c0 18 66 57 dc 00 70 14 c0
       -10.51740636079585 -5.109378283342743
000150 38 c2 90 7c c8 e1 24 c0 4e 62 27 75 c9 b2 20 c0
       -10.440982716246353 -8.349193249757402
000160 dc 1c 94 a1 63 ea f4 3f a6 c6 92 20 5a de 0d c0
       1.3072239219343862 -3.733570341567275
000170 57 f8 e0 ad a2 c0 15 40 1a ea c9 53 e9 c6 09 c0
       5.4381205719529 -3.222124724006119
000180 09 51 d2 a1 c2 7e 22 c0 33 98 39 ab 52 68 13 c0
       -9.247578675197035 -4.851877856626788
000190 e0 3d 65 2c df cf 26 c0 d7 e7 24 2a 3a ed 18 c0
       -11.405999553068739 -6.2316671929383665
0001a0 b0 12 67 37 bc 4e e3 bf fc 45 8d ac f1 e0 03 c0
       -0.6033612329561802 -2.484835956631967
0001b0 c7 3b 35 27 05 97 1e 40 50 f7 f8 32 e1 82 0b c0
       7.6474805952302125 -3.438906095717279
0001c0 57 3f bd b5 81 e8 21 c0 cc 5e 27 4d 1b 76 07 c0
       -8.954114608146183 -2.9326692607536184
0001d0 da f3 d6 e0 19 e0 22 c0 5c 77 e3 8f 88 b7 1d c0
       -9.437697435607266 -7.429231880434454
0001e0 6a 43 a8 17 db ef e7 bf 22 f3 3c e1 61 9a 10 c0
       -0.7480292760902618 -4.150764006943776
0001f0 5a cb 92 97 58 6e 21 40 f7 28 fd 29 12 6f 14 c0
       8.715519653958541 -5.108467727734243
000200 18 ea 69 4d f5 92 21 c0 65 b4 1a 11 6b d7 10 c0
       -8.787027758769042 -4.210369364981578
000210 6e f0 2c f9 84 e5 24 c0 a0 ce 14 c0 b1 bd 1b c0
       -10.448280131088008 -6.935248376150099
000220 e8 ca 7a 1b a6 ad e2 3f 37 23 7e 69 f2 2f 0e c0
       0.5836973702156145 -3.7734115831011894
000230 3c 60 39 0a 3c 56 1e 40 15 5f c7 00 d3 07 0d c0
       7.584213409187267 -3.6288204251139953
000240 e6 e9 f8 cb 94 e9 22 c0 b5 58 ef 73 c8 fe 12 c0
       -9.456213354239434 -4.748811542018463
000250 18 7b 5c 72 b0 bb 25 c0 5a 62 36 d6 ac 82 1a c0
       -10.866580556668438 -6.627612444943759
000260 41 9e 65 59 6f 45 db 3f 0e dd 16 e4 49 f7 0a c0
       0.4261129735009242 -3.3707464045979867
000270 6d 59 5f 97 a9 0e 1f 40 27 9b a2 6f 61 7f 0a c0
       7.764318814463292 -3.3121975633142884
000280 08 ce c3 8c c9 52 21 c0 b0 7c c4 44 73 d6 12 c0
       -8.661693953420595 -4.70942408990156
000290 cf 9e 53 7f 48 5b 26 c0 e9 f2 4c ae 76 d0 18 c0
       -11.178287486035883 -6.203577731558405
0002a0 fe a9 d0 f2 7e 5f da 3f e0 10 fe ba 2c 27 09 c0
       0.4120786067238952 -3.144128285292126
0002b0 fa 5e f1 36 c1 cf 1e 40 30 ee 22 df 6a 80 09 c0
       7.7028854927846115 -3.1877038414511603
0002c0 08 ae b4 5f 82 4d 21 c0 35 69 e5 5f 1c 7f 10 c0
       -8.651385298543588 -4.124131677987227
0002d0 54 b4 c7 4d d1 31 25 c0 6a ba 23 15 ce 53 1b c0
       -10.597299986484508 -6.831840830140758
0002e0 d8 4a 04 1d ad 01 e5 3f e2 26 da 04 df ae 0d c0
       0.6564546171888095 -3.710386312396495
0002f0 cc dd bd 78 9d 9d 1e 40 6f e9 8e ea a4 72 0c c0
       7.653921019161725 -3.555978615270923
000300 fd 73 b3 8d a2 6d 23 c0 23 db 48 f3 d2 01 10 c0
       -9.714130809932607 -4.001781274148729
000310 1b 2f 0e 92 f7 27 24 c0 15 5d ba 73 3b dc 1c c0
       -10.078060688239523 -7.2150705416199985
000320 fe 59 74 54 b4 40 c6 bf ba 61 75 aa 42 3d 0e c0
       -0.17384962199930948 -3.7799123112747255
000330 9d ab 0e cc cc 63 20 40 43 c9 ab 34 27 ba 10 c0
       8.194921852865997 -4.181790183053013
000340 28 71 19 35 15 73 22 c0 54 72 b7 9b 9a e2 0f c0
       -9.224771174770083 -3.9856464543684442
000350 86 39 28 c8 1c 8e 24 c0 bb 11 05 41 22 1c 1c c0
       -10.277563338194124 -7.027474418577579
000360 0e 13 5b 3f f8 8e a6 3f b0 4d 5d f7 08 c8 0d c0
       0.04405952237497078 -3.722673351797958
000370 21 cc f2 f3 f5 18 20 40 e9 c5 54 e7 13 07 10 c0
       8.048751471889831 -4.006911863850726
000380 c4 59 e3 6b 9b 1b 23 c0 53 2f a9 99 ed 06 11 c0
       -9.553920146467938 -4.256765747977471
000390 2f 06 93 2a bd d0 24 c0 c2 ce e7 c4 c0 9f 1b c0
       -10.40769322437981 -6.906008793495575
0003a0 f8 17 01 6c 0b d9 b8 bf 84 6e 50 0d 45 52 0c c0
       -0.09706183802435919 -3.5401707687540824
0003b0 66 71 f8 18 8f 36 20 40 51 25 7d 93 26 3f 0f c0
       8.106560497596274 -3.905835296875616
0003c0 3a d5 78 b7 4c 63 23 c0 49 fe ce d8 90 55 10 c0
       -9.693944676876175 -4.083560359605664
0003d0 87 25 52 18 24 76 24 c0 76 36 b3 28 ce 40 1c c0
       -10.230744133021984 -7.063286434114721
0003e0 b6 13 0f 3d b1 99 cc bf 5f 05 45 52 b9 20 0d c0
       -0.2234403179301389 -3.640978472453454
0003f0 f6 ca 25 41 8e 78 20 40 f2 13 c8 ac 08 68 10 c0
       8.235460315574056 -4.101595592223918
000400 07 7a 46 f0 fb 41 23 c0 b3 13 ff bd 1f 6a 10 c0
       -9.628875263789281 -4.103636711782133
000410 49 3a ff c7 60 83 24 c0 95 56 22 58 b6 46 1c c0
       -10.256597757249567 -7.069054963203276
000420 a5 44 7f 2b fb d7 b7 bf cd 16 4d d7 f2 5a 0d c0
       -0.0931393605417435 -3.669408494987556
000430 89 60 6f 9e 55 4e 20 40 10 de 07 7c 1e 1d 10 c0
       8.152996970268093 -4.028436601619902
000440 00 f0 2e 9d 5b 43 23 c0 e0 c0 ec d7 09 34 10 c0
       -9.631558334331203 -4.05081879980591
000450 a2 8a 00 93 b5 6a 24 c0 e7 77 ab 60 cf 49 1c c0
       -10.20841655141459 -7.072080145326232
000460 38 04 71 76 57 63 cb bf ed 69 2e 2b 53 58 0d c0
       -0.2139691665961736 -3.6681273816623077
000470 bd 21 41 de df 75 20 40 27 92 4c e5 b4 7b 10 c0
       8.230223603678377 -4.120807249830739
000480 87 5b 80 96 a4 53 23 c0 22 1c 52 1d f8 69 10 c0
       -9.663365080994266 -4.1034855443349745
000490 a1 60 56 f7 0a 7b 24 c0 f5 77 d0 9c e7 42 1c c0
       -10.240318040174602 -7.065336656783974
0004a0 fa b3 3c 23 6d 21 c4 bf f6 4a 26 26 2e 46 0d c0
       -0.15727009029924927 -3.6592677097736397
0004b0 0e a4 1e d2 dd 62 20 40 b0 45 2e bc a9 40 10 c0
       8.19309860824617 -4.063147487949593
0004c0 48 c2 79 4d 62 58 23 c0 fd 4b 68 5d 05 fc 0f c0
       -9.67262498961749 -3.998057107682597
0004d0 60 50 fa c3 19 4e 24 c0 d8 c3 c4 4b 18 9d 1c c0
       -10.152540325456528 -7.153412994274696
0004e0 01 5d 25 bf a7 9e c5 bf 96 11 4d d0 dc d2 0d c0
       -0.1689042743043743 -3.727960231162977
0004f0 a4 67 6a 2b 2e 6f 20 40 a4 b1 4d 1e 79 95 10 c0
       8.217149121035455 -4.145969842426357
000500 f2 26 e9 26 27 42 23 c0 6a df be 12 41 3f 10 c0
       -9.62920495601745 -4.061771672153421
000510 d6 d3 24 80 b3 6d 24 c0 d9 dc f1 04 cc 66 1c c0
       -10.214260105605643 -7.1003876469250935
000520 10 50 fb 9b 78 d4 be bf 95 f1 e8 b9 dd 8d 0d c0
       -0.12042955215594042 -3.6942705654348154
000530 a1 6a 52 e9 48 57 20 40 0a 5e a5 43 6b 4c 10 c0
       8.170478144941912 -4.074627930610868
000540 53 3a d7 48 e3 34 23 c0 20 d6 11 b2 6c a8 10 c0
       -9.603296543381623 -4.164477140749597
000550 aa 05 c5 18 47 9d 24 c0 64 75 cc 51 55 fc 1b c0
       -10.30718305020385 -6.996419218162689
000560 b4 a5 c2 8a a6 0b c1 bf 82 de a9 dc 72 e8 0c c0
       -0.13316804671675941 -3.6135003318157155
000570 01 2e df e4 f2 50 20 40 7c 62 6b 9c db 00 10 c0
       8.158103134387604 -4.000837749532931
000580 05 ad 1f 2c 26 3a 23 c0 04 42 a8 c2 33 60 10 c0
       -9.613572481981928 -4.093947450179716
000590 72 09 6b e0 5d 7e 24 c0 0c 5e 79 df 27 3c 1c c0
       -10.246809971872356 -7.058745853216816
0005a0 e8 1a 8d f6 25 76 c1 bf b3 23 57 27 1e 4d 0d c0
       -0.13641809977180874 -3.6626551698177194
0005b0 d3 48 f8 3b d7 58 20 40 b3 d7 cd e2 65 38 10 c0
       8.173517107065356 -4.055076164067873
0005c0 5a a7 9b 8b 1c 3f 23 c0 fc a0 03 d4 f0 49 10 c0
       -9.623264658690164 -4.07220774910115
0005d0 bd 67 b2 34 03 74 24 c0 a3 40 6e 31 b0 50 1c c0
       -10.22658695867346 -7.078797123293188
0005e0 8e f4 9d 4f 95 56 c2 bf 50 d7 d9 4c f3 69 0d c0
       -0.14326731097745377 -3.676733589551908
0005f0 4a 6b 6e 5b 46 5d 20 40 63 be 78 ba c7 4c 10 c0
       8.182177407483 -4.07498065340005
000600 56 c8 42 89 58 4b 23 c0 49 14 91 47 bf 03 10 c0
       -9.64715985241143 -4.003659361104902
000610 35 ce 9e 16 9c 53 24 c0 d3 23 f7 ab 31 9f 1c c0
       -10.16330023468536 -7.1554629201500175
000620 18 4f d3 c6 fb 0d bf bf 04 fe bb 9f b8 e3 0d c0
       -0.12130712131630295 -3.736191986012047
000630 71 7b 0b dd 90 5e 20 40 64 60 1c ad c4 79 10 c0
       8.18469897046245 -4.11891432271668
000640 29 1f a9 5c ac 48 23 c0 ec 88 f3 eb 61 09 10 c0
       -9.641940017361394 -4.00916260408324
000650 0e ff 8f f2 48 57 24 c0 b9 c8 17 f4 78 88 1c c0
       -10.170478420331644 -7.1332739009396215
000660 e4 2e 50 6d 7e 89 c4 bf 1f 9c 5d 0a ad bc 0d c0
       -0.16044597947654105 -3.7171269235436877
000670 63 96 fb 2f 34 69 20 40 02 47 3e 06 95 85 10 c0
       8.205476283513411 -4.130451295424566
000680 1b f9 97 53 31 48 23 c0 2a fb d9 c5 87 08 10 c0
       -9.641001331616783 -4.008330432347785
000690 54 7f 50 06 28 57 24 c0 21 5e fc 2a df 86 1c c0
       -10.170227238966312 -7.1317106930287375
0006a0 b7 53 7c 6e f9 1f c5 bf 09 12 74 da 0e ba 0d c0
       -0.16503827948386426 -3.715848642985524
0006b0 29 ea 9b 94 99 6a 20 40 79 51 b7 ff 05 88 10 c0
       8.208202976257853 -4.132835383952959
0006c0 e6 51 3e 61 08 44 23 c0 93 54 2d e2 c6 28 10 c0
       -9.632876433236515 -4.039821180359598
0006d0 d7 82 01 6c 3f 65 24 c0 2b b6 28 b7 e1 6d 1c c0
       -10.197749495682201 -7.107306348666991
0006e0 e0 a5 52 f9 68 48 c3 bf 2a dc 69 0d 83 95 0d c0
       -0.15064727949110956 -3.698003868859378
0006f0 30 be 09 89 03 63 20 40 4a c9 7b 98 54 69 10 c0
       8.193386347235986 -4.102861769252124
000700 57 7b 6b d3 f8 43 23 c0 c7 63 dc 4d ad 22 10 c0
       -9.632757765646302 -4.033864227844737
000710 99 25 e7 5f 0e 63 24 c0 92 3f 06 2f a7 6c 1c c0
       -10.193469044653101 -7.106106505161636
000720 89 96 39 39 1c 47 c5 bf 82 27 ed 18 18 92 0d c0
       -0.1662326125544278 -3.696335024583221
000730 ca 9e 7e 1e 25 68 20 40 09 c8 f0 fd 59 74 10 c0
       8.203408196407867 -4.113624542065744
000740 0d e8 0d a8 60 44 23 c0 c2 08 d7 dc 50 2b 10 c0
       -9.633549930284085 -4.042300654053351
000750 a6 b1 d8 61 fe 65 24 c0 70 c5 ef fa 87 71 1c c0
       -10.199206407262704 -7.110870285877681
000760 fc b0 d4 f3 8c 83 c1 bf a5 81 e4 98 90 9c 0d c0
       -0.13682710557748823 -3.701447672341788
000770 16 06 a9 b6 cd 5e 20 40 37 53 0b 2f ac 61 10 c0
       8.185163219578538 -4.095383391443469
000780 ea 52 9e 0e f5 43 23 c0 3e b1 10 9f e4 2d 10 c0
       -9.632729012323995 -4.044817433732815
000790 c3 76 60 a1 2e 67 24 c0 71 67 7e cc 67 6e 1c c0
       -10.20152763655222 -7.107817836012928
0007a0 2a f9 b3 fd 17 b5 c1 bf 6f a1 d0 bc 97 97 0d c0
       -0.13833904159395988 -3.6990198851746565
0007b0 79 b7 44 b1 f5 5e 20 40 ca 80 3a ca 54 60 10 c0
       8.185468234670894 -4.094073448010201
0007c0 fe 55 4d d3 c1 46 23 c0 a3 77 c4 f7 34 1f 10 c0
       -9.63819752043764 -4.030475493780531
0007d0 10 12 ac 0a 36 60 24 c0 fb 01 38 73 9e 80 1c c0
       -10.18791230535956 -7.125604439061585
0007e0 ed 9a ea ac b0 a6 c0 bf d6 a6 ba 50 28 b4 0d c0
       -0.1300869793241967 -3.7129675204240398
0007f0 49 fe 98 fd 22 5e 20 40 65 f9 55 44 51 68 10 c0
       8.183860707212391 -4.101872508761834
