ce_results/6x5_grid/10_times/ce_decreasing/best_weights_ce_1.npy (npy, 6528 bytes, 1 tensors)

array f8 [100, 8]
000000 89 8c 58 9e ca 7d 20 40 f2 ff 63 b9 d1 fa 19 c0
       8.245686481770706 -6.49494065926409
000010 ec 73 8a f4 d2 8d 2c c0 0b 27 19 ad b8 c0 f1 bf
       -14.277000085736255 -1.1095511209154576
000020 e8 ff 4a 30 e7 2f f0 bf 98 c0 aa 34 ac 96 13 c0
       -1.0116950880474125 -4.897141287729163
000030 da b7 ea 1a 58 c4 18 40 68 e8 1e b6 cb e3 09 c0
       6.191742344451962 -3.236228392427666
000040 fe df 01 a2 77 f1 0e 40 48 ae 35 fb ed 0f 15 c0
       3.86790396278593 -5.265556264068046
000050 32 5a bf 92 62 fa 2c c0 3b 92 ea 8a a1 52 f3 3f
       -14.489033304079474 1.207673590318463
000060 3b 42 05 06 e9 67 09 40 fb bf 21 3c 72 91 00 c0
       3.1757374258379776 -2.0710186670112285
000070 f2 ec 7e 72 6e 23 ed bf 22 c8 e7 52 60 6c 20 c0
       -0.9105751262899544 -8.211672392648385
000080 96 dd 5d 63 53 91 15 c0 64 72 58 0e 6d a3 f9 3f
       -5.3919196630517 1.6023989258166234
000090 a8 06 b2 12 32 33 23 c0 af 5e 44 f8 c8 3c 1e c0
       -9.59999140189332 -7.559360388920751
0000a0 79 0b 19 d2 2b 0f 04 40 98 81 8c d7 76 ab 14 40
       2.5074078000920363 5.167445533705539
0000b0 a4 02 64 b3 4f 63 11 c0 6e ad 5c 85 1f f9 15 c0
       -4.346983721713205 -5.493284305364211
0000c0 ec 9a 7a 2b 77 5d 0e c0 ce ba f0 35 6e 29 04 c0
       -3.7956374546805502 -2.5202297414865376
0000d0 8f f6 f0 69 8f 49 23 c0 ca dd f5 79 60 1c 27 c0
       -9.643672285713619 -11.55542355657862
0000e0 24 dc 5e 0b b9 14 08 c0 30 8f 34 39 1e 7e cd 3f
       -3.010118569214244 0.23041131776073476
0000f0 80 6c 5f d8 9a fe b8 3f 50 ca bc a7 99 e6 d4 3f
       0.0976349619153769 0.32657472019778755
000100 73 f6 02 76 c5 26 1d c0 0a e0 c5 ff de 44 1e c0
       -7.2878626288708 -7.567256924106923
000110 e6 f4 2c 05 9b 32 21 c0 34 d2 0c 3e 45 83 23 c0
       -8.598838960397597 -9.756387652459217
000120 e0 a2 e4 6f 41 f7 b1 3f d0 69 19 31 8e 93 01 c0
       0.07017907125249279 -2.197048553073934
000130 fe ea 6c 6c 41 cd 00 40 c5 f6 e3 0a 38 e8 11 c0
       2.1002224417437665 -4.476776285327735
000140 3a fd c3 9b 02 74 1a c0 7a 37 24 c1 b5 eb 0a c0
       -6.613291200482587 -3.365092762868639
000150 9e 9f a8 60 11 17 26 c0 22 e4 5a 6a a4 48 22 c0
       -11.04505445536034 -9.14187939033042
000160 4a 14 f4 3d ed 93 06 c0 ab db 63 09 61 84 06 c0
       -2.822229846965034 -2.8146382077788608
000170 74 a5 51 bf af 15 18 40 1c 3e ab 55 68 77 1a c0
       6.021178235395713 -6.6166089425819585
000180 2e 7f fc 4a 22 55 20 c0 a7 ed 73 8a d9 cd 0d c0
       -8.166277259180415 -3.725512582457401
000190 92 39 8d 89 5c f9 2a c0 d9 c4 82 b2 97 57 14 c0
       -13.487034128655782 -5.085539616805556
0001a0 32 f2 c4 8e aa 9b 1a 40 54 c1 69 89 be 2a 18 40
       6.652017813463816 6.041742465095314
0001b0 0c 70 e1 c2 e1 b6 22 40 6f e5 cc 31 a0 e9 24 c0
       9.357191171664475 -10.456300312291857
0001c0 2c 37 0c 86 a8 2e 28 c0 24 a9 bc 84 c1 0e 17 c0
       -12.091129483214523 -5.764410089507042
0001d0 98 32 5d 30 25 a2 25 c0 d4 0e cb da 6a 4e 07 c0
       -10.816689978958763 -2.9132897465914116
0001e0 be 48 9a 9f 8a 11 06 40 10 e6 e9 b6 1a 29 0d c0
       2.7585651844939028 -3.6450704851274693
0001f0 b2 68 de 7a 1d 07 24 40 bd 2a 58 d5 7f af 19 c0
       10.013896789216549 -6.42138608313206
000200 41 9c e2 ca 57 fa 29 c0 f0 39 8d 44 d2 9d 1a c0
       -12.98895105377426 -6.654122420425196
000210 98 af 47 2d 43 41 17 c0 e0 a9 ec 0f bf 3e 18 c0
       -5.81373282194172 -6.061275719470785
000220 b8 f9 4a 1e 65 10 19 40 42 25 62 37 b1 9a fe 3f
       6.26601073582281 1.9127666629231759
000230 8d dc 0f 8b 39 48 22 40 43 7c 01 11 36 18 17 c0
       9.141064019857618 -5.7736437470585456
000240 3e df 4b e9 7f 69 21 c0 10 70 35 55 4a db e0 bf
       -8.706054010879253 -0.5267688431008555
000250 59 b2 58 0f 0c 17 1e c0 ac 6c d3 3e 06 c0 05 c0
       -7.522506942547431 -2.7187619121810567
000260 2e 31 3e 0a 35 e4 25 40 b4 58 41 0b 4d 67 28 40
       10.945717163173494 12.201759673811786
000270 ee 65 52 15 43 a4 24 40 ae e0 47 88 b9 1e 25 c0
       10.320824304874773 -10.560009249471786
000280 05 aa 2a 2c cf 00 1e c0 d7 01 72 ee 7b 2f 20 c0
       -7.500790300468457 -8.092742396752255
000290 0a db 34 2f 1e 4e 17 c0 7c bc 61 31 af ae 24 c0
       -5.826287019349147 -10.341180365734765
0002a0 0a 94 ab ad e7 09 04 c0 14 21 e5 19 11 8a 17 c0
       -2.504836422728208 -5.884830860719621
0002b0 2b 97 d3 9f 4c b3 10 c0 6e 79 84 97 0f 6a 13 c0
       -4.175096986093005 -4.853575103245346
0002c0 d0 cd 13 63 9a 21 17 c0 bd 75 11 f8 50 a5 17 c0
       -5.782815502246606 -5.911441684785527
0002d0 82 b6 91 4b ff ea 1b c0 c6 f4 e0 24 c3 7f 0d c0
       -6.979489498871432 -3.6873839265013855
0002e0 1a 4d 20 c9 93 b3 10 40 7e 6c 88 77 22 c0 ee bf
       4.175368445011623 -0.9609539351107654
0002f0 7b 51 3d 12 4e 2b 21 40 dc 95 6c c0 0b 4c 12 c0
       8.584580011353628 -4.5742635790133725
000300 21 d3 eb d8 c8 a0 15 c0 1c 62 20 ab 75 49 04 c0
       -5.407016171830748 -2.5358689660317975
000310 d6 f5 a4 9c 33 14 29 c0 d7 59 68 d0 8b 15 08 c0
       -12.539456267487292 -3.010520580467737
000320 1c a1 5a 1a 6b b7 12 40 8f 84 f7 27 4d 4c f6 3f
       4.679119502812934 1.393628269310543
000330 c4 01 73 39 90 e3 21 40 25 20 81 b7 76 80 1a c0
       8.944459719933441 -6.625452868705939
000340 d2 b1 ce 99 c7 ea 27 c0 e7 98 d0 21 b7 e1 12 c0
       -11.958554083329464 -4.720425155979888
000350 46 0b 14 2f 38 f5 21 c0 94 1a fa 69 46 56 25 c0
       -8.978944274136335 -10.668505965976955
000360 76 5a d6 75 ee 61 20 40 d4 05 3b 70 16 21 00 40
       8.191272432724173 2.0161560791027373
000370 ab e0 f8 4d 39 e2 1d 40 b1 b4 97 f1 9a 71 20 c0
       7.470921724620136 -8.22188525177839
000380 78 ae 8b 46 d9 40 1b c0 65 8f bd 22 54 26 0c c0
       -6.813328840518459 -3.5187151636218226
000390 8b 1f 5e e6 50 ed 25 c0 84 f8 fe 43 f5 df 20 c0
       -10.963507842054034 -8.43741810309826
0003a0 f4 75 00 7e c3 1f 10 40 b4 d5 04 a3 67 79 00 40
       4.031019181039927 2.0592797027445275
0003b0 c1 55 0d 6a 03 10 20 40 ea 17 70 ac 93 a5 2c c0
       8.031276048782162 -14.323392285044935
0003c0 6e 0e 9a 62 ad 26 26 c0 66 ec 04 08 9b 28 20 c0
       -11.075541573816022 -8.079307795144086
0003d0 52 3b 12 3b e6 cb 2f c0 a6 19 7c 30 c7 a2 05 c0
       -15.89824089620166 -2.704481486117589
0003e0 c9 27 58 7e e6 45 20 40 c1 69 dc 85 52 51 b7 bf
       8.136524151097449 -0.09108463066187424
0003f0 30 30 10 fd db 8b 16 40 cc d7 bf dc b4 f8 25 c0
       5.636581377137233 -10.98575486986001
000400 f8 85 a6 59 d5 82 e4 bf 5d 15 80 a1 85 62 18 c0
       -0.6409708739267321 -6.096212886278718
000410 4c 25 70 b3 95 b9 2e c0 b2 a7 f3 31 bf d1 1e c0
       -15.36247025245634 -7.704830914017224
000420 fd 13 d6 94 33 4f 20 40 36 af 3b 0a 3a 9d e0 3f
       8.154690409786776 0.5191927146783886
000430 16 06 37 c3 75 b2 23 40 67 1f b5 04 cd 45 24 c0
       9.848554707018632 -10.13632979117365
000440 8b 62 6a 23 4b ab 19 c0 d2 cc 9d c8 e0 f9 20 c0
       -6.417278817527982 -8.488043088209825
000450 d4 47 ee 3f 34 15 22 c0 c2 85 dd 0c ed bd 14 c0
       -9.041414258801446 -5.1854745874601935
000460 d8 c8 b0 ac 14 92 1d 40 c5 a4 d9 55 3f dd e5 bf
       7.392656992235253 -0.6832577397118703
000470 ac e6 84 cd 93 73 27 40 07 06 45 6b e4 93 20 c0
       11.725737020943903 -8.288852073837019
000480 e5 14 9b 58 a5 1a 17 c0 ab fd 98 c9 da 17 03 c0
       -5.7760213703779515 -2.386647772771274
000490 67 3f da a6 0b f9 29 c0 cc 09 a5 77 cb 6c fa bf
       -12.986417020932732 -1.6515612290973989
0004a0 c1 ad 36 82 28 9f 28 40 12 c3 52 ef 02 40 f2 bf
       12.310855931448602 -1.1406277988973597
0004b0 70 bc 87 61 86 74 16 40 7e 0d 98 d6 c9 95 1f c0
       5.6137938727471095 -7.896277764349518
0004c0 18 ce 78 6a 4b f0 16 c0 81 2e 28 2d 5c d4 25 c0
       -5.734662688849788 -10.914765750079143
0004d0 eb 42 68 a6 65 cb 25 c0 11 c3 5b 0d d1 09 14 c0
       -10.897259903170797 -5.009586533284861
0004e0 6d 0d 70 0e 7b 8c 30 40 d4 ff 98 b3 e5 e2 f6 bf
       16.548752691608957 -1.4303948417218537
0004f0 c7 ad ca d0 87 81 22 40 08 8c 0a fb b5 76 25 c0
       9.252989315739695 -10.731857152020908
000500 e3 f6 75 c8 3e 37 23 c0 d8 f2 3f 0f 83 a3 ed 3f
       -9.607900871658279 0.9262099550101892
000510 19 92 e3 8d 8f 0f 2c c0 7a be db c8 8e 30 06 c0
       -14.030392107038141 -2.7737098400173723
000520 64 ce 43 30 5e 21 25 40 bb 12 e4 6c 39 05 22 40
       10.565171726491094 9.01020374569031
000530 62 37 8b bc 70 67 11 c0 ea 41 2a 41 34 7b 21 c0
       -4.351015993115512 -8.740633045585998
000540 60 85 45 5e fd 9d 21 c0 10 94 13 7b c1 92 18 c0
       -8.80857367132802 -6.1433161955547035
000550 88 5b 06 1a a9 6c 29 c0 ec e3 cf 9c 68 1e 11 c0
       -12.712227643276279 -4.2796959401975805
000560 d6 83 37 c8 e4 a1 2a 40 5e 75 4e a8 e6 42 0f 40
       13.316198593880397 3.907666506666529
000570 39 f6 75 d8 8c 33 f0 3f 3b f5 aa 66 cb 7b 21 c0
       1.0125854926585716 -8.74178620182885
000580 76 c0 26 fe f0 4a 20 c0 b8 cd ed 47 01 cd 18 c0
       -8.14636987898869 -6.200200199021701
000590 9d 6d 91 9a e6 c0 26 c0 40 0d dd fa ce 3d de bf
       -11.376759367229903 -0.4725224923933702
0005a0 69 aa a3 b7 82 05 30 40 b8 eb 17 5b 16 fc e1 bf
       16.0215258383345 -0.5620223788422356
0005b0 87 8e df 90 e6 6e f3 3f 7e ff 6b 6d 8e f4 22 c0
       1.2145753535377553 -9.477649135049202
0005c0 17 c2 a5 a3 f5 17 21 c0 a9 0b b5 c4 73 10 1b c0
       -8.546795953735495 -6.766066621351379
0005d0 f6 e9 51 30 9b 46 31 c0 7e 59 d7 2e 55 01 1a c0
       -17.275805492399705 -6.501301509755988
0005e0 78 46 ca 8e 7d c0 32 40 89 0a be e5 bb 9b 0d 40
       18.75191585958825 3.701041979658218
0005f0 00 c0 cb ec 75 b2 f2 3f d4 00 ed ee c1 9b 1f c0
       1.1685694932784827 -7.902106984344034
000600 68 8c 34 16 6c f8 fe bf 52 16 d2 21 0a 91 20 c0
       -1.9356499545472392 -8.283280426879319
000610 28 01 cc a7 76 36 34 c0 22 ca 23 e8 7f 02 14 c0
       -20.212748038583555 -5.002441050705359
000620 8e 29 e8 d7 cb c2 31 40 c0 6f 12 87 2a 0a 18 40
       17.760922903232817 6.009927855015064
000630 aa c2 77 c5 95 19 07 40 d2 6c a0 53 f0 2c 23 c0
       2.8874926974461532 -9.587771046956195
000640 f0 ea 23 5b b7 12 17 c0 6f 61 ec 30 8a 12 1b c0
       -5.768277572695965 -6.768105282237555
000650 9a 86 e0 7e 1b b0 34 c0 5b b2 18 35 75 7a 06 c0
       -20.687919549766413 -2.8097938678895793
000660 84 b2 70 8e 02 e3 32 40 0c 4e 09 45 7f 6d ff 3f
       18.886757757677074 1.9642327019436179
000670 6c 55 dd 64 cb 65 0a 40 cc 58 e6 c9 0e c7 29 c0
       3.2997043495221785 -12.888784703606142
000680 10 d8 32 0f 1f ee 23 c0 f7 c4 b7 01 80 e7 06 c0
       -9.965080714184325 -2.863037122173974
000690 33 1a 6b 99 45 1f 30 c0 bc 35 bd 6e 16 d8 19 c0
       -16.12215575089267 -6.461023073481041
0006a0 05 93 a1 88 34 9c 33 40 84 06 65 f3 8b a3 03 c0
       19.610176600882387 -2.4548567786412736
0006b0 ab 4b 8f 71 ea 9b 10 40 3e b5 f0 bf e8 c9 23 c0
       4.152261518832272 -9.894353864796923
0006c0 2e 52 64 6b 10 7e 25 c0 44 2f 16 97 b0 73 1c c0
       -10.746219020839899 -7.112978325585406
0006d0 84 4d b6 fb da 11 2e c0 55 93 35 0f 70 04 14 c0
       -15.03487383461357 -5.004333722729673
0006e0 eb 28 b1 9c 39 5b 34 40 f0 aa d1 76 8e b9 ea 3f
       20.356347840549386 0.8351509400066259
0006f0 02 7d 51 41 9e 42 14 40 33 3a 38 ce a1 fd 08 c0
       5.06505682048669 -3.1238437758359168
000700 09 2b 00 2e 1a f1 2a c0 70 22 67 c9 d1 db 23 c0
       -13.470902860184212 -9.92933492073027
000710 00 67 e8 54 bb 2a 2a c0 5a 29 5c c9 1b 09 0c c0
       -13.083460477227618 -3.5044475299120394
000720 08 0b dd 04 e9 ea 2d 40 7a d6 73 b1 d6 d4 fb bf
       14.958809043867873 -1.7394625598657556
000730 9f 60 87 c3 0d a9 08 40 6e d7 92 a5 53 23 21 c0
       3.0825457835854446 -8.56899754922389
000740 12 27 b4 96 5c 01 2b c0 4b 13 ec 4d 1d 05 13 c0
       -13.502659520617758 -4.75499459985151
000750 50 31 a1 9e 14 a5 2b c0 1d b0 f3 d8 4d 1f 14 40
       -13.822422940422854 5.030570402024776
000760 7e 16 21 e7 fc 3f 32 40 85 e4 29 74 8a 3c f4 3f
       18.24995274122056 1.264780477298957
000770 67 98 a4 4f 10 3b 0f 40 d4 5b bc ae f1 50 19 c0
       3.9038397047143465 -6.329046945806983
000780 a7 c8 21 32 f8 2f 18 c0 55 41 a7 a0 a3 77 16 c0
       -6.046845229446411 -5.616835127075622
000790 eb e4 6e 6b 63 ef 34 c0 7c d4 3c e9 d3 66 24 c0
       -20.93511077363375 -10.200835503268756
0007a0 37 67 37 54 c3 d2 2b 40 32 7c 66 17 e8 b4 fa 3f
       13.911646491778454 1.6691666521144382
0007b0 75 e7 25 85 4b 63 04 40 26 ee e2 02 a7 70 1d c0
       2.5484838869278357 -7.360012097454762
0007c0 af ec e5 a9 d0 73 24 c0 57 24 0d c6 d2 30 18 c0
       -10.226201352421723 -6.04767903762066
0007d0 33 45 86 65 33 fd 2b c0 94 50 25 fe ce af e0 bf
       -13.994532749786776 -0.5214610065254583
0007e0 55 06 60 1a e7 b8 26 40 31 9e 72 00 09 96 0d c0
       11.361138176175851 -3.6982593569735163
0007f0 c8 47 66 03 15 3f 19 40 5e 0a 03 60 10 de 1e c0
       6.311603596799564 -7.716859340844705
