ce_results/6x5_grid/10_times/ce_decreasing/best_weights_ce_5.npy (npy, 6528 bytes, 1 tensors)

array f8 [100, 8]
0	0xc015c604e6e88c88	-5.4433780745922675
1	0xbff36eae52e6f184	-1.2145217169155282
2	0xc01c8a5a84946dca	-7.135110923346881
3	0xc02ba3849ae8791e	-13.819371071699205
4	0xbffc1749ed68bb11	-1.755685737017931
5	0x4014df0949490702	5.21780886181091
6	0x4013e9e7835a9028	4.978422214891943
7	0xc02f775ad0c54741	-15.73311474235709
8	0xc01b827235c34519	-6.877388801616029
9	0xc01736d19625fbb2	-5.803533884113607
10	0xc0363ded37556b60	-22.241900881151537
11	0xc0369f8941bb7541	-22.623188122049445
12	0xc02655191da4b500	-11.166207243305053
13	0x4026fd8923f7330d	11.495186923909865
14	0x4028af8f6f0278a8	12.342891186763453
15	0xc015013008d928f0	-5.25115979981841
16	0xc02212aa6285ec93	-9.036456183288726
17	0xbff972627c6d8ddb	-1.5904259548632271
18	0xc03480330e1242f6	-20.500779036959067
19	0xc025befee86a4758	-10.873038542722199
20	0xc02fdc74fadcc5f0	-15.930579986047604
21	0x40108e457b6a00b8	4.1389369281243304
22	0xc003dc34e69e6208	-2.4825227753719936
23	0xc0227ddedb16eca7	-9.245840879963295
24	0xc02a43976c5d316a	-13.132014643074132
25	0xc022bfa68d417955	-9.374317564241816
26	0xc03139ba6534b328	-17.225500417104882
27	0x4031ccaaafc53a86	17.799479470874324
28	0xc00dd73613103cb6	-3.7300836076097665
29	0xc001479c96eb9c30	-2.159966639580965
30	0xbff381c327297758	-1.2191802530064333
31	0xc02bb36a52aea2f4	-13.850420554941117
32	0xc0311540a6ae2f04	-17.083017747426325
33	0xc0212279b70c3410	-8.567334861983937
34	0xc0300ab2b4728285	-16.041789319950585
35	0x4036a33d1aa45a34	22.63765112411984
36	0xc00cc375479d7bee	-3.595438537114652
37	0x401623eec8a266e7	5.535090575134496
38	0xc0081c2ed0a8b294	-3.013761167667619
39	0xc035dc9a8b131029	-21.86173314299973
40	0xc028bfa0df48e16e	-12.37427423252731
41	0xc01e39de29de6e83	-7.556511549187806
42	0xc030edf152c190d9	-16.929463550812986
43	0x402247fb5e06e214	9.140589655246949
44	0xbff88086f8b4e31f	-1.5313787188626475
45	0xc00ef4031cae1b4e	-3.869146560729326
46	0xbff23e3f86abc3aa	-1.1401973019203333
47	0xc025f0c491377850	-10.970249689122426
48	0xc02c2ef539150d09	-14.091714652843182
49	0xc010b0e326b2ecd4	-4.172741512938234
50	0xc0239ec1ccbe1766	-9.81007232494785
51	0x4009a1a413fc1e17	3.2039262353243987
52	0xc002582d0ddc5ad4	-2.293054683959193
53	0xc020f86e0212e5a9	-8.485214295202995
54	0xbff8b175a94acf8a	-1.543325101182719
55	0xc02bf2c7f05fb6ee	-13.974181663211734
56	0xc0301f641d6ee934	-16.122621383264416
57	0xc0234d9e2314c74c	-9.651597114836157
58	0xc0257dc1ad617da5	-10.745618265295727
59	0x4012c0218f716ead	4.687628022478447
60	0xbfd551a7c6a29624	-0.33310884855231593
61	0xc00ec98b2eaef0d6	-3.8484100005281148
62	0x3fa2410c93938d80	0.035652535452551426
63	0xc02375fbac485fe5	-9.730435737452305
64	0xc01ee8bc20b1383f	-7.727280150238641
65	0xbfe41ce56c7a8298	-0.6285273665162832
66	0xc02104d3375866c9	-8.509423951665115
67	0x40044bf2d0c80de8	2.537084227662252
68	0xc009c46f6ffa5fc0	-3.2209156749995316
69	0x4001c8ee3011451a	2.223110557105099
70	0xc01b6f1a2e180cfe	-6.858498306482259
71	0xc019cac55786fbde	-6.4480184246194465
72	0xc02b0af87ab598e5	-13.521426996867783
73	0xc0238268c051c221	-9.754705438595069
74	0xc02faaf7ed9e943f	-15.83392279206066
75	0x40084d2244e064c5	3.0376630192737104
76	0x4018967e5e6c308f	6.146966433862089
77	0xbfe5047e3a098184	-0.6567984708345169
78	0xbff3ae61865b49cc	-1.2300734756760106
79	0xc015206685a56400	-5.281641090602534
80	0xc02ce558d582ec1a	-14.447943374854777
81	0xc00dd57303f35274	-3.72922328077612
82	0xc03151ef0c0965f7	-17.320053818029887
83	0x4017c6017052c220	5.9433648634444864
84	0xc004d0441433cfdb	-2.601692350226569
85	0xc0133698ac18ff4c	-4.803316773439132
86	0xc00703e61c908553	-2.8769037467579124
87	0xc01b2669235a9ac7	-6.787510445027414
88	0xc0341e0063bf5495	-20.117193445407413
89	0xc01485adc9ad9550	-5.130545760364228
90	0xc02ad21cb0eb688c	-13.410375145660758
91	0x402916c68a459c4c	12.54448349094141
92	0x400c74bce276a0d0	3.557000893826718
93	0x401303468a5846f3	4.753198777807245
94	0x3ff997b07233769e	1.5995335064866718
95	0xc007cce13b31e1e0	-2.9750389694784047
96	0xc01885dd0bceae23	-6.1307260365388485
97	0xc00f9c800bdd03cc	-3.9514161040137648
98	0xc0358dea8874c4f4	-21.554359940059797
99	0x400912dde90eb58a	3.134212322961223
100	0xc01fdf1158091e5f	-7.967839599186475
101	0xc00a3c3addbfee73	-3.279409153384955
102	0xc011b4158331130a	-4.425863313551199
103	0xc02de31ee55859c2	-14.94359509185313
104	0x3fddb7e32ea780a0	0.4643485980614148
105	0xbffc8e089805cd2a	-1.7846761644730784
106	0xc036a80384461d12	-22.656303660504882
107	0x40129acf44a64529	4.6511812902911425
108	0xc029e27cca8fe62c	-12.942358331743058
109	0x400b27bd4d597f78	3.39440403394104
110	0xc026749e5e32e71e	-11.227770751680108
111	0xc03220924766eb8d	-18.127232039095862
112	0xc022d5c168233487	-9.417491201684483
113	0xc0232abbcb36a9a7	-9.583464003012365
114	0xc034043cc6503e16	-20.016552347746334
115	0x40037714f9c0ea54	2.4331454765318004
116	0xbfd0991a6eb862d8	-0.2593446809055826
117	0xc00dcb2dda1d45f6	-3.7242085495170114
118	0xc0006e502900e7a8	-2.0538638308907657
119	0xc0268eab3ff0c010	-11.278650282038171
120	0xc018e64dec604bba	-6.2249066289686485
121	0xc00b484481d1470d	-3.4102869169227064
122	0xc0300978b10176aa	-16.03699785505038
123	0x4010ca70419d8a6e	4.197693848839306
124	0x4004a881924a7d2d	2.5822783879263143
125	0x400f2ff9b126f1b1	3.8984254684457587
126	0x400d0b274e1757e5	3.630446062171347
127	0xc027e91a0acbdb03	-11.955276811012942
128	0xc02b9c6b639d41d6	-13.805506813951904
129	0xc021e36d6fcf9489	-8.944194311227209
130	0xc0304fb05310e3b9	-16.31128424799292
131	0x4007c51fb0f69207	2.971251852535946
132	0x4000f59618c844b1	2.1199151931874316
133	0xbfe217f0128d020e	-0.5654220926590499
134	0xbff093a852d51dc9	-1.0360491977352118
135	0xc023e5d3cf033bd4	-9.94888159670328
136	0xc02a49c0c507083e	-13.144048840626166
137	0xc01a5f5c0d671e11	-6.593124589365758
138	0xc02b6b81d2c61c76	-13.709974848445409
139	0x401420d2c4b5e968	5.032054017642032
140	0xc006a903902ae448	-2.832526327427818
141	0xc0183136a305ba46	-6.04805998537501
142	0xc018ebb7d59fd7fa	-6.230193460351069
143	0xc01a8ba7674bdff8	-6.6363807811794615
144	0xc02f4642c81b980a	-15.637228253715893
145	0xc0107cb0e4b16df0	-4.121768544511255
146	0xc0227adca8a06e0e	-9.239964742263535
147	0x4021d2763489140f	8.911058084233472
148	0xbffc7956c57c2826	-1.7796237673051194
149	0x3fc5cfccc9fd66a4	0.17040405142579573
150	0xc000ebc6a93e8f31	-2.115125009748134
151	0xc01a0d8624c7f836	-6.513207030015158
152	0xc020a21e447e9f3a	-8.316637173134598
153	0xc0171ebd67952592	-5.78001939628429
154	0xc0324aa41bb41868	-18.291566592663372
155	0x401fda63441f1842	7.963269295118211
156	0xc00e4d9371913842	-3.787878882641082
157	0xc01e830009d27c9a	-7.627929833862391
158	0x4001b4225f0e0ea0	2.2129561830677886
159	0xc01967dd626c2832	-6.351430452205067
160	0xc01fa6e8d40cc5da	-7.912997544555276
161	0xc0251af4ebec511f	-10.552649853322292
162	0xc028f30c2f71ebbb	-12.474702341705656
163	0x400022cd49055bf5	2.0169931130180836
164	0xc01703028e8fa8f6	-5.752939441221534
165	0xc010de792b7d6c07	-4.217259101419592
166	0x3fe987e70ed7f350	0.7978396692193233
167	0xc01901f95bbde5fb	-6.251927789178349
168	0xc001feaea582a634	-2.249356549310301
169	0xc01b0e610bfd8f22	-6.764042079306622
170	0xc032199b721ace0f	-18.100028163475198
171	0x402337c592b4533a	9.60892923785433
172	0xc014752751370af2	-5.114407795891326
173	0xc020056b20812438	-8.010582938923207
174	0x40067f958c09b315	2.8122969570598664
175	0xc00b07713301da50	-3.3786338791790413
176	0xc025e8bd77b23a5a	-10.954570522791233
177	0xc026b82052c2fa49	-11.359621607113825
178	0xc027d7e0680e3596	-11.921633960470711
179	0x3fec19c24f71180c	0.8781444121930249
180	0xc013f45d5e4b7d7a	-4.98863742194896
181	0xc019cccdc2c06c87	-6.450003664965272
182	0xbff2d2a40a023a4d	-1.1764259711232115
183	0xc026800d64041fc9	-11.25010216284126
184	0xc020b880d3c9e524	-8.360357874293705
185	0xc0190c157f8be2c0	-6.261800759232472
186	0xc02e59e36994eb66	-15.175563144138959
187	0xbff9d20204204dfb	-1.613771453969888
188	0xc01b5d3ef0c31c94	-6.841060411366147
189	0xc024e24e34b0244e	-10.442002912999808
190	0xc00556ff671c264f	-2.667479329630431
191	0xc02109fe83e2db7c	-8.519519921724843
192	0xc02bc08f097bf860	-13.876091286070903
193	0xc00f1f091694ce83	-3.890154053131313
194	0xc028a86a4f63972a	-12.32893608179764
195	0x3ff8358c4075465b	1.5130732076544493
196	0xc00abbdd8abe0788	-3.341731151508558
197	0xc0229af9dc143a4d	-9.302687528104025
198	0xbfe7b825eccd5be3	-0.7412290215532916
199	0xc0279ffe47d582ad	-11.812486882031715
200	0xc02aa2c116ece776	-13.317879406374896
201	0xc021ba140a4f7c07	-8.86343414516706
202	0xc03037822c860c2c	-16.21683004639287
203	0x4008466b8d904fb8	3.0343848285355897
204	0xc00fcf6cde2f0c2e	-3.976281867800501
205	0xc010fd4c2109bb3d	-4.247360721796949
206	0xc010fd72e33e1963	-4.2475085741665195
207	0xc01b1523e1039574	-6.77064467987417
208	0xc02d69baa8bd5df8	-14.706502221218201
209	0xc01d45d957372da4	-7.318211901419463
210	0xc02989185dd5727c	-12.767764026933257
211	0x4006025b8052def6	2.751151087311764
212	0xc016831c3081c9c3	-5.628037221833838
213	0xc0133e4fddf908b8	-4.810851543736298
214	0xbff955f9b48de8f6	-1.5834900906471012
215	0xc028ecfb110bd0a6	-12.462852986042275
216	0xc0331bea62c6f7fd	-19.109045194221824
217	0xc01d2e3ea769c339	-7.295160880880581
218	0xc031ab6f6deaf378	-17.669669027196022
219	0x401a014924a556b0	6.501255581466168
220	0x4017a76753629b03	5.913480093854335
221	0x3fe4fa2c58b5abe0	0.6555387241945674
222	0xc01163202d8441ae	-4.346802436063099
223	0xc01835a03447064f	-6.05236894305706
224	0xc02748ad50b79ed6	-11.641947290815931
225	0xc01ade31d56cac4a	-6.716986975438951
226	0xc03142c33ecdd4ae	-17.260791707278877
227	0x40040f53ba64547e	2.507483917414503
228	0xc009491e7fa2a7d1	-3.1607027026666192
229	0xc020fc8adb94c99f	-8.49324690047507
230	0x3ff4d3e69664f8e0	1.3017335772306566
231	0xc003390429ecef6b	-2.4028399730140584
232	0xc027ec349ceaad87	-11.961338904998014
233	0xc010a8ea1823efec	-4.164955498879845
234	0xc02c3e9020afa39f	-14.122193356933904
235	0x400583ae381b01d0	2.6892971404306323
236	0x400fba25193b4268	3.9658910723886045
237	0xc01e760886852309	-7.61526689708331
238	0xc00d676902fc7d92	-3.6754932626060475
239	0x3feb45711297c768	0.8522267687933267
240	0xc02357478ff2ac6c	-9.670467851994736
241	0xc01e8b9b56b64de9	-7.6363347576875436
242	0xc0297210ee391cf0	-12.72278541991406
243	0x4012df0534fa1ebc	4.717793300405614
244	0xc017c5eb8d005f51	-5.943281367442823
245	0xc00d4bf5e86f8fbd	-3.662090125946604
246	0xc00a92363687dac1	-3.3213924656114107
247	0xc0010b46b64630f6	-2.1305059662028
248	0xc02a329083ec07fb	-13.098758814394378
249	0xc0234a1af8750ffc	-9.644737018861626
250	0xc03052468011e216	-16.32138824879265
251	0x401a2ebb1d56f8d1	6.54563566058478
252	0xc00f22bde6a2c2e1	-3.8919637697621146
253	0xc018da3ad43e696b	-6.213115040120424
254	0x3fcb045dfbd45330	0.21107077404362817
255	0xc003aa3299254fe3	-2.4581043209563957
