ce_results/6x5_grid/10_times/ce_decreasing/best_weights_ce_6.npy (npy, 6528 bytes, 1 tensors)

array f8 [100, 8]
-12.945650113773311 -8.059156521981016 -3.7948812609513483 1.3170960402314722 6.283021834640007 0.4258171492927948 6.920062736287358 -4.1438211969388945
-4.360808910726728 -9.549851781483795 -11.35596660596478 -8.093791610850209 5.741678879078046 -4.106382780855604 16.128830744485242 -8.191422923537168
-20.818114873275018 -20.238116962655816 -9.689715706743929 -6.354028489201841 -4.321379814623304 -18.71502756103495 4.556977164960912 -0.8709166010324099
-10.545215261196123 -10.68086937170402 -4.661644136789853 4.753961101181005 -6.542148172579026 -4.037263862243946 -6.456181133930094 -7.663681171650251
-12.677020849499783 -11.037160758842806 -12.866079630137618 -6.504051039605206 -7.060565095889235 -13.945918893144214 11.46422817903795 -8.838584451494096
-9.938863784847886 -7.4822967679983 -14.09963962082289 -0.5022835524710489 6.438400457754695 -6.704527871297838 7.308743138698266 -4.274008021059523
-20.049033700771616 -5.3747145120569915 -14.757350532492659 9.854389460305415 3.6574483069264128 -11.036307554076423 10.566239711655118 -5.29116324624327
-8.168075718112556 -12.099364287799137 -18.09021084877832 -13.787560106752704 -0.8338396827845478 -13.91150909458461 3.9741070611315283 0.24073650704700444
-10.827443319378483 -9.658843978127514 -13.08393049967805 1.5900662016996332 6.2299878509811535 0.23080256756966921 -4.518201549784882 -5.474541687477608
-6.374511321875849 -5.960299291976511 -9.776397159107626 -0.37421387964503305 -5.150402854635232 0.035580695036181886 0.672742243156288 -4.3322231429244304
-9.388482532849924 -4.755246217017451 -13.617512987931669 -0.06407612366632431 -5.508680121342484 5.841712438868154 6.332205453938942 -4.219369759288162
-10.823919096211496 -8.58199249459284 -8.312741903944458 4.428769423931014 1.63811524979162 -5.811343461762276 -2.5719337941680083 -2.2726820562250145
-14.644713747218354 -7.847868682487154 -8.60141895079151 -4.453069039410691 -0.18821461189598268 -1.2958964855779427 -7.617739359231331 0.21001276432713745
-11.957989002048784 0.4837484957045888 -11.426770214752414 -0.19018612157200865 -6.196675350984271 0.07981181820187855 -6.650757049998284 -4.042583619001764
-9.049707380857184 -5.745512818696201 -7.182892751563419 -4.5735353707631585 -1.4847540057636295 -1.9002964109279334 -0.37044300657280815 -9.036717836464572
-13.109556656663074 -10.16807891520488 -8.927941403796284 1.0594219134708114 -0.9793705365854533 -2.9519579387440897 2.091174593824432 -3.452225944926163
-14.70207793643296 -5.038896730159986 -17.809378354683858 -2.8296966266642216 11.788537737047182 -10.778194511688271 -0.26597866709254525 -8.516374731488481
-17.32563127042135 -6.0342815864686585 -11.149747731683057 3.5850019448305197 3.428720469158837 6.059261165360892 -3.520126772595086 -5.592956597264837
-18.605408186114687 -15.069747163182148 -21.108603070843035 -4.666427103690827 6.584288354233961 -2.471184899958559 -1.5580010708993535 -6.562234582711632
-15.440621295167142 -12.31972782107525 -19.28952591809578 -0.04656843762874585 11.764362506331842 -8.431380294964322 -0.388212610134814 -8.767608772614388
-17.79750930283988 -9.40875632251448 -16.765621956179658 -1.9695048547621217 6.908596745435004 -1.9223345721358607 -6.370487988867145 -6.142997345448472
-16.01013827481356 -8.444248156622626 -13.570988285250104 -1.098408890389066 9.590839245114324 -6.144545289943066 -0.579109961199217 -10.533322201273313
-15.453384760083415 -10.660931965035978 -17.983173810743757 -6.209753054260952 -1.7699626918097777 10.92605856322361 -9.53610402889417 -6.641602645803581
-18.486134966170983 -8.94261242505985 -14.420509109941204 3.1170576705672364 3.4519612468068734 3.020253639275153 -1.4451800917264475 -9.030921793988876
-12.577962941146321 -5.273700702388127 -8.701308061391517 -1.940344185450215 1.8000807152296379 -0.24478790922916582 -6.483109633320507 -7.831722628794616
-11.0457718225498 -3.534191971964912 -9.200024613417497 0.20644537683871445 1.2600147921059321 -1.5584683169658786 -6.542410396368294 -12.488519955620376
-11.938479916520112 -10.206993098101432 -17.340072888681245 -8.74842446035207 2.654701087929467 4.483338579940763 -6.886748519527482 -8.918645888517533
-14.84280781079644 -10.411078345467669 -19.73536133137295 -7.87853199334725 0.01829351029835724 1.7856245622467282 -7.106954454079752 -1.7719728371573957
-3.4839394710302383 -10.266765634082379 -20.112801713612917 -11.255352619314209 -0.8805584096643342 1.75247311187428 -6.187223524864681 -6.593411675097582
-8.053697647721405 -8.33703015809011 -12.876887268610197 -2.9311181830128072 -1.3370458475603577 7.754340272559977 -9.67324520044625 -8.06786214501995
-22.882602403098467 -8.630471101344916 -14.735070149269447 -7.598568890102026 4.430713420490646 5.4238388499870664 -4.82498884068291 -2.2792015658252183
-10.631056910809043 -6.123392561959707 -12.691248890820969 -2.3820601071263146 2.8964475141702133 3.586224686051346 -5.246980377063231 -9.915281197086559
00000000: e83a 7040 2ce4 29c0 d481 7ec3 491e 20c0
00000010: 0dea dfb4 ea5b 0ec0 aec3 274c d312 f53f
00000020: bc54 cf79 d021 1940 d676 9292 9640 db3f
00000030: 6a7d 0aed 24ae 1b40 e84b 25dd 4593 10c0
00000040: ecb4 1ee4 7771 11c0 903d 362c 8619 23c0
00000050: 772c 4641 41b6 26c0 4b7b 3a74 0530 20c0
00000060: ba18 07ab 7af7 1640 8887 929b ef6c 10c0
00000070: 9048 3a0d fb20 3040 fc97 782f 0262 20c0
00000080: 5f16 f1f9 6fd1 34c0 c63a b73b f53c 34c0
00000090: 6201 c86a 2261 23c0 94e5 bb71 866a 19c0
000000a0: 469b 45ca 1749 11c0 3e62 d60b 0cb7 32c0
000000b0: f080 d038 583a 1240 2849 df7d 8cde ebbf
000000c0: 223c 6874 2617 25c0 38a2 08e9 9a5c 25c0
000000d0: 0869 640a 86a5 12c0 401d 0061 0e04 1340
000000e0: 9840 fbe3 282b 1ac0 3fa4 767f 2826 10c0
000000f0: b720 ad25 21d3 19c0 cdd5 7c09 9ca7 1ec0
00000100: 989f 0e7a a25a 29c0 4ad9 27bc 0613 26c0
00000110: 7f58 0eca 6ebb 29c0 057a aaf4 2504 1ac0
00000120: 547e c8c6 043e 1cc0 2272 2d7b 4fe4 2bc0
00000130: 02b3 dd50 afed 2640 d633 f4f0 5aad 21c0
00000140: 12a4 06c1 b2e0 23c0 a913 3634 dfed 1dc0
00000150: eba3 e1f6 0333 2cc0 c2d1 e5f4 b412 e0bf
00000160: 6f6e b20c ecc0 1940 fc60 19c1 6fd1 1ac0
00000170: 354b 4e29 273c 1d40 592b 058f 9518 11c0
00000180: 4837 fd78 8d0c 34c0 4a7c 3a29 b57f 15c0
00000190: 0c54 f172 c383 2dc0 211e 0c89 72b5 2340
000001a0: e279 0842 7442 0d40 44b6 5ae7 9612 26c0
000001b0: aa82 e62b ea21 2540 eea5 b1b2 262a 15c0
000001c0: 1d17 4105 0e56 20c0 aaf9 3ce0 df32 28c0
000001d0: 4e3f e50e 1817 32c0 3646 0c14 3b93 2bc0
000001e0: 2c55 f58e d0ae eabf b47e ee51 b1d2 2bc0
000001f0: 94e6 92a4 f8ca 0f40 202e 5c30 74d0 ce3f
00000200: 6d0c 98a6 a6a7 25c0 cc72 76ff 5351 23c0
00000210: 2282 3ef0 f82a 2ac0 d865 ec41 e970 f93f
00000220: f8c3 69ef 81eb 1840 20b4 c543 f08a cd3f
00000230: 1640 546d a312 12c0 4c38 9141 eee5 15c0
00000240: 06c1 5de5 7f7f 19c0 f0a4 95b2 58d7 17c0
00000250: 2d26 aeed 838d 23c0 7a38 b2c5 1ef3 d7bf
00000260: 9088 b734 039a 14c0 8044 1903 a237 a23f
00000270: 54ce 9fbd 1a87 e53f cc56 b74d 3254 11c0
00000280: ba50 bb2e e7c6 22c0 1812 aa43 5f05 13c0
00000290: 240b 90a9 2a3c 2bc0 c0ef 99f7 4a67 b0bf
000002a0: 452a 1571 e308 16c0 ec4c 96dd e95d 1740
000002b0: e2e1 a0aa 2d54 1940 067f 5777 a2e0 10c0
000002c0: 778e 49b9 d8a5 25c0 6096 95eb fa29 21c0
000002d0: 790f f3b4 1fa0 20c0 de3b f554 0fb7 1140
000002e0: 2bf1 0e56 b835 fa3f 9f5e 08d2 d03e 17c0
000002f0: 2a6e 6b06 5293 04c0 2e8a 0dee 732e 02c0
00000300: 3c2b 97eb 174a 2dc0 f956 1ab0 3764 1fc0
00000310: 37b0 492f ed33 21c0 6e65 8c54 f1cf 11c0
00000320: 717d 5c99 6a17 c8bf 06f0 08f4 fdbb f4bf
00000330: fa66 a5aa 9078 1ec0 c088 43c1 b2e1 ca3f
00000340: 5474 d388 7dea 27c0 0096 2240 bcf5 de3f
00000350: 7b89 26a0 81da 26c0 9005 27d2 0458 c8bf
00000360: 87a0 6143 65c9 18c0 e0e8 021d 8c6e b43f
00000370: 4989 5d0e 609a 1ac0 e4d4 4b0a 9b2b 10c0
00000380: 874d ee3e 7319 22c0 2332 5cb6 67fb 16c0
00000390: b58f ca3c 48bb 1cc0 a61b 32db 4c4b 12c0
000003a0: adc1 956a 8dc1 f7bf 3444 9a35 9d67 febf
000003b0: a4c6 9095 56b5 d7bf 2697 25ae cc12 22c0
000003c0: a0da 62cf 1738 2ac0 7ce7 8770 0e56 24c0
000003d0: 99d1 bb22 1bdb 21c0 b45d 7064 64f3 f03f
000003e0: a49d 29e1 0057 efbf 6696 b01f 9c9d 07c0
000003f0: bc9d d5be b9ba 0040 71e2 dea2 289e 0bc0
00000400: 0a72 60c2 7667 2dc0 7bd5 5f8b d427 14c0
00000410: 1c75 7b6b 33cf 31c0 adfe 28fc 37a3 06c0
00000420: 1a8f e037 bb93 2740 7141 d382 6f8e 25c0
00000430: 6027 2663 cb05 d1bf 9772 d044 6208 21c0
00000440: bf03 2992 5c53 31c0 98f3 52b6 1a23 18c0
00000450: 3475 14bc ab4c 26c0 d825 e97f 15ae 0c40
00000460: c94d 51ff 046e 0b40 6e97 7cf5 ae3c 1840
00000470: 348f b039 3829 0cc0 b7cc a403 305f 16c0
00000480: e017 e807 fc9a 32c0 53b6 71e6 b523 2ec0
00000490: 1984 2d69 cd1b 35c0 9614 dedd 6baa 12c0
000004a0: 5f79 b3af 4f56 1a40 4187 bd96 fcc4 03c0
000004b0: ca54 ea87 92ed f8bf e8b4 256c ba3f 1ac0
000004c0: fd53 491d 99e1 2ec0 7247 6e5d b3a3 28c0
000004d0: d590 dd5e 1e4a 33c0 c055 4879 d1d7 a7bf
000004e0: bcf7 bd85 5a87 2740 6d05 c6e0 dddc 20c0
000004f0: f01f 1bb4 79d8 d8bf c400 5d04 0489 21c0
00000500: fbf3 d591 29cc 31c0 4177 3a82 48d1 22c0
00000510: 24e4 eecc ffc3 30c0 c243 c885 1783 ffbf
00000520: de94 6b2f 67a2 1b40 e4b2 74e5 e1c1 febf
00000530: 16fb 0e34 617b 19c0 c976 68e5 6d92 18c0
00000540: 19c3 066c 9802 30c0 4301 907e 74e3 20c0
00000550: bd18 9793 5824 2bc0 feb4 5d33 1593 f1bf
00000560: 30eb 457b 822e 2340 9e62 34ae 0394 18c0
00000570: 506e 049d 1188 e2bf 3366 899b 0f11 25c0
00000580: 4b20 1a0c 22e8 2ec0 cc6b adac 6552 25c0
00000590: 9a6d 6347 b1fb 31c0 ca25 3181 c9d6 18c0
000005a0: f368 4766 c451 fcbf ca73 1659 24da 2540
000005b0: 67b5 2e3a 7c12 23c0 8903 b348 0091 1ac0
000005c0: 7d25 5557 737c 32c0 e1de 8418 9ee2 21c0
000005d0: 2ebc 55f8 4cd7 2cc0 64a8 96ee bbef 0840
000005e0: 5ec2 b0db 9d9d 0b40 7e7e 72bd 7a29 0840
000005f0: d8b9 ec28 751f f7bf edd4 3bfb d40f 22c0
00000600: fe0b 35c2 ea27 29c0 d198 36ff 4418 15c0
00000610: 0932 a8d9 1167 21c0 01e1 3758 a60b ffbf
00000620: 3525 a16f 21cd fc3f d038 4cd0 3555 cfbf
00000630: fdf9 ad4a b4ee 19c0 6810 c818 af53 1fc0
00000640: 02dc 8167 6f17 26c0 1800 cb70 0646 0cc0
00000650: e00b 4aa0 6966 22c0 e061 f756 cd6c ca3f
00000660: b523 4945 0529 f43f 9f87 5379 7cef f8bf
00000670: 1da6 85a1 6d2b 1ac0 70aa a149 1ffa 28c0
00000680: 3ad0 8a70 80e0 27c0 ceaf d5ff fa69 24c0
00000690: 6724 4f04 0f57 31c0 287a a97d 317f 21c0
000006a0: 5f80 8aec d33c 0540 6ff6 064f f0ee 1140
000006b0: 7b96 cccd 078c 1bc0 4993 ffc0 58d6 21c0
000006c0: 3e5e 6081 84af 2dc0 3ec1 63dc 78d2 24c0
000006d0: 66fd e4a3 40bc 33c0 1eaa 0fe4 9d83 1fc0
000006e0: 0089 d7b1 88bb 923f 528b 9c0f eb91 fc3f
000006f0: 7cbc e977 856d 1cc0 90dc 8f30 005a fcbf
00000700: 1c8c 4aa8 1bdf 0bc0 3a29 5481 9588 24c0
00000710: 76e6 b692 e01c 34c0 10ce 1994 bd82 26c0
00000720: 183c 77d4 882d ecbf fde8 e93e 210a fc3f
00000730: b457 1186 b7bf 18c0 4d6f 664f a75f 1ac0
00000740: cfab 1142 7e1b 20c0 8586 8537 8fac 20c0
00000750: 4ceb 395e f7c0 29c0 f201 0617 ee72 07c0
00000760: b063 c82f 8a64 f5bf a6cd c2c6 7104 1f40
00000770: 1236 4c98 b358 23c0 83fe bad3 be22 20c0
00000780: cead 283b f2e1 36c0 f4b2 b21b cd42 21c0
00000790: 98c1 561d 5b78 2dc0 9c90 3d3e ef64 1ec0
000007a0: 8ed2 5bf0 0cb9 1140 f3df bdcf 02b2 1540
000007b0: 3531 e9df c94c 13c0 c0b0 d107 ce3b 02c0
000007c0: e4ad 33e4 1943 25c0 13bf a89e 5a7e 18c0
000007d0: d6f1 e65f eb61 29c0 d1b5 8987 750e 03c0
000007e0: 5288 9fac ec2b 0740 5296 7591 96b0 0c40
000007f0: 18f6 886c e8fc 14c0 d142 b0bc 9fd4 23c0
