ce_results/6x5_grid/10_times/ce_decreasing/best_weights_ce_4.npy (npy, 6528 bytes, 1 tensors)

array f8 [100, 8]
00000000: 0dba 9cd7 1d3b 22c0 b3ff 2d3d ef3e 20c0
00000010: 9bac 7ff6 4ba7 2dc0 112c 4069 6b12 35c0
00000020: 2d2a 409d 180e 18c0 3a53 7b42 8975 2640
00000030: 1ed5 002d e2e7 0fc0 25f8 6d17 1347 2c40
00000040: c07b dfe9 0ef1 df3f aa33 34f9 a1eb 0140
00000050: 523c 9758 f1d9 29c0 f4ae 6734 aaa0 2dc0
00000060: b293 d76a fb3c 05c0 bc20 818e 8420 e8bf
00000070: 317d 8cf5 3744 1440 c743 f9a2 4b5d 1cc0
00000080: e70b 2dad 44f6 00c0 72ae 92a1 1633 23c0
00000090: 18ef 972b 445d 30c0 df81 f81c 4c27 24c0
000000a0: b19d d1f5 5366 2140 c166 ba51 2985 3140
000000b0: 5dae f972 4b4d 20c0 5091 cb91 4ca9 2140
000000c0: c250 762c 1076 20c0 04ef cd3b 8dfd 0fc0
000000d0: 8c7d d6c5 7f3d 13c0 3acb bf97 6dbd eb3f
000000e0: 055c 1aaa 9d0a 0040 f8d4 dff7 4432 e83f
000000f0: be98 de1f ba49 29c0 68cd 7b8f 5df6 11c0
00000100: 91f8 37f9 5751 10c0 681c 047b fd80 21c0
00000110: fca7 ce14 a5f8 23c0 f899 969a f85c f5bf
00000120: 3fab 2fc0 3847 0240 38fc 510f b7bf e63f
00000130: 0973 15ec fcd0 09c0 ff19 39fa fb6c 0dc0
00000140: 428c e0b2 4b33 1240 c232 46ae b7a2 0040
00000150: 0cc6 c86c 977e 39c0 0c4d 7abd 4c41 11c0
00000160: dea4 d7fa f21c 3040 1e90 e114 75aa 2f40
00000170: ac72 ef75 3a5a 0540 796c 7880 29c2 33c0
00000180: 677f 6bf3 3a45 0dc0 b634 1363 c284 1fc0
00000190: fabb fa2d d189 30c0 98cb ecac a36a d53f
000001a0: d959 6223 0fff 1840 f68c 5cab c6c3 04c0
000001b0: 7ff3 fb03 81e6 efbf 1c5d c6eb 8d23 02c0
000001c0: 6ea4 7edd 075a 0a40 c4a7 fe9a 4c30 20c0
000001d0: 6ef1 0386 8872 36c0 9bc9 961f 7aaa 21c0
000001e0: 7bed 5b7c 4f68 2540 0a72 f053 fc9e 1740
000001f0: caaa 5ef2 65e9 0640 acbe 6ac4 b110 11c0
00000200: 1045 b082 53b4 cebf acb2 2a84 86a6 00c0
00000210: d641 022b b3ae 34c0 df85 d045 c767 1ec0
00000220: 6c05 310c 6987 2940 7ae0 2b76 622c 1940
00000230: a869 2c10 8d4a c33f a2f1 5e8e 497d 29c0
00000240: 9ac0 cb70 7907 13c0 129a 2a1b f5ab 18c0
00000250: d552 cb7d 3529 36c0 853d 9e33 ac4d 1ec0
00000260: d85d e00f 7861 1b40 28d1 4ee2 0834 ff3f
00000270: b99e 9517 184c f13f c0f7 7696 cc1f 30c0
00000280: 2a6c d140 a5f9 0bc0 1e65 3e30 298b 1bc0
00000290: 8583 907a 88d1 37c0 4cd3 d73c 2a47 1cc0
000002a0: 48ed 3421 8ab8 1f40 d6eb 6f38 d5af 1e40
000002b0: e40b 6d1e 2a7a ecbf 7e36 aec2 58c7 1ec0
000002c0: 16ea 1f4a 85d6 12c0 0087 e06d 92c2 20c0
000002d0: c6f9 24e1 f5dc 34c0 4906 164c bf7e 14c0
000002e0: 7837 b51a 76dc 1540 305f 8395 dcba d6bf
000002f0: 14bb 51b1 ec40 de3f a060 f72e a963 25c0
00000300: 2e90 b7ce a73f e8bf d459 e91b f1ce 20c0
00000310: db15 9203 eb8d 38c0 d42f 8c6d 0463 1ec0
00000320: c196 cd64 0d77 2640 68de b67b 01af 2940
00000330: f972 17b6 0b6b 2f40 7e96 49b3 f90c 13c0
00000340: a92c 0344 7fa0 00c0 7678 c8fc a415 03c0
00000350: e931 a612 daa5 37c0 a662 7e41 5fa5 22c0
00000360: 132d 4a48 0d3a 2040 e0c8 2db5 81af 1e40
00000370: 5000 4e59 208a f5bf b021 405e 7a52 27c0
00000380: 490f fb6c 23ad 17c0 7e1f f033 d29c 21c0
00000390: 888f 2fa8 76b5 37c0 740f 8b82 094b 1fc0
000003a0: 014b 6caa 6d25 2940 3379 aa5c 030c 1b40
000003b0: f0d6 f14e 1e1d 08c0 ff67 0821 fb23 27c0
000003c0: 00f5 7293 8df4 71bf b409 c188 1f6f 02c0
000003d0: 2e11 e7a8 1ed9 3bc0 1648 1ef7 59f6 20c0
000003e0: aec3 39c9 4c34 1a40 3bf3 ca1a 368a 1240
000003f0: 2e56 0d23 c31e fe3f fe04 d4e1 8887 0dc0
00000400: 7647 2b58 c6c8 25c0 7499 3b4b b792 28c0
00000410: 9b9e 9533 4cb5 38c0 b48c 78b8 bbfd 25c0
00000420: c8d0 efbb 72ac 3240 dafb eb3e 6703 2440
00000430: e91c 4e27 fb64 1540 a050 7a18 69c8 11c0
00000440: 22a7 c806 7f27 fc3f 98f9 53ad 3ed7 02c0
00000450: d33d 55ac f2a9 3bc0 50e6 2735 3da9 21c0
00000460: 0dbe bda3 9e2d 1f40 2edf b4d9 1261 0340
00000470: b294 d450 2f1a 1140 5984 6d88 f7c4 0bc0
00000480: f74e 5a4e d183 0140 a85e b3a9 30e3 ecbf
00000490: 30d9 b93d 0e06 3ec0 919e f70f cd89 22c0
000004a0: 8719 4919 7751 2140 a0c2 dd5f f2c8 1a40
000004b0: 5854 7c24 2bf4 1a40 c0e0 e0ca c9c6 16c0
000004c0: 5b88 3eff 3865 0c40 5a02 b500 154a 12c0
000004d0: b549 cdfd 2e16 42c0 9e7d 7fa0 364c 27c0
000004e0: 4ef9 458d 4160 f43f e87b f356 5e2a 05c0
000004f0: c030 1482 ce7c f83f fe84 88cf eb07 23c0
00000500: 9cb2 b887 b0da ebbf 8b56 089d 39c4 1fc0
00000510: 46c1 f0d5 bf5f 40c0 684e 4231 4607 25c0
00000520: 506d e2c3 9121 f83f 6a17 04e7 06ac df3f
00000530: c8c4 8fc4 b6d9 cabf 0fd5 11b7 1a09 21c0
00000540: f010 042b 0e32 d93f a05d 73ab 2838 c4bf
00000550: c91a eea1 0fac 3ac0 29af 50ed 0e9d 27c0
00000560: 10dc d6bb 45f0 d6bf 3e68 18a1 f20e f43f
00000570: f057 e152 d17e c5bf 3ae4 4380 d477 1fc0
00000580: 351d 480e b272 01c0 48dc 24c1 c834 1bc0
00000590: 79d4 fc23 6eba 32c0 9423 6044 2938 19c0
000005a0: d808 fe40 eaff 2540 b09c e604 6ad6 eabf
000005b0: c835 a850 a7f8 0340 14fa a469 5318 0bc0
000005c0: 149b 5f59 baa1 d63f 21d6 b863 7702 0ac0
000005d0: 46c5 e1ac ce59 37c0 dd73 b778 0325 28c0
000005e0: 4242 cb21 85f6 1140 1e1c 58a8 dff8 fd3f
000005f0: 809c 9c25 0626 a5bf f3e4 0d1b 4835 0cc0
00000600: 9d9b b66a 7bc0 0940 71a6 753f 2515 06c0
00000610: 9c5b 0692 e5c4 36c0 12aa ff32 4556 2ac0
00000620: eb50 8b8e cc15 2940 1f74 c99a 02e1 0c40
00000630: b00c 9706 368f e6bf ff46 b77c 603d 20c0
00000640: b201 3d38 9b1a e0bf 2ede 50e0 982b fdbf
00000650: 6615 833c 52a0 3ac0 d84b 6bd6 a730 fabf
00000660: 8a27 de07 dd00 1e40 5048 62c4 5836 0640
00000670: c0a5 1cf0 08d4 ea3f 5092 ace7 0e58 26c0
00000680: baf1 7732 f742 1b40 6f79 42d8 de1f 05c0
00000690: 9aca f0df d086 3ac0 d68a 03f9 5bed 18c0
000006a0: 40be a12c f278 2b40 c788 cae4 32bf 0440
000006b0: f0f5 642e 9f18 0940 e1ff af5f 7ba7 2ac0
000006c0: 90b2 11a9 9b35 0840 349d a4aa a413 22c0
000006d0: 6f04 0e15 bab1 38c0 da98 2e7e 88f4 22c0
000006e0: 07b2 e42f 0215 2d40 7036 f552 fc5e ed3f
000006f0: 6e62 5b8b 58a8 0b40 4069 2217 6eaf 1fc0
00000700: 4e24 6b63 d317 2140 b8b1 722a 5cba 1040
00000710: 62e3 9d88 8c81 3ac0 b149 6d36 1f35 33c0
00000720: 78a6 5eaf c7e8 2440 4a45 b433 0516 1b40
00000730: 9c6b 1c46 93de 2b40 c460 087c 062b 34c0
00000740: f4ef e17d 7eec 1040 b06e a8ca 77e9 fdbf
00000750: a0cf 8235 cf9a 3bc0 c643 0f8e 8002 23c0
00000760: de4f e0fa 5b63 1d40 f4f2 dd01 8faa f1bf
00000770: 6962 72a3 36d7 2640 ba5e 90d2 7b33 2fc0
00000780: d0d5 d205 a00a e13f 96a4 36ab 6ad9 16c0
00000790: e081 6a56 c89b 38c0 bca3 f033 5d04 18c0
000007a0: 17b9 b630 0f47 2440 d2e0 26d8 66a5 f23f
000007b0: 87cd 4c1e 78ad 1e40 1a41 99cd a30d 14c0
000007c0: 3485 4e34 5122 03c0 c52b fb6d 53f5 20c0
000007d0: a463 4a49 2442 36c0 cb1e 8dfc a60d 1cc0
000007e0: 94d1 7d76 3bdd 2240 68ec c60e 86b0 f13f
000007f0: 4e6a 08f1 d289 2340 2780 a0d9 637e 21c0
-9.115462053186116 -8.122918998589602 -14.826751425824389 -21.07195146385863 -6.013765770951562 11.22956283336099 -3.988224364841371 14.138817531751622
0.4990880283275452 2.240055033593724 -12.925669449292545 -14.813798558861414 -2.6547764155424938 -0.7539694579400229 5.06661971731164 -7.091108843292154
-2.1202481774685 -9.599782036929557 -16.364321446030857 -10.07675257237946 8.69985931571759 17.520161731727743 -8.150966256121302 8.830662304019512
-8.230592145388417 -3.99880453798494 -4.810057727066475 0.8668735469676456 2.005183533601214 0.7561364022537012 -12.643998142168467 -4.490591279918
-4.0794371548091855 -8.751933902980639 -9.98563447020205 -1.335198024616714 2.2847762121722606 0.7109027194236495 -3.227044910816748 -3.678214983813859
4.550093455272021 2.079451905743867 -25.494498061196325 -4.313769302930506 16.113082578322853 15.832924511465588 2.669056817407485 -19.758445767784426
-3.658803846090382 -7.87964777760242 -16.538348077501702 0.33463374983983263 6.249081185224406 -2.5955937755221568 -0.9968876912895296 -2.2673605365668106
3.2939603142045177 -8.094334453187805 -22.44739568325297 -8.832962977558784 10.703731428357733 5.905259429503085 2.863963979257595 -4.266303128256975
-0.23987811929013292 -2.081311256936109 -20.68242138676745 -7.601346102573614 12.764473324760466 6.293344351223022 0.15071261682244352 -12.744701813783482
-4.757299196659142 -6.167927193141184 -22.160972463740865 -7.575852209599707 6.8451845627491466 1.9502037849570772 1.0810776635425283 -16.12421551136481
-3.4968972267065697 -6.885899308975494 -23.81848875072639 -7.069497061417518 7.9302144230417255 7.671711808997278 -0.8899126619584163 -7.69467453182517
-4.709492834279919 -8.380023416193126 -20.863126822974458 -5.123776615947983 5.4652942822557335 -0.3551551303948939 0.4727126819260985 -10.694650142381136
-0.7577704465334187 -8.404183265910355 -24.554367278256773 -7.59669657867558 11.232524061294841 12.841808191368912 15.709073725092354 -4.7626712812103715
-2.0783677400082365 -2.3855685948065526 -23.64785877759451 -9.322992369344615 8.11338258653135 7.67139323322246 -1.3462222565140287 -11.661089845017017
-5.919080450843304 -8.806291220724002 -23.70884181176328 -7.823278465020724 12.573102308005675 6.761731574921487 -3.0142179648927296 -11.570275337482597
-0.004383614569801297 -2.3042593654547208 -27.8481240810517 -8.481155130812152 6.5510741654879165 4.6349720178957865 1.8825103158209333 -3.6911790507152764
-10.892138247759913 -12.286554671311684 -24.70819399264165 -10.995572819438486 18.673625703858107 10.006647077852836 5.348614324705729 -4.445713407960426
1.7596426262848088 -2.355100015759671 -27.66385914879886 -8.830545102234424 7.794550474601704 2.4223992355654422 4.275571120238213 -3.4711752565786296
2.1893640633878664 -0.9027331652132107 -30.023654802201406 -9.269142626740434 8.659111776517205 6.69623708525674 6.738445825661152 -5.69412915227457
3.549425119491429 -4.572345744178699 -36.17330906413864 -11.64885427051814 1.273500015114752 -2.645687751107733 1.530470378990728 -9.51547096768854
-0.8704455042657915 -7.941626027711787 -32.74804186111082 -10.51420740065005 1.5081956531274336 0.494874692536874 -0.20976910207494925 -8.517781945158758
0.39368013573427074 -0.1579638325845112 -26.6721135336218 -11.806754509066723 -0.3584150633209342 1.2536493580614798 -0.16793266817938912 -7.867021564620751
-2.1810036769635652 -6.801547067522797 -18.728243111826007 -6.304844921462877 10.999834090242459 -0.8386736007422737 2.496412878163685 -3.386877847048945
0.3536210892474838 -3.2512042799742322 -23.35080986511209 -12.072292110818973 4.490742233305868 1.8732601715034956 -0.04130572518470732 -3.526016436921617
3.2189853989579675 -2.760324950960062 -22.769127966453752 -13.168496698102022 12.542576269632681 3.609868249199749 -0.7049818161689441 -8.119876763699265
-0.5032478426365314 -1.8231438410129033 -26.626254827502088 -1.6368788123843299 7.500843165334922 2.776536497353881 0.8383831681905392 -11.17198871594988
6.815396107264343 -2.6405617614065515 -26.526624676024404 -6.2317961605465 13.73622264360813 2.5933587908085403 3.1370223640976675 -13.327113142237012
3.026175804951272 -9.038365681261531 -24.694245639726827 -9.477603858173484 14.541032311121866 0.9178449268599262 3.457200134970029 -7.921318398928918
8.546534640148959 4.1819922096732896 -26.506050623461654 -19.207507516557317 10.454648475936878 6.7715042189386825 13.934717360467225 -20.16806769566098
4.230951277651901 -1.8694990078283062 -27.604724258838928 -9.504887046206829 7.347030563298146 -1.10414028863232 11.420338733399335 -15.600554065821928
0.5325470079175663 -5.712320971689357 -24.60852565861012 -6.0042617908119915 10.138787767701201 1.1653812831337302 7.6694035276772246 -5.013320171812916
-2.391756447454691 -8.479152142439384 -22.25836618486541 -7.013332315552996 9.432094290598606 1.10559659740718 9.769187481190922 -8.74685554584728
