ce_results/6x5_grid/10_times/ce_decreasing/best_weights_ce_8.npy (npy, 6528 bytes, 1 tensors)

array f8 [100, 8]
0	0xc032c047d7e11e10	-18.7510962414363
1	0xc010758f8062333d	-4.114805227273618
2	0xc029f9ab1037a5eb	-12.987633234780295
3	0xbfd4b838839a21a8	-0.323743942754414
4	0xc01063625c6bf22c	-4.097054905022144
5	0xc00beb6fd51f7dbc	-3.4899593973384224
6	0x401986f786fabdea	6.381803616575306
7	0xc02b2812212ccf6c	-13.5782633177948
8	0x3ffceb342f4599ac	1.8074228140409145
9	0xc012e9d98c3c4f61	-4.728368941479716
10	0xc0317eafddeed87e	-17.494871016323025
11	0x4023ec4efc40fdac	9.961540110524616
12	0xc0261560c0cde968	-11.04175379289218
13	0xc004ed124bf6087b	-2.615757554479442
14	0x40203455f5cd3734	8.102218323994386
15	0xc020f13b0f24736b	-8.471153710555617
16	0xc0317a0302d1795c	-17.476608444348457
17	0xc002f1aff6aa8acc	-2.3680114050669996
18	0xc028191c2865de04	-12.049042951998679
19	0xc02f8767aabcf574	-15.764462791029224
20	0x400103398288ea02	2.1265745351822725
21	0x40066dede759d9cb	2.8036764215750956
22	0xc01dc7236ddb6166	-7.444471088900491
23	0xbff5de933411a53c	-1.3668396028463823
24	0xc02eab7f2a77c280	-15.33495457374488
25	0xc01054a78ee24b21	-4.082670433580263
26	0xc02a0f37153cae3b	-13.029717124612139
27	0xc02430e5a8a76209	-10.095502157623757
28	0xbfb6ff99fdc8ccc0	-0.08983766981036734
29	0x4012ab2d195b9ce7	4.667164226738556
30	0xc024979db517b267	-10.296125086920439
31	0xc029ab65ef4b75a8	-12.83476207538736
32	0x3ff4dc6f13402240	1.3038168670629062
33	0xbfff03744659a08a	-1.93834331017027
34	0xc03488debf57509d	-20.53464885598861
35	0x40077c19443ccac0	2.9355950671245807
36	0xc02636d26aa86056	-11.107074101499318
37	0x40180f883943efd2	6.015168089648755
38	0x402077e3abf37bde	8.234158872100974
39	0xc0245f949f7fec3d	-10.18668077885206
40	0xc01bdf4ff62b73d6	-6.9680784667989055
41	0xbfff2a62ae8d5960	-1.9478480165904202
42	0xc033a4103365bd37	-19.64087220414987
43	0xbffc669fd5428304	-1.775054772421016
44	0xc027bed030d246d3	-11.8726821190534
45	0x4002f22926f5ddd0	2.3682425540716636
46	0xc02b00c34ffa80c0	-13.501490115479442
47	0xc0136977057a15a7	-4.852993093086673
48	0xc005905781c48a94	-2.695479406176057
49	0xc02764cdb1c0b5de	-11.696881823324414
50	0xc038a055454d5f24	-24.62630112780529
51	0xc00e8162599bead9	-3.8131758690554816
52	0xc0273506047ca074	-11.603561535084943
53	0x400da072464ddc1c	3.703342961550801
54	0xc005219010d9494c	-2.6413880649862786
55	0xc015ae403c72ab12	-5.420166916369242
56	0xc013c87c5adcff64	-4.9457868764291995
57	0xc022c686a37d365c	-9.387745961222372
58	0xc0392d4fab0c0707	-25.176996889530553
59	0xc016a1f97d0416ee	-5.658178285002334
60	0xc0263457458fb210	-11.102228330412828
61	0xbfe59da4cdbfc51c	-0.675493623594011
62	0xc00f210b66c183f0	-3.8911350276762207
63	0xbfd78be875f4de38	-0.36791430968466754
64	0xc011620fa6e95819	-4.345762832634159
65	0xc00290e9cb1843f8	-2.3207584254055256
66	0xc031f9a57549ed03	-17.97518094115095
67	0xc02099436a957b53	-8.299342470881731
68	0xc01f33d8d72c6cbd	-7.800631868444893
69	0x4005418bd8747299	2.6570050154244425
70	0xbffed1318ec9b586	-1.9260726525929797
71	0xc01d2de19cb39e8c	-7.2948059544211326
72	0xbfe9e18b1a329f67	-0.8087821494745925
73	0xbff4898b2b3ad27c	-1.283579987398439
74	0xc0362f04310d2b5c	-22.183657708850077
75	0xbfecc3f0892ce678	-0.8989184073645466
76	0xc0236697ff39cad7	-9.700378394894342
77	0x3ffb29c226ce932a	1.697694923009474
78	0xc012f1b9f30bd585	-4.736060903165144
79	0xc01dc67bd2e114af	-7.443831725108949
80	0x4000374c2c8239c6	2.027000758861706
81	0xc01cf6641db543d1	-7.240616287411243
82	0xc03c7d7617f908ae	-28.49008321599893
83	0xc01027a76c38b2e9	-4.038724604569077
84	0xc02f6b61e56a84e5	-15.709731263401816
85	0x401d3e6f93cf032a	7.310972508916885
86	0xc00f8dce75ede63c	-3.9442414487100717
87	0xc0141b053e5b134d	-5.026387190159608
88	0xc00e87b766334b20	-3.8162677750018617
89	0xc01ac1a3b6c549ea	-6.6891010816493495
90	0xc03735ec42b027c3	-23.21063629913966
91	0xc012ee9246e5bb79	-4.7329798772542455
92	0xc01260927ef7a022	-4.594308837760794
93	0x40170f964ad40ec4	5.7652217571191535
94	0xbff2f19847e6a5aa	-1.1839831169730624
95	0xc00a814f19849324	-3.3131391519149407
96	0xbffcd931a6b20114	-1.8030258666549956
97	0xc0191223eace0fde	-6.267715138270402
98	0xc03244ac91f49b7a	-18.268258211344325
99	0xc014fd135c58ab1b	-5.247144167816056
100	0xc008b8429bdadaba	-3.0899707962192595
101	0x402270a9bff6bbc8	9.22004508864292
102	0x40093f93221b63be	3.1560423531159065
103	0xc01f22bcecf3edfe	-7.783923818958554
104	0xbfe145ad62c46bbe	-0.5397555283592437
105	0xc0095c8a76ffcafc	-3.170185975724392
106	0xc0376dfd97162431	-23.429650729089364
107	0xc018d48081bb5f8a	-6.20752146440635
108	0xc0208edf3875ec6f	-8.279046787638633
109	0x4017b3c1f73df160	5.92554460826463
110	0xbfe5487b4a62772f	-0.6650978520226313
111	0xc013e16afe637412	-4.970134711094049
112	0xc001c1b37680ef1f	-2.219580579576259
113	0xc020d6438af80733	-8.418484061028357
114	0xc036389c739f13d5	-22.22113726266601
115	0x3ff23e5de86a5578	1.1402262762761364
116	0xc021ea4905f1702d	-8.957588372919497
117	0x3ff9ad6bab22063a	1.6048390087966156
118	0xbfe0a3aaaad34d23	-0.5199788414414893
119	0xbff61606611d65f2	-1.3803771775768579
120	0x4003606349d2e864	2.422064377545256
121	0xc026de611d2c4758	-11.434334670691598
122	0xc0385681451a0ac6	-24.337910002572947
123	0x40121ea0b298979e	4.529909887851231
124	0xc01f5e76e3bfcd06	-7.842250403005215
125	0x4013142ffa6c25ff	4.7697142723568495
126	0xbff169a0806a7240	-1.0882878319017806
127	0xc007755ef8336b38	-2.932310046261957
128	0xbfdf21d09c1a6aee	-0.4864388966031318
129	0xc023ca96e13b23c1	-9.895682371586988
130	0xc037f16bc4619e20	-23.94305064566845
131	0xc0063f850cc96f02	-2.7810154913876213
132	0xc029c849e323f649	-12.891188715114497
133	0x4020ed09abc330c6	8.462964408471077
134	0xbfe4137b00e25764	-0.6273779885548092
135	0xc006f1bf3fb86380	-2.8680405595918614
136	0xbff046ad051a9111	-1.0172548484197856
137	0xc02567a8dac14699	-10.702460132687792
138	0xc038b2ff9c52748e	-24.69921280873364
139	0xbff9b1de4ab8cb9a	-1.60592488468385
140	0xc0240e6b5d868122	-10.028162882489202
141	0x401d9b206d30b7b4	7.401490884874807
142	0xc0041dcecbeff886	-2.51455458952029
143	0xc01b69fe505b30c8	-6.853509193006353
144	0xc01bdebfeef2d16f	-6.967529042787972
145	0xc0149da5fae6cbbd	-5.153953476273213
146	0xc03ce180c6514130	-28.880871195638235
147	0x3fe2c52b699129c2	0.5865685521942441
148	0xc01c3a474deaa141	-7.056912629552529
149	0xc00b23dd4e2461c8	-3.3925119500019925
150	0x4008a400fcd22b72	3.080080008663054
151	0xc015c10341daf90d	-5.438488987913172
152	0x3fda3eafa954e9f0	0.41007606064127256
153	0xc016db5279e5262a	-5.714181809054518
154	0xc034e10452d2fb4c	-20.87897222186011
155	0x402097916d88c294	8.29603140158114
156	0x4008f790726e8936	3.1208809795363335
157	0x400ff89d041bc576	3.996393234345926
158	0x3fdbf82dedb49424	0.43702266896645114
159	0xbfff888b5e539e3a	-1.9708360371240716
160	0x3ff8a3d552f5136c	1.5399983635445222
161	0xc01660e43d3e7e9d	-5.594620663585059
162	0xc03cf38debb28a58	-28.951384287919012
163	0x4006a4845be59598	2.8303305797041496
164	0xc005879c855baedc	-2.691216508732266
165	0xbfe6004e3bf000a4	-0.6875373049406517
166	0x40174e9c9251d27c	5.826769148105651
167	0xbff50bd2ff9ee658	-1.3153867707427676
168	0xc02474e215738112	-10.228287382459289
169	0xc01b99693bd59060	-6.89981549731246
170	0xc038129b5c82ad9a	-24.07268312635788
171	0xbffa0cfea4b45636	-1.6281725343482214
172	0xc01d92070deb5484	-7.392605035293972
173	0x4016638cea64ef3e	5.59721723786407
174	0x3fd9fd3d87e282d8	0.4060815646171654
175	0xc00cbd0a6f5122b3	-3.5923050591121295
176	0xc019e031f3a136ac	-6.46894055053205
177	0xc015b269cac00fcb	-5.424231689426914
178	0xc03adb16341e85ac	-26.855807549907396
179	0xc01b0db7ca1c7b3a	-6.7633964137920035
180	0xc00b17419ce576d3	-3.386355615379992
181	0x400c436089e42702	3.5328989765884
182	0xc009381c3675a56a	-3.1523975615170245
183	0xc007dd1921453b25	-2.9829580878498683
184	0xc0139f96de98d87c	-4.905848959044416
185	0xc002eb255032102a	-2.364817263152891
186	0xc0350c85ead68c9a	-21.048918416385824
187	0xc00a7337c120706c	-3.3062586868309634
188	0xbff506a6d2b72f68	-1.3141239386631813
189	0xc008b6153097986b	-3.088907603861164
190	0x3fdf8b17c5cd0026	0.4928645545624043
191	0xc018a41014245d88	-6.160217585296216
192	0xc01580e08db65768	-5.3758566038648965
193	0xc02acfbca561ce32	-13.405736129941122
194	0xc038d04b22bcfd71	-24.813646479740274
195	0xbffe8a1bd7c20fa0	-1.9087179592179169
196	0xc0131536ae8be4f8	-4.770716407097318
197	0x4024fcd6b7f0ca30	10.493825672286306
198	0xc022c7c29632a702	-9.390156453784133
199	0xc025364ab916969e	-10.606038841254584
200	0xc026bdb306756031	-11.370506479099364
201	0xc013580d4a0f10fc	-4.835988194627358
202	0xc03f665095c1c0b8	-31.399667129328662
203	0x400fb644ccbd4f45	3.963998412635109
204	0xc021223a3ffd599a	-8.566850661922945
205	0x3ff658c213dcdb02	1.396669461811769
206	0xbff7ce8861366578	-1.4879230306017615
207	0xbfc70ab45e10d760	-0.1800141772561643
208	0xc0297e05a6d5f806	-12.746136869067424
209	0xc01f85ab0a62b6fb	-7.8805352804899895
210	0xc03957942291a4cd	-25.3421041112495
211	0xbffa4a62977128ae	-1.6431604304985217
212	0xc00c988d102687ec	-3.574487806487914
213	0x401882ead2206393	6.127848895289293
214	0xc001c28b84addfe4	-2.219992672497016
215	0xc0144919b8feb019	-5.071387186570086
216	0xbffa82cd67cfb510	-1.6569341712123027
217	0xc02457e3ab232734	-10.171658847848086
218	0xc03b6fccbdab1477	-27.436717848079265
219	0xc01496b4e96209e9	-5.147174498184975
220	0xc01108d637ce28d4	-4.258629676778771
221	0x4020e6642b43615e	8.449982978797092
222	0xbff0dac7b18b4e46	-1.0534130988425132
223	0xc01089218de46b14	-4.133917061869187
224	0xc02ab37694568db9	-13.350514064374567
225	0xc015e445a9fc4869	-5.472921997092365
226	0xc03a308294087301	-26.189492466032792
227	0x3fdc1ef9cf8d51c8	0.4393906142115864
228	0xc01b40f4b9d916e8	-6.813433555483904
229	0x3ffa0d9450462d97	1.6283152709682776
230	0xbffb10d46cff47b8	-1.6916088350012455
231	0xc02228c4a92a5e2b	-9.079625402852875
232	0xc02beb226d78315c	-13.959247036859487
233	0xc0203b0df7637385	-8.115340929880185
234	0xc03a7951dab4d69a	-26.47390524783132
235	0xc01fbda389891108	-7.935194157591702
236	0xc004e6aceef10213	-2.6126345317172848
237	0x4016f83f341a900e	5.74242860233427
238	0x3ff218cc4a2cacd4	1.1310542008821374
239	0xc02538b040ba1124	-10.610719702447177
240	0xc0260c6c05ce99c7	-11.024261647672473
241	0xc0124a16a9081a48	-4.5723520671077225
242	0xc038a38361d6d424	-24.63872348303643
243	0xc0112fae7c4b3183	-4.296564046945039
244	0xc0184b9b38831a9e	-6.073834307672454
245	0x401775f7e2f74d43	5.865203424781899
246	0xc019e4fdf47aba08	-6.473625011435168
247	0xc0297d9db6d36074	-12.745343888571576
248	0xc029eb7857f0ecfb	-12.959902523193241
249	0xc029e30ba2255c69	-12.94344813066546
250	0xc03cbb404c2f97ca	-28.731449853534095
251	0xbffefef28b248451	-1.937243026281312
252	0xc02c3aad4fe55e13	-14.114603516339264
253	0xbfe46e10a8a3eae0	-0.638435677886573
254	0xc024ab6d55abb782	-10.334818532191779
255	0xc029275d8627b91a	-12.576885406826978
