ce_results/6x5_grid/10_times/ce_decreasing/best_weights_ce_9.npy (npy, 6528 bytes, 1 tensors)

array f8 [100, 8]
000000 ca 98 cf 88 27 43 24 40 7a 7c 6c a8 b5 29 04 c0
       10.131160998670016 -2.5203660162074444
000010 a0 37 2a a0 f5 13 37 c0 c3 53 dd fa 22 22 18 40
       -23.077966699892954 6.033336562880268
000020 7c ac 26 a3 4b ae 24 40 a1 db 0c 40 f8 f0 0b c0
       10.340420816870612 -3.4926609996723106
000030 c4 0c 8d 16 14 c7 fa bf de a5 b1 1b c1 2f 00 c0
       -1.6736031418702604 -2.023317543372044
000040 cc a9 03 c7 18 a6 24 c0 6e 9f 7f 17 31 c3 06 c0
       -10.324407786557366 -2.845308478910673
000050 35 a6 fe c5 62 7e 1f c0 fc 63 0b 4a b5 e9 2f 40
       -7.873423665683323 15.956461252108049
000060 a2 57 b0 4f 0a 56 34 40 2c 7a a6 08 48 6d 1d c0
       20.336094837715457 -7.356720099602665
000070 3e 03 94 56 c2 01 07 40 09 f0 f2 eb 0e 0a 2f c0
       2.8758589519424325 -15.519645093350862
000080 9a 2c 8a 85 d3 39 27 c0 a3 df b0 de 5d e1 2d c0
       -11.612941907040568 -14.940169295397771
000090 c4 b3 d8 f7 14 20 19 c0 6e 1b 92 3f 79 c3 30 40
       -6.281329987145856 16.763568852587404
0000a0 6b e8 60 1e 31 61 2e 40 6c cd d4 82 62 2e 19 c0
       15.189827870683265 -6.295297664869718
0000b0 5a 39 b0 ad cb eb dd 3f b0 7d 83 5c 5e e2 ee 3f
       0.4675168224502123 0.9651328856379475
0000c0 3f 2e 11 c6 8a f1 2d c0 4b 9e 2a b8 28 70 1d c0
       -14.971761884305236 -7.359530332184998
0000d0 00 58 a7 af 5b fa 75 bf 8a cd 9d 2f d9 56 04 40
       -0.005365713261616278 2.542406436923277
0000e0 d7 d9 ec 34 b2 69 25 40 a4 17 38 65 c8 5f f9 3f
       10.706437734520405 1.5858844713088525
0000f0 f7 e8 03 6d 2b ad 1a 40 c4 72 d2 2f fd c2 34 c0
       6.669110968936585 -20.76167582404993
000100 fe 60 31 a3 c7 0d 2a c0 ac 68 31 83 64 9e 1b c0
       -13.026913738038726 -6.904680299654654
000110 2b 99 ce de 15 d4 2d c0 4e 1b c4 7c 1f 63 25 40
       -14.914229357451935 10.693599604548265
000120 d2 20 f4 38 4d eb 2c 40 24 b7 08 de 51 94 26 40
       14.459573535729223 11.289687098087207
000130 a5 36 2e a3 b0 03 05 40 7e 5d 60 db 68 1f 16 c0
       2.626801752899001 -5.53067343497912
000140 0e c8 76 04 3a c7 0e c0 07 09 8b 26 86 54 1f c0
       -3.847278628230021 -7.832542993770637
000150 0d 04 b7 67 ae 38 34 c0 c6 c3 c2 1d 81 b2 1a 40
       -20.22141121118698 6.67432066441774
000160 2b df 8e 98 ba 9f 23 40 71 0d 38 50 4f 6d 27 40
       9.811970488968276 11.71349573787913
000170 ee 22 d9 ce e9 f0 0a 40 fe 9a 44 1d 43 95 14 c0
       3.3676334533705505 -5.145763833343834
000180 08 ca 6e f0 cc 8a 01 c0 6b 6d 31 17 d7 a2 14 c0
       -2.1927737029848267 -5.159023630515871
000190 1a e5 68 4b 3a 5b 27 c0 42 2b a0 91 3c 57 10 c0
       -11.678179127268368 -4.085191989327372
0001a0 ea 27 a9 2e 85 2f 28 40 3f 9f 72 e3 ef e5 20 c0
       12.092812975071826 -8.449095828763914
0001b0 c8 98 50 d8 c7 2a e6 bf 94 4b ff be 23 63 33 c0
       -0.6927222466372536 -19.387264191940247
0001c0 c8 08 62 72 34 e1 26 c0 16 9b 70 4a 6d 57 0f c0
       -11.439853262393072 -3.917688924371201
0001d0 89 b3 59 34 05 3a 2c c0 20 fe e0 70 cc a1 e9 3f
       -14.113320957136027 0.8010008053460673
0001e0 45 9c 3b 79 68 22 2d 40 61 9b 26 35 43 2b 1e 40
       14.567203320051826 7.54224856422556
0001f0 40 01 29 17 52 d1 0e 40 68 4d 73 b5 36 4c 26 c0
       3.8522073563946435 -11.148854894948002
000200 7c c0 cc 2d 89 1a 14 c0 14 c4 79 3e 5e 23 15 c0
       -5.025913920995773 -5.284539200002673
000210 69 8f a9 43 42 9e 2a c0 74 fd d1 ae 69 12 0d 40
       -13.309099306534067 3.633990636618984
000220 04 47 ac a2 64 56 25 40 d6 52 89 10 71 eb f6 3f
       10.668736537485081 1.4324808736757197
000230 04 89 40 2e a0 c0 01 40 0c 7f 74 5a ae 72 32 c0
       2.2190555203861795 -18.447972920838808
000240 90 e4 be 4f 89 1a 19 c0 4f e7 51 a7 2e cc 14 c0
       -6.27591442682855 -5.199396719335552
000250 df f7 f1 5b 84 85 20 c0 fc f1 8a cb bc f4 d5 3f
       -8.260775445258274 0.3430625903818336
000260 f8 8e 1e c2 aa 9a 34 40 b7 a6 36 6f 5d 79 18 40
       20.60416806455666 6.118520486555716
000270 44 4f bf 78 a0 22 f6 3f e3 1e db 3f ff 91 2b c0
       1.3834538189593824 -13.78515052366078
000280 aa 8e af 15 79 04 20 c0 9a fe ee 4d ed fc 20 c0
       -8.008736303024609 -8.493997989105356
000290 84 91 a1 20 cf 57 2e c0 4f a0 e4 da a2 89 fc bf
       -15.171502132151325 -1.783602576304492
0002a0 94 8c 97 00 f7 ba 27 40 ad 28 a3 29 79 3c ff 3f
       11.86516572809186 1.9522639872034617
0002b0 8f 4b 54 52 35 38 21 40 2c d3 37 c9 37 39 35 c0
       8.60978181151384 -21.223507476929782
0002c0 ba e9 b5 ec 40 8e 2b c0 47 47 ed 16 ea 25 16 c0
       -13.777839085775543 -5.537025793297125
0002d0 e2 49 ef ee e1 b1 2e c0 b6 bc ec 79 4d fa 13 40
       -15.34742685957912 4.9944361735098735
0002e0 d0 a6 00 72 6d 48 31 40 54 b1 21 6c df f0 f0 bf
       17.282920003089032 -1.058806822194204
0002f0 9e a3 0e da 1a 07 04 40 7e 40 93 35 61 b4 20 c0
       2.503469184467078 -8.352304147934998
000300 95 d1 70 a5 cf 8e 2e c0 8a 84 65 f1 d5 a5 21 c0
       -15.278927965184986 -8.823897880213071
000310 4a 84 f3 8c 93 eb 29 c0 00 5f db 43 5a d2 ed 3f
       -12.96011009667031 0.9319278073625981
000320 47 24 1c 4a 8d a9 29 40 88 c9 65 a8 60 af dd bf
       12.831156078276889 -0.4638291973598361
000330 3e 76 ce 23 5d d8 13 40 52 ee 79 91 09 86 2b c0
       4.961292800404008 -13.761791750082157
000340 57 91 bd 0e 83 0b 26 c0 66 58 d5 fe 30 80 15 c0
       -11.022484264984696 -5.3751869027820245
000350 f4 96 08 10 94 d8 2f c0 5a 15 4c 12 d5 c2 e7 3f
       -15.923004628227751 0.7425332410208896
000360 5a 8e 21 75 5b ac 32 40 ed 0c b1 de ac 15 06 40
       18.673270531361005 2.7605836293965837
000370 37 04 0e 30 a0 4a 17 40 a9 07 89 0c 02 8c 21 c0
       5.822876692634103 -8.773453132369314
000380 5c 1e 16 a5 68 09 23 c0 3a dc 05 1d b8 1c 1a c0
       -9.518376501989387 -6.528046086771662
000390 76 21 81 f1 9c bf 26 c0 e7 99 c4 c8 21 db 02 40
       -11.374244257939363 2.3569980320928496
0003a0 9c 45 bd b3 8d 6d 27 40 d2 74 d7 55 2b b0 e4 3f
       11.713971726278764 0.6465050388902915
0003b0 62 3c 4c 47 84 55 11 40 41 46 1f c3 56 3d 22 c0
       4.333512414959019 -9.119802568023376
0003c0 36 b7 a0 87 5b 02 2b c0 e0 51 ec 9b 51 86 24 c0
       -13.504604566925632 -10.26234137782825
0003d0 67 39 ec b1 91 aa 30 c0 9e ce a2 88 6c fe 11 40
       -16.666285629436427 4.49846089833923
0003e0 b8 ec b0 9c 82 74 29 40 75 f2 c7 9c 1e ba 03 c0
       12.727558991048099 -2.465878701068784
0003f0 36 92 60 9b ed e4 01 40 ea 9f 1b 4d 85 d8 2b c0
       2.236781324276559 -13.922892007467414
000400 08 e3 13 d8 d5 e3 20 c0 e7 a1 16 8b 1e a4 20 c0
       -8.444990875651925 -8.320545526993511
000410 40 47 e1 72 bf 06 32 c0 12 d9 a9 c7 ca 0e 20 40
       -18.026358776092138 8.02889083813037
000420 cc b2 50 32 f4 82 24 40 e6 d7 a3 5a a8 e3 11 40
       10.255769321776278 4.472321907282071
000430 e3 0b 04 be 47 3b 17 40 33 3b d2 be 4a 73 29 c0
       5.80789086246202 -12.725179637110704
000440 92 f9 86 e2 34 e3 18 c0 d8 e5 a5 a5 7b 89 ec bf
       -6.221881427276815 -0.8917825923264742
000450 e6 43 5d b6 f4 98 2e c0 70 ff 08 1d a5 af f3 3f
       -15.298742007145801 1.230382073801561
000460 e3 25 e8 c7 af b2 33 40 07 4c 0d bc 74 3e 01 c0
       19.697994703461415 -2.1554960910375516
000470 67 b5 74 1f 28 07 f8 3f 40 48 3d 77 aa 37 2d c0
       1.5017472485299892 -14.608722425680867
000480 1c 80 cf 86 83 40 26 c0 cb e0 f6 58 8b 7b 12 c0
       -11.126003468351023 -4.6206487560923035
000490 36 58 2f f1 06 17 28 c0 82 48 50 56 43 f1 05 40
       -12.044974839238517 2.7428042166948794
0004a0 76 0c 58 70 10 f6 32 40 81 9f 12 51 2e c2 05 40
       18.961188336845645 2.71981490457614
0004b0 24 47 f6 58 c2 ab fe bf 7c af 6a 2f 3a 7c 15 c0
       -1.916933391101744 -5.371315709005895
0004c0 a9 bf 36 0b d0 3e 1d c0 01 0a af 7d 59 05 14 c0
       -7.311340499130815 -5.005224193390405
0004d0 90 7b 73 ab 77 ae 30 c0 68 22 55 68 a8 0a 12 40
       -16.681513515180598 4.510408048816863
0004e0 79 88 01 4b 7e d4 28 40 00 74 28 eb 3a b9 11 40
       12.415026039063592 4.430888819068969
0004f0 60 0b 65 b5 c6 1e 08 40 3c 02 54 e5 30 c4 20 c0
       3.015027444025165 -8.38318554544923
000500 ac b4 7d bf 25 6e 19 c0 ea 0a d8 7d 23 e5 13 c0
       -6.357565872237654 -4.973768202124782
000510 f5 75 7b 26 8d ae 32 c0 ba 55 50 97 6b fa 03 c0
       -18.681841282979764 -2.4972755261794335
000520 0f f2 e1 35 b7 42 2c 40 7e 06 89 d3 0a f7 08 40
       14.130304035025828 3.120626118296797
000530 bc 92 5b 10 82 8e 03 40 de 4d f3 dc 87 6b 18 c0
       2.4445840146966855 -6.105010464048489
000540 81 1a 33 39 96 cd 23 c0 76 7d c2 6f ad 44 16 c0
       -9.901536738861298 -5.567067857976658
000550 97 6d 3b ef e1 5f 32 c0 c2 2b e0 76 1c b4 17 40
       -18.374541236885843 5.925889832908924
000560 18 f6 d5 70 a1 1b 31 40 36 71 0e a8 b6 90 f6 bf
       17.107932140576025 -1.4103304447845182
000570 16 0d 50 9d 9f 16 f3 3f 72 7c 32 8c 6c d0 1d c0
       1.1930233140017825 -7.453539076405933
000580 90 28 e0 8c 2e 5c 23 c0 23 04 8f fd 65 0f 16 c0
       -9.68004265056905 -5.515037500242246
000590 98 be fe 32 c3 d7 31 c0 a4 d9 07 99 80 7c aa 3f
       -17.842822253411754 0.0517311274342547
0005a0 84 84 e7 a6 15 d6 30 40 58 f2 b4 56 87 87 f3 bf
       16.836267882845746 -1.220588053415801
0005b0 d8 75 be 19 ab 41 f9 bf 42 0c 67 3b 52 cb 1f c0
       -1.5785323148369255 -7.948555877842468
0005c0 56 ef 83 81 f2 d8 21 c0 a4 57 13 1a 9c 7d 0e c0
       -8.923725173335395 -3.8113328969147506
0005d0 5f 64 98 08 6f 58 2e c0 f6 04 65 a1 5d 0a 10 c0
       -15.17272211895232 -4.010122796812757
0005e0 fd 88 d7 63 22 55 26 40 0d 23 3e 4a 46 62 17 40
       11.166277999935568 5.845971260111367
0005f0 f3 c6 e0 30 8e 1c 08 40 ac c4 fc 3b 5e e6 22 c0
       3.013943082675604 -9.449937700849055
000600 55 e1 5b 81 98 2a 31 c0 6a b9 3e 10 62 bb 14 c0
       -17.166389546329203 -5.182991269901644
000610 b4 c9 90 6c a3 04 29 c0 73 4b b9 dd 77 df ec 3f
       -12.509059326814942 0.9022788363021007
000620 df d0 76 6e ff 65 31 40 14 16 3f 7d 06 28 ef bf
       17.398428825385846 -0.9736359068126057
000630 42 b1 02 3a 16 c8 fc bf 20 53 26 82 32 ab 31 c0
       -1.798849321940978 -17.668739446980112
000640 95 b6 43 ca 28 fc 2b c0 d8 93 bf 67 18 82 08 c0
       -13.992498703733228 -3.0635231118526285
000650 78 a3 46 7a 8d 91 21 c0 e4 48 b0 b9 1f 74 04 c0
       -8.784282513735647 -2.5567011362955885
000660 47 f3 0d 96 c8 4f 1d 40 78 a5 37 67 76 29 07 40
       7.3279136129393185 2.8952453674179957
000670 40 53 68 24 a1 5d e1 bf 3a 9b 1c 1c b0 36 26 c0
       -0.5426793776592618 -11.106812361232745
000680 0b 1d 6c ff 9e 4d 1c c0 d5 69 8b c1 14 b9 11 c0
       -7.075801840757104 -4.430743240484351
000690 d2 19 cc 0f 23 4e 29 c0 70 bb ae c3 26 20 18 c0
       -12.652611249603897 -6.031397874393278
0006a0 e6 22 01 2f d9 24 22 40 99 f3 01 9b 7b 2e 1d 40
       9.071969479454719 7.295393392557252
0006b0 a2 b8 e8 3e 93 09 eb 3f a7 c7 e2 72 b9 f5 2b c0
       0.8449188450520249 -13.979930486853688
0006c0 fe ed d7 96 99 78 19 c0 80 aa 9d df 3d b9 1e c0
       -6.36777339642458 -7.680900091169519
0006d0 17 17 1c cf 2d b7 30 c0 c4 c0 0d 6f 98 b5 e7 bf
       -16.71554274020954 -0.7409174126642246
0006e0 86 22 c6 94 63 0c 2c 40 0e 42 b2 bb 20 76 10 40
       14.02419724386824 4.115359242205626
0006f0 ad 02 bc bd 86 57 14 40 9d a2 50 ba bf 97 2b c0
       5.085474934196708 -13.796384641974607
000700 ab 32 5b 59 13 76 27 c0 e0 0d 8b 6f f5 37 13 c0
       -11.730616371519622 -4.80464720045299
000710 f8 48 95 15 7a 0a 32 c0 29 de 8f 92 72 10 02 c0
       -18.040925358721296 -2.258031029716012
000720 a8 73 c5 d6 f4 61 2b 40 94 f7 c0 f1 61 a0 08 40
       13.691321097949029 3.0783118140233885
000730 41 cb 41 76 82 ce 1a 40 ea 48 c4 b2 74 5b 2c c0
       6.701669547811265 -14.17862471242957
000740 54 9a 7d 82 c4 63 24 c0 1e 61 4f b6 e8 2b 12 c0
       -10.194858625252131 -4.542879913897449
000750 ed 5b 5d a3 91 80 29 c0 61 6d d6 b4 b7 0c 00 c0
       -12.751111130854008 -2.006209767144967
000760 c3 0e c8 c6 69 a7 1e 40 40 21 9d a0 fe 5c 07 40
       7.663489442787696 2.9204075382187114
000770 76 06 de 3b ea d3 f9 3f 3a 32 95 d9 ee 18 27 c0
       1.6142370546880591 -11.548697280371119
000780 64 5e 73 81 23 63 0f c0 4c ef 71 0a a8 f6 12 c0
       -3.923407565434717 -4.740875399784112
000790 be 33 bf 51 4d 00 2f c0 9e 3b 22 c7 28 14 24 c0
       -15.500589899625876 -10.039373610428637
0007a0 c0 3f 6b 4d 1c 3f d6 3f c5 f0 2b 0a 2c c5 00 40
       0.34760196266597276 2.0962754053744868
0007b0 4a de 2d 09 75 29 01 40 c3 00 c4 0b 07 64 2b c0
       2.145242759430208 -13.695366256405014
0007c0 68 94 77 db 31 92 29 c0 e7 5c 33 0c 2f 40 06 c0
       -12.785536630961545 -2.7813397362875665
0007d0 0c ed b4 41 90 46 25 c0 6c 89 ec 25 8f 8c 0d 40
       -10.63781934102601 3.6936324084101013
0007e0 80 99 08 9e d4 4f 10 40 da aa c5 2d 6d 76 1e 40
       4.077959508204344 7.615650859059963
0007f0 32 2b 53 7b 2a 31 0c 40 c0 38 8a 93 b3 3e 24 c0
       3.52400680873452 -10.122463808653606
