ce_results/6x5_grid/10_times/ce_decreasing/best_weights_ce_0.npy (npy, 6528 bytes, 1 tensors)

array f8 [100, 8]
0	0xc030f01c7e4b4845	-16.93793477380702
1	0xc00f374e730976b8	-3.9020050990355593
2	0xc023d222fe7c31a8	-9.91042323366203
3	0xc024249b83c93639	-10.071498983680714
4	0xc0231c0ad409e7d3	-9.554770113190818
5	0x4035c862b4b02733	21.78275613117803
6	0xc02928ce60c1219d	-12.57969953877983
7	0xc0007fa43a21b964	-2.0623249570409588
8	0xc02eb0e058a83dce	-15.34546162656525
9	0xc0148f7ce8c8a100	-5.140124928708474
10	0xc00c844d51f0e620	-3.5646006013528364
11	0x3fd27eb22eaa4e80	0.28898291165499046
12	0xbfc7f68e7c478160	-0.18721180980993335
13	0xc008788d3cdc1c41	-3.058863139598117
14	0x4015c833520b7981	5.445508272123676
15	0xbfea7030c8cce4cc	-0.8261951372034217
16	0xc02b15c291656acb	-13.54250006068232
17	0xc016ab16171e8698	-5.667076455343384
18	0xc010ba55f8dff724	-4.181968582792056
19	0xbff7d2cab6c53dd9	-1.4889628543349913
20	0xc00e109d8e1cfddc	-3.758113012561564
21	0xbfdecfb711598bb0	-0.48142792410197455
22	0x3ff6868a637c77b1	1.4078468214206448
23	0xc00fed4a508cdd60	-3.9908644001949796
24	0xbfd8511b6bfd99a0	-0.379950385531993
25	0xc00d0f9d409fb22e	-3.6326241539702755
26	0xc0277e90002b7016	-11.74719238786933
27	0x40225fccd88fd5a0	9.187109725530547
28	0x40146574af9dc420	5.099077934269218
29	0xc00ee6c9d8d4d3a9	-3.8626896800946793
30	0x40062634282ae41b	2.7686541689004236
31	0xc021c4628989a05a	-8.883564279604048
32	0xc02cae3ed36d0530	-14.34032307344259
33	0xc01f794eb07ff40a	-7.86846423893895
34	0xc02778340148f6ee	-11.734771766812141
35	0x4007f52a9700c3bd	2.994710139952501
36	0x400840c0a0fc84d6	3.0316174103796625
37	0x3fd9af57ef61c070	0.4013271177018458
38	0x40044353246ea1b4	2.53287342512723
39	0xbfed1b3f8edc6a0c	-0.9095762052778027
40	0xc01edb53e58640c0	-7.714187227553509
41	0xc01a767ce2362b35	-6.615710768276405
42	0xc02d232d30438bee	-14.56870413612884
43	0x3fa1b34673473900	0.03457088620381121
44	0x400359ed34a27c3c	2.418909465035112
45	0x3fdd0b91b28b7b74	0.45383112369557144
46	0x401c95193bd93010	7.145604071742142
47	0xc0080fcb61568157	-3.0077121357464125
48	0xc02c7ab44e22f444	-14.239656869665971
49	0xc01a648fd14bb7f5	-6.598204870459075
50	0xc02cf1c1274e9e0d	-14.472176769587373
51	0xbfe60d9216d67c5c	-0.6891565748263804
52	0x4021610c512b4175	8.689547096758114
53	0xc00f9a48a4bed504	-3.9503338690507253
54	0x4021f0c0bd481db4	8.970220484784342
55	0xc00393aee08a0ade	-2.447110895359727
56	0xc029ec6509737b3c	-12.96170835051236
57	0xc01dd50fa1b35315	-7.4580674424839986
58	0xc0327e9474a8b0a4	-18.494452754196246
59	0xbfd4bed55a4c64d8	-0.3241475469417998
60	0x401b71485ef6feb4	6.860627635789275
61	0xbfeca66a56d0ebca	-0.8953143783213531
62	0x4019ade14fa500b4	6.419804806180924
63	0xc023e66aee0ea808	-9.950034560479267
64	0xc02e0d23087755e6	-15.025657906119658
65	0xc019c5d02c7e1969	-6.443176932522285
66	0xc030153d9a95aaff	-16.082971250095394
67	0xc01062cf6dda9ebb	-4.096494404285916
68	0x40127fecc226dc33	4.624926599141918
69	0xbfc74a24d71d299f	-0.18195019248589703
70	0x402175a70af5a679	8.7297900605074
71	0xc00d24edf983fc76	-3.6430320256618485
72	0xc02521c28fba6956	-10.565937510972315
73	0xc02a756f4be2e392	-13.229364749380498
74	0xc03220800b731f19	-18.1269538074549
75	0x401a1261b4062ed0	6.51795083320367
76	0x4012af1b4314b25a	4.6710024339086775
77	0xbffd5da19cb3fd70	-1.835359203454427
78	0x40101df358fea4bc	4.029248610059934
79	0xc02b7cc51c0d76c9	-13.7436913267551
80	0xc024cab428d75448	-10.395905758176141
81	0xc01a6d8df669dac3	-6.606986856661652
82	0xc036896cdd8ebf2d	-22.53681740508107
83	0x4021bf696da56a69	8.87385122913584
84	0x402595ae9c876d62	10.79234780457654
85	0xc0136732eadb3969	-4.850780171995532
86	0x4014211e5f731dfc	5.032342425728981
87	0xc01810129f9d498a	-6.015696042990735
88	0xc020b38aa748bd22	-8.350667216901062
89	0xc0211ea7632f5225	-8.55987081482551
90	0xc0372313ab524611	-23.137018878542282
91	0x4020942e0263101f	8.28941352328553
92	0x4020cd7132f73161	8.40125426547519
93	0xc0044bf4db0c70d2	-2.537088118855629
94	0x401709daba867d8e	5.759623445948263
95	0xc010711f05b4deaa	-4.110469903149047
96	0xc01f34f981a2f189	-7.801733041353494
97	0xc025c0ee00bb973c	-10.876815817736876
98	0xc0301175be7124eb	-16.06820287954626
99	0x4002240b936c9bb3	2.2676002042312233
100	0x4019a891d471fd97	6.414618796784814
101	0xc0142fbaf156d880	-5.046611567426339
102	0x40113493cf90af97	4.301345103460242
103	0xc027997ffd4e7db0	-11.799804607230584
104	0xc02caecd0231f8a5	-14.341407841300972
105	0xc019bf3354db8f6b	-6.436719251538174
106	0xc032d02766dc47e8	-18.813101223735345
107	0x4015a8f34bba0443	5.41499059985023
108	0x4028c7f3a67bb2ed	12.39053077945706
109	0xc00e77de371bec0e	-3.808529310741057
110	0x402184cebff47f72	8.759389875980307
111	0xc01283d008d1e40a	-4.628723275957791
112	0xc03382a9ea3453ee	-19.510405195021967
113	0xc016bbbfcadf62e2	-5.683348817715087
114	0xc034eff368f57924	-20.93730789177893
115	0x402973148393bdcd	12.724765884194221
116	0x40200d27bc7b23a8	8.025693788558627
117	0xc02ab6d3a4397232	-13.357083446514569
118	0x401011243198d05c	4.016739630653401
119	0xc014b4b4f205ff69	-5.176471501937933
120	0xc02b3a26132e9693	-13.613571738659891
121	0xc022ab3296f997d9	-9.334370344131388
122	0xc02f3ad891711af3	-15.614933533722683
123	0x40184222132655b4	6.064583110060472
124	0x401832a595082b12	6.0494597707973
125	0xc011aeef8b259095	-4.420835661094448
126	0x401681e04b63d40b	5.626832178085361
127	0xc00f709326a8860c	-3.929968168275769
128	0xc03010329fba762e	-16.063272460005628
129	0xc01cfc9587ec771c	-7.24666416531343
130	0xc031c442599d278f	-17.7666374214819
131	0x4015455b1e18ff07	5.317730398440978
132	0x40138c29f06e862e	4.886878735299929
133	0xc01fae8369e5fdc5	-7.920423178350977
134	0x40113b460c5b24f9	4.307884400427832
135	0xbfc1fd13ddc92260	-0.14053581551913208
136	0xc02e83a53022c96a	-15.257119659658844
137	0xc024bf67f6882276	-10.373840049856181
138	0xc035c087aab06202	-21.75207011038038
139	0x40133af8c97ede10	4.807589672439931
140	0x4025a062d8356ead	10.81325412418604
141	0xc0023fa5deb0bf77	-2.2810780904473478
142	0x4024595451c3adb2	10.174471430908714
143	0xbfe2d8c8a737cc48	-0.5889628663993642
144	0xc0341402dfa54a9b	-20.07816884789882
145	0xc02b7f54f501681e	-13.748695045873372
146	0xc0311207120e48d8	-17.070420387732923
147	0x4017123b6b2978cc	5.7678047889769
148	0x40256be443af4083	10.710725894110743
149	0xc0127a4e94fe255d	-4.619440391551817
150	0x3fc8dd34a34f8900	0.19425065969614508
151	0xc02bfa1fb2a03518	-13.98852308469445
152	0xc03008c2e64b71c2	-16.034223931712184
153	0xc01bdfc6a6eec4f7	-6.96853123504956
154	0xc03268e113cb4576	-18.40968440735511
155	0x3fee5c7b7c752448	0.9487893515407757
156	0x40233fdf1f22f1a4	9.62474915792047
157	0xc00ea19fecfcad2f	-3.828918315373492
158	0xc0035f7992d9fa37	-2.421618602063315
159	0xc0211f64694f22cb	-8.561312952909608
160	0xc037e79d23c466b9	-23.90474151177361
161	0xc02c2f3b97696b82	-14.092251521700522
162	0xc033e99dc3fa4a28	-19.91256356106365
163	0x4018244696a39974	6.035425523505513
164	0x402bb400f1aa2546	13.85156970216725
165	0xbfc716950e8ef090	-0.18037665568215688
166	0x3ff808f77bc7014b	1.5021891436627637
167	0xc0282c06109ae66e	-12.085983771237093
168	0xc03061cc7516e9b1	-16.382026022047004
169	0xc02985f399901adc	-12.76162414440244
170	0xc03187b7e9d05091	-17.53015004478272
171	0x401a0d53344590e7	6.5130127112827045
172	0x4024aaf2183badd7	10.333878285679857
173	0xc0126c96d86618c9	-4.6060441791834785
174	0x4004ca6a439d3cdb	2.598835495220198
175	0xc02622273fcfa2dc	-11.06670569810506
176	0xc0302f2e5519114e	-16.184300726528186
177	0xc020d44d695b68b4	-8.414653103264165
178	0xc0332e3eb4534dba	-19.18064429315357
179	0x4022947674a622b6	9.289966244964813
180	0x40243dacf6c52b34	10.120460235184147
181	0xc0140642dd821bcc	-5.006114445749471
182	0x4005a66520544fb7	2.7062475705842775
183	0xc01b07583f6f5418	-6.757172576112701
184	0xc024c00fe452db09	-10.375121245493135
185	0xc0188c515aba13e1	-6.137029092414168
186	0xc0346a0497ae09cd	-20.414132575979057
187	0x3ff4371ba5736a52	1.263454099933956
188	0x4026fc75d9de3043	11.493086632130263
189	0x4016a0f515aea5bc	5.65718492392028
190	0x400e17c569fed454	3.7616070061581386
191	0xc00d5bf9c9532102	-3.6699100235456408
192	0xc027fee10580f1e5	-11.997810527792305
193	0xc0293d64901775b9	-12.619907858718635
194	0xc03608b95290ec38	-22.034077797299886
195	0x40217781ca0b39c3	8.733412088270489
196	0x4012d2b01d679728	4.705749949882183
197	0xc00883bc6c114c3a	-3.0643242304591043
198	0x40045dc51c23be6a	2.5457861135872024
199	0xc01d22f43e8063f4	-7.284134842478114
200	0xc0302c411e2eb1bb	-16.17286862030026
201	0xc02a4754593f00af	-13.139315403881794
202	0xc0351f7477cc8e38	-21.122870910110777
203	0x4001267b94485b31	2.1437903961736073
204	0x4020a654709baa25	8.32486297512248
205	0xc00f94d5035508b8	-3.9476719150853476
206	0x3ffcb2d3c012581f	1.7936589720534426
207	0xc02c4de98069d570	-14.152172100943716
208	0xc02e1ec796ce5b64	-15.060116493883193
209	0xc023eab17a942dfa	-9.958385305965738
210	0xc03052b9b1830bea	-16.323145956510338
211	0x400fdf5071326bd7	3.984040150023684
212	0x402c313abc903f08	14.096151249511891
213	0x3ffbd8f8c92f210c	1.7404716356996373
214	0xc00c3d5d7eaba189	-3.529963483441126
215	0xc01f0f25ea503f02	-7.764793072841487
216	0xc032372e7d3a4498	-18.215553118444035
217	0xc0273d8d01820aaa	-11.62021641457007
218	0xc031406405d37725	-17.2515262261651
219	0x4010c6ac2be4fecb	4.194016157008899
220	0x4026223b88edba3c	11.06686046506831
221	0x4006b2037e70644c	2.836920726590085
222	0xbff002839621cd57	-1.0006137718708794
223	0xc01bc49d588b5fa8	-6.942006476885503
224	0xc037d1ae0cffd16f	-23.819062054114905
225	0xc00bd5aa8e68d838	-3.4793292165514025
226	0xc027bcb2827d6d0a	-11.868549421129973
227	0x4026712a0a92c1a4	11.221023874678231
228	0x403099a4af143f7f	16.600169126933448
229	0xc0202f64c46cb093	-8.092565668361464
230	0x40230b4885864c62	9.522037670749516
231	0xc01a0ff30a1ea930	-6.515575559731857
232	0xc036d355c59a325b	-22.82552752508705
233	0xc01c91d132f65c52	-7.142399593626651
234	0xc028a187c07fbb56	-12.315488830177554
235	0x400cc76819ffbfcc	3.597366526715609
236	0x4033262ab71ac205	19.149089283020675
237	0xc0138279849abc9a	-4.877416679329281
238	0x4018eb5863da1fcc	6.229829368770833
239	0xc01bf3256dddbd89	-6.987447468432387
240	0xc0326b10db1f1885	-18.418225951282256
241	0xc016119a55a221fa	-5.517190301914974
242	0xc0357a17d8221f9c	-21.4769263346967
243	0x40180450d9d37a4e	6.004214671642854
244	0x40209699b9e4d161	8.29414158743083
245	0xc00b61c37af09163	-3.422736130205679
246	0xc000f4568c80fcf0	-2.1193057038177514
247	0xc023d6a8cb1759fb	-9.919256540871165
248	0xc0396ed90c4884ba	-25.43299938936682
249	0xc01950cd157d7f38	-6.328907333168722
250	0xc0358d5ff2f72f12	-21.552245316836952
251	0xbfe5020993dfdf64	-0.6564987075971485
252	0x402ce16c199567e4	14.440277862060562
253	0xc01f66174b03d5ca	-7.849698230847432
254	0xbffa5ebf2a633c04	-1.6481315284506772
255	0xc02b1b615900e564	-13.553477078780539
