ce_results/6x5_grid/10_times/ce_decreasing/best_weights_ce_2.npy (npy, 6528 bytes, 1 tensors)

array f8 [100, 8]
-11.91878832597197 -7.996228991009421 -10.482786877098647 -7.167440061320409 -7.425906130112986 -1.3442233159207189 -4.4548140782331656 -0.4924692119491645
4.3777889041252 -0.2568188842990238 -15.437036683679434 -1.3465058458788612 -9.359893188364534 0.3209815035681778 4.784112334505036 -5.007635966350824
-0.14290411564045247 -2.011847010532959 -7.228959660182987 0.08433382178388293 0.3584336445751227 -1.5183283633454494 0.8379193782150911 -12.401357114211812
6.311628676917909 -2.551668345441 -18.41005713965609 2.000408681589528 -4.254430994541902 6.213384930792075 -3.0343372522962815 -10.163737109806558
2.647421620717881 -1.225208227559788 -17.98252287781053 3.5864370980394256 -1.0126013223130366 14.638780657323336 -4.975020523534631 -11.558110610764622
3.0710734977208713 -5.580464530356663 -22.14688558726432 -0.9855988643637539 2.890947593820076 15.714144984058212 -0.697609096144 -6.554796259813226
-2.792127563058889 -5.461998344721542 -14.855074608513398 -2.635676573121181 2.6772599580544147 5.649854912871568 0.041007977821548636 -2.8635763215375816
1.691644934539586 -3.6731426344047287 -16.78167329787077 3.5219037395662522 0.7417197152137667 6.044387016916714 -1.0700082046015 -3.9123102847615177
-0.9552677928091448 -3.308136762583713 -16.562117693866945 5.368152841386481 2.057624858233635 6.001534087810917 -2.444773219608904 -9.69868914381373
4.3576550733881305 -3.085324294719549 -14.602458473481235 -0.1395696505300874 -1.477169426425014 9.914353672443807 -2.348575346211743 -8.607713776188909
-4.384822063148622 -4.149069043624479 -14.398093457580504 0.598954497992608 -1.025228779821984 7.575708971207683 -4.320889932089283 -6.867728544427683
-3.854112741363254 -3.841342465989406 -16.77526622250526 3.9446376586855547 -2.6007448563348747 10.566127588006626 -4.458630101262358 -6.317968727617224
-6.54941260360292 -1.4182489266125713 -11.542694091600282 4.710259145715513 4.027791082415953 6.636867155622319 -3.3167520063600144 -3.973320412193819
-5.043911950295641 -6.074840959508252 -14.947949788988655 7.315851768908791 -1.0156264929491567 6.295482273472022 2.7779083744477173 -8.821223064305938
0.27027641462423224 -3.8758168601996204 -12.286889596904816 -5.17667535474202 3.177821968037336 5.9693124622771165 -7.65173785100893 -12.905715401543855
-0.4168961365955637 -1.7353696147942634 -15.013221078816748 -2.8602323986077387 -1.9303675328302194 7.260173633274777 -3.407312324232043 -6.058377320973213
-4.292203288125986 -1.6603157163403064 -20.85728812049441 -6.027768755591174 5.715251241287559 4.315524678573688 -2.9199969429983264 -3.685284345183538
-3.492746927002468 -2.481667138270951 -13.160521760239886 0.80915825608284 8.047718734025285 8.125507358297332 1.2681222004173063 -12.690469186442838
1.4873503081107202 -4.741501997577423 -13.710257834797625 1.0346572841490083 7.996705600575357 8.720838395101472 4.761945944743266 -6.603528875856428
-5.621821472766454 -5.586952467168978 -13.234667803160377 -3.4025910821716443 10.257649589753477 7.540692890585352 -1.605365177742071 -3.720016551166977
3.940599173732596 -3.686750123931555 -20.429755067590655 -0.2694511074779018 -1.141558316212758 1.7575011266182075 0.2361222915613923 -11.799097459619421
4.172076006886221 -6.385040237571929 -26.915479708074606 -1.5081671075545127 -0.8214752096390967 0.036352042481294866 -5.131296795989246 -12.191828766628387
7.002340911993601 -6.77200410527222 -23.2471623547474 -3.8843772914273744 -0.18775144660223653 3.8230229767903805 -2.8129218219611536 -8.123794838835236
-5.986641245727974 -6.808522583057101 -17.271114564722186 -5.938653721789916 2.322769154306624 6.219082512151418 5.358652457445527 -7.153160881835368
-2.1307628880944147 -3.612307952770843 -20.108793771947905 -3.012314515521751 6.209802491522686 1.243055610518506 -5.7802869939752775 -7.946898907441537
-0.6035968642636438 -2.3011134412749343 -17.077293329628144 -5.2146012490738585 -1.0570909051373558 5.881748049219507 -2.584478464384637 -8.771299143389472
-7.802188453981014 -9.765195747160366 -20.997571939448676 -2.38893978059971 2.2702677297794334 0.9531308985018412 0.02586457767224371 -1.0722851933186108
-4.000825551830302 -7.057845793005795 -17.417597793026225 0.6596550867221755 6.162452340028425 1.6340688540816335 -1.2834136412449977 -0.8479825239213525
-8.806810284766275 -1.0051912248365813 -13.551681087790929 -4.701453889708519 2.321052446229157 2.7130499438997693 -2.0467237814969566 -4.662048655002953
-14.451693652819902 -7.964645142743261 -14.2126325769739 -8.269753821518911 8.8864022669583 -2.630979861874453 -2.841383532655747 -8.080425260892266
-5.239487401541894 -7.519376569846592 -18.878880215624587 -2.3378767268775773 5.456641865314844 4.37372880125781 -5.037337721583768 -3.127519258841491
-7.199797836380634 -3.0766580952173874 -13.3005240969308 -5.6584862149060235 -1.7038881780265225 8.48046038324061 -3.101107519558884 -4.5701171809253704
00000000: 0efe 676c 6bd6 27c0 a4d9 de73 23fc 1fc0
00000010: 4027 70d7 2ff7 24c0 44a5 4d68 75ab 1cc0
00000020: 3901 90bc 20b4 1dc0 1267 c64e f081 f5bf
00000030: 5b16 1fc8 bad1 11c0 8cf2 e695 9d84 dfbf
00000040: a409 3018 db82 1140 18cf 4379 b86f d0bf
00000050: 661c af45 c3df 2ec0 aac2 beb6 498b f5bf
00000060: 5e28 84eb 43b8 22c0 0c8f 1c01 f68a d43f
00000070: 7c5b 0458 ee22 1340 2600 07b9 d107 14c0
00000080: a0dc 919b ae4a c2bf fc5a d63e 4318 00c0
00000090: 585b b266 74ea 1cc0 102b 82be e696 b53f
000000a0: 8e1e 4fab 93f0 d63f cd86 92ae 124b f8bf
000000b0: 84ca c34c 3cd0 ea3f 041d ffad 7ecd 28c0
000000c0: c46e 7f96 1b3f 1940 9d42 ef17 d169 04c0
000000d0: 7050 3481 f968 32c0 f47d 5044 d600 0040
000000e0: bc95 028f 8904 11c0 41d8 4c94 81da 1840
000000f0: 1e2d fd9b 5246 08c0 7e85 b759 d553 24c0
00000100: 26a7 fd62 eb2d 0540 f78c 42f1 739a f3bf
00000110: 9ec4 8b9e 86fb 31c0 80ec e9ee 05b1 0c40
00000120: 9788 b371 9d33 f0bf cf0a 2142 0e47 2d40
00000130: 480a b6c7 6be6 13c0 bc91 89ac c01d 27c0
00000140: 7996 62fb 8e91 0840 be7a 394b 6552 16c0
00000150: d48d 394b 9a25 36c0 9458 2da1 068a efbf
00000160: c741 cf21 a920 0740 d243 4e69 a46d 2f40
00000170: 4694 aa4f d052 e6bf 1b5d bf82 1c38 1ac0
00000180: ecc8 ccf9 4656 06c0 678a 1518 16d9 15c0
00000190: fc68 ce56 ccb5 2dc0 501c 6399 dd15 05c0
000001a0: 52df d544 076b 0540 98b6 f790 7399 1640
000001b0: 00bf 3c67 fffe a43f c6d4 d4b3 9ae8 06c0
000001c0: 53aa 6447 fa10 fb3f 257e 029b 9862 0dc0
000001d0: ed82 c2bd 1bc8 30c0 f9c6 28de db2c 0c40
000001e0: ac87 f4fb 2abc e73f de18 48ca 732d 1840
000001f0: 2171 53ec c01e f1bf 61d7 a655 694c 0fc0
00000200: 3932 21c3 8d91 eebf 5cf0 2f68 1077 0ac0
00000210: 56a9 f7f1 e68f 30c0 d6bc f60e fd78 1540
00000220: 9a66 8c05 0476 0040 88e8 e326 9201 1840
00000230: deda 0243 e58e 03c0 1c80 5d95 ba65 23c0
00000240: 50cd ad21 3d6e 1140 72ff fa80 beae 08c0
00000250: 9899 e16f 7534 2dc0 603b 4516 6bdd c1bf
00000260: 1e58 9268 7ca2 f7bf 4f3f 202a 26d4 2340
00000270: da5e 01df e1c9 02c0 bc1e 9442 2637 21c0
00000280: a402 80cb 0e8a 11c0 40da 2c8e a598 10c0
00000290: a21e dae7 d2cb 2cc0 8073 959f a22a e33f
000002a0: f30d 044b 5667 f0bf 3967 0da7 864d 1e40
000002b0: acc1 cf5e 9748 11c0 867d e0d4 8d78 1bc0
000002c0: 4404 9a0f 39d5 0ec0 b048 41c2 11bb 0ec0
000002d0: 825a dfd8 77c6 30c0 e9fe 5430 9e8e 0f40
000002e0: 8a96 b951 53ce 04c0 22b4 a779 db21 2540
000002f0: 3088 1721 a3d5 11c0 1c11 1998 9945 19c0
00000300: 63f0 b137 9932 1ac0 a635 56c9 25b1 f6bf
00000310: b04f feff db15 27c0 d221 6a2c 4ed7 1240
00000320: 4963 f843 751c 1040 782d 55e7 268c 1a40
00000330: b511 a246 b588 0ac0 aa36 5736 5cc9 0fc0
00000340: 84b1 1941 f72c 14c0 f2f4 c51b a34c 18c0
00000350: aae9 bbac 59e5 2dc0 5663 67a5 6e43 1d40
00000360: 52af c290 0140 f0bf b470 b4e7 922e 1940
00000370: bc4c 9c06 2839 0640 6fd4 7759 77a4 21c0
00000380: d83c 6c72 354c d13f 00be 1e45 ac01 0fc0
00000390: a189 7831 e392 28c0 3481 5a62 eab4 14c0
000003a0: 81d8 89ec 2d6c 0940 8057 3472 93e0 1740
000003b0: 3e98 ce2a 619b 1ec0 8e3a daed b9cf 29c0
000003c0: b06d 2022 6dae dabf 3637 e0ed 12c4 fbbf
000003d0: 8445 cae9 c406 2ec0 c8d6 1786 c1e1 06c0
000003e0: 8841 ec10 c9e2 febf 62c9 f8f4 6a0a 1d40
000003f0: ccac bef6 2c42 0bc0 d6a1 b143 c73b 18c0
00000400: 9c23 b956 372b 11c0 7e76 6b36 a790 fabf
00000410: d6c5 f83b 77db 34c0 7675 a469 6f1c 18c0
00000420: 8e03 47d2 6adc 1640 3838 bee6 1843 1140
00000430: 45c8 745b 275c 07c0 4c31 d85b 767b 0dc0
00000440: d870 054d 25f1 0bc0 0274 f34c 74da 03c0
00000450: a70d 7de8 2f52 2ac0 0d41 e5da 9fe4 e93f
00000460: 1a17 0497 6e18 2040 bb96 1e80 4240 2040
00000470: 72fb 2181 3a4a f43f df55 5d2d 8561 29c0
00000480: 407f 30d6 2fcc f73f 080e b64c 4cf7 12c0
00000490: fd5d 38ea a66b 2bc0 8bcf dfcb f48d f03f
000004a0: 44d8 9864 a0fc 1f40 eb52 e9ba 1171 2140
000004b0: f6f7 c78e 3b0c 1340 e2fa 3f79 036a 1ac0
000004c0: 0eee a5c4 be7c 16c0 6930 4b11 0a59 16c0
000004d0: f8fe d760 2678 2ac0 2bb5 5cac 8138 0bc0
000004e0: 54a3 a3a5 ea83 2440 a5f9 a865 ab29 1e40
000004f0: 79a1 8865 93af f9bf 1eba 9e09 98c2 0dc0
00000500: e69b 0edc 5886 0f40 d57a 56d9 767e 0dc0
00000510: 9697 986d 046e 34c0 b844 9fdb af3e d1bf
00000520: 1cc5 29a7 d243 f2bf 3a22 5880 b91e fc3f
00000530: d06e 0e58 4139 ce3f a2c3 5e4d 2399 27c0
00000540: a702 58b1 34b0 1040 e10f f0fc 478a 19c0
00000550: 0255 cee0 5cea 3ac0 be97 3dd5 7321 f8bf
00000560: 40fd fb60 8649 eabf 802e 3323 bc9c a23f
00000570: a35f d3aa 7286 14c0 ae33 4e61 3762 28c0
00000580: 42d2 f1a7 6502 1c40 7416 823e 8816 1bc0
00000590: 4371 3608 463f 37c0 8a0b c066 3413 0fc0
000005a0: 4076 7749 3d08 c8bf b95e 0912 8d95 0e40
000005b0: 1e39 fc27 dd80 06c0 ff6b 8009 623f 20c0
000005c0: 3825 2d15 52f2 17c0 143b 1158 ed3b 1bc0
000005d0: 79f3 9cc3 6745 31c0 ed6c f570 2ec1 17c0
000005e0: 793c 8ffe 0795 0240 7243 832a 57e0 1840
000005f0: 2d6f fd96 426f 1540 a709 ca34 d69c 1cc0
00000600: 0c2b bf69 cd0b 01c0 14da 41b6 01e6 0cc0
00000610: 5586 9ce8 d91b 34c0 bf74 4b5a 3819 08c0
00000620: 47d6 de76 d6d6 1840 ac94 a447 8ee3 f33f
00000630: cc78 c28d 031f 17c0 7151 00de 9fc9 1fc0
00000640: 4460 ff5e aa50 e3bf 7d4b f529 ae68 02c0
00000650: abf3 e27e c913 31c0 d8cf 096e c0db 14c0
00000660: 786c 2727 d8e9 f0bf 9cd6 eaf5 e886 1740
00000670: 8dfc 8d0b 03ad 04c0 c994 a8b8 e78a 21c0
00000680: 1c4f dce3 7035 1fc0 222f aabc c787 23c0
00000690: e056 e7df 60ff 34c0 3850 ae75 8c1c 03c0
000006a0: df88 a420 8229 0240 8ceb bb5e 0c80 ee3f
000006b0: 0197 e86c 3e7c 9a3f 949d d484 1428 f1bf
000006c0: ff72 d869 d800 10c0 2eaf 74ed 3b3b 1cc0
000006d0: eeed 5fb0 e76a 31c0 c493 03fc e41b e53f
000006e0: b252 fee7 59a6 1840 c215 fb61 2525 fa3f
000006f0: 5f33 06be dc88 f4bf c04b fa3e ac22 ebbf
00000700: 924b d63c 169d 21c0 8863 ce64 4315 f0bf
00000710: 7ac4 8bf1 751a 2bc0 e2cc afed 49ce 12c0
00000720: 19d7 e6f1 8391 0240 91b6 6b87 53b4 0540
00000730: 8dcc cbb7 b05f 00c0 d564 2615 f0a5 12c0
00000740: 3258 f563 44e7 2cc0 6b4f b1ef cbdb 1fc0
00000750: 8f55 582d de6c 2cc0 1cca 422c 1d8a 20c0
00000760: 505f 9784 d6c5 2140 a57b 792b 3f0c 05c0
00000770: ef31 214a 27bb 06c0 ee9b f27f 2d29 20c0
00000780: b1b4 752f 3cf5 14c0 f832 9773 d713 1ec0
00000790: 8335 374b fee0 32c0 5626 a0b6 f8b3 02c0
000007a0: f90b d6ec 99d3 1540 fee6 4bc3 b27e 1140
000007b0: 1070 14dc 3b26 14c0 c6ac 32d1 2805 09c0
000007c0: fa43 d4cd 97cc 1cc0 6b75 5feb fe9c 08c0
000007d0: 98f4 5f4b de99 2ac0 848d d735 4aa2 16c0
000007e0: 98a3 0a40 2043 fbbf 8715 42e7 fef5 2040
000007f0: a914 8f75 11cf 08c0 46d9 5bcc cc47 12c0
