combine_results/results10x10/actor.pkl (torch, 26311 bytes, 6 tensors)

input_layer.weight f4 [64, 9]
0	0x3c339f79	0.010963314
1	0x3da86a72	0.08223428
2	0x3e692708	0.22768795
3	0x3d67c5f1	0.056585256
4	0xbe733299	-0.2374977
5	0x3e5fc404	0.21852118
6	0x3c30b648	0.010785647
7	0x3e1040ca	0.14087215
8	0xbe52507a	-0.20538512
9	0xbd5ff499	-0.054676626
10	0xbe8dc459	-0.27688864
11	0x3eac33be	0.33633226
12	0xbe8b405f	-0.2719755
13	0xbe8e75f7	-0.27824375
14	0x3df40d65	0.11916617
15	0xbd5ce277	-0.05392691
16	0xbea8151d	-0.32828608
17	0xbe292e27	-0.16521512
18	0xbddf31e6	-0.10898189
19	0xbe22829f	-0.1587014
20	0xbe52a290	-0.20569825
21	0xbe98c609	-0.2983859
22	0xbaf91aad	-0.0019005142
23	0xbe071398	-0.13191068
24	0x3d168f8e	0.036758
25	0xbe8fdf35	-0.2809998
26	0x3ceb59ad	0.028729284
27	0x3d8baec4	0.06820443
28	0x3e314abb	0.17313664
29	0xbcc4e977	-0.024037106
30	0xbd3c3cca	-0.04595641
31	0x3e3f5041	0.18682958
32	0xbc7bad13	-0.015361088
33	0x3e47e4e0	0.19520903
34	0x3e38d6cd	0.1805069
35	0x3e3e0b68	0.18559039
36	0x3e61e590	0.22060227
37	0xbdc0c0b8	-0.09411758
38	0x3e96e8a8	0.29474378
39	0xbe77fa38	-0.24216545
40	0xbe90f5d0	-0.2831254
41	0xbe25df7e	-0.16198537
42	0x3d9bb45a	0.07602759
43	0x3d2e20cc	0.042511746
44	0x3df1b46f	0.11801993
45	0x3d894872	0.06703271
46	0xbea113a0	-0.31460285
47	0xbe469474	-0.19392568
48	0xbb8f2b88	-0.004369203
49	0x3e577cbd	0.21043678
50	0x3e3fc2f7	0.18726717
51	0x3e3e4f3f	0.18584917
52	0xbdccab16	-0.099935696
53	0x3dde7b99	0.10863418
54	0xbdbc6db0	-0.09200609
55	0xbe86944b	-0.26285014
56	0xbe990e92	-0.2989393
57	0x3e41a25e	0.18909594
58	0x3e444c5c	0.19169754
59	0x3d3bc259	0.04583964
60	0x3e4d165c	0.2002806
61	0x3dd8e4ce	0.10590516
62	0x3ea40827	0.3203747
63	0xbe98c028	-0.29834104
64	0xbe9a5613	-0.30143794
65	0x3da3b181	0.079928406
66	0xbd9af385	-0.07565979
67	0x3e856413	0.26052913
68	0xbda070c4	-0.07834008
69	0x3e5fe800	0.21865845
70	0xbe2b1ac0	-0.16709423
71	0x3dcb0b6e	0.099142894
72	0xbe4e570f	-0.20150398
73	0x3e1f2b78	0.15543926
74	0x3d273456	0.040821396
75	0xbdd9682a	-0.10615571
76	0xbe900670	-0.2812991
77	0x3df1de5e	0.11809991
78	0x3e367c49	0.17820849
79	0x3c02c7c5	0.007982199
80	0x3db394df	0.08768629
81	0xbdc65b7b	-0.09685417
82	0xbdd5fe53	-0.10448899
83	0x3e9ccd99	0.3062561
84	0xbd94cfb4	-0.07266179
85	0xbe68490d	-0.22684117
86	0x3ea14dd7	0.315047
87	0xbd51a47f	-0.051182266
88	0x3e8b2c79	0.27182367
89	0xbe9d42ff	-0.30715176
90	0xbe43ce6b	-0.19121711
91	0xbe7ad60f	-0.2449572
92	0xbe919ff3	-0.28442344
93	0x3c9b6c5e	0.018972572
94	0xbea9945e	-0.33121008
95	0x3e7e39ca	0.24826732
96	0x3e8ca308	0.27468133
97	0xbe561986	-0.20908174
98	0xbe52bbb7	-0.2057942
99	0x3dc45cb6	0.09587996
100	0xbe8e1237	-0.27748272
101	0xbd407035	-0.04698201
102	0xbd4540ac	-0.04815738
103	0x3dffdd7a	0.12493415
104	0xbe264684	-0.16237837
105	0xbdb342f7	-0.08753007
106	0x3ea61e2d	0.32444897
107	0xbe0a9a54	-0.13535434
108	0x3b332b57	0.0027339065
109	0xbe898d36	-0.26865548
110	0x3e573af4	0.21018583
111	0x3e1d3ef7	0.1535605
112	0x3e7b66fb	0.24551003
113	0xbd1b4edc	-0.037917003
114	0x3ea75728	0.32683682
115	0x3e3cbf62	0.18432382
116	0xbe83709d	-0.25671855
117	0x3de319f7	0.11088937
118	0xbe27f897	-0.16403423
119	0x3e0725cd	0.13198014
120	0xbca89cef	-0.020582644
121	0x3e85419a	0.26026613
122	0xbc9137b8	-0.017726764
123	0x3e70aab0	0.23502612
124	0x3e89a84e	0.2688622
125	0xbd866ec8	-0.065640986
126	0x3dc7e805	0.09761051
127	0xbc60e960	-0.013727516
128	0x3e2bfd28	0.1679579
129	0x3e80600c	0.25073278
130	0x3e828a14	0.2549597
131	0xba020615	-0.0004960013
132	0xbde09b77	-0.109671526
133	0x3e20945d	0.15681596
134	0x3e9e6c34	0.30941927
135	0xbe2184db	-0.15773337
136	0xbe9dc123	-0.30811414
137	0xbdbc21da	-0.09186144
138	0xbe5ee725	-0.21767862
139	0x3e13f973	0.14450626
140	0xbea2ddd3	-0.31809863
141	0x3e18cf1e	0.14922759
142	0x3ccdbb19	0.02511363
143	0xbd5955ba	-0.05306027
144	0xbddc422b	-0.10754808
145	0xbd9d5686	-0.07682519
146	0x3e0217be	0.1270437
147	0x3e2bd2a0	0.16779566
148	0xbdfa43e8	-0.12219983
149	0x3e19f676	0.15035424
150	0xbe06259d	-0.13100286
151	0x3e151fe8	0.14562953
152	0xbea191bf	-0.31556508
153	0x3d81caf0	0.063375354
154	0x3e4cb27a	0.19989958
155	0xbe0a9298	-0.13532484
156	0xbe8f4ef6	-0.2798993
157	0x3d9c380f	0.0762788
158	0x3e3cbab7	0.18430601
159	0xbe33d401	-0.17561342
160	0x3e3ddba8	0.18540823
161	0xbdba6b01	-0.091024406
162	0xbe908c67	-0.28232118
163	0xbe13a35f	-0.1441779
164	0x3e8388fc	0.25690448
165	0x3d8cf228	0.06882125
166	0xbe9e7e9d	-0.30955973
167	0x3e916b11	0.28401998
168	0xbe02bad3	-0.1276658
169	0x3e7f8a62	0.24955133
170	0x3e420cfe	0.18950269
171	0xbe846147	-0.25855467
172	0x3e870ed1	0.26378492
173	0xbea2861a	-0.31742936
174	0xbea8ab45	-0.32943168
175	0xbe591af9	-0.21201696
176	0xbe3a2eea	-0.18181959
177	0x3e7d13d8	0.24714601
178	0xbdca55ae	-0.09879623
179	0xbdd109cf	-0.10206949
180	0x3df97a05	0.121814765
181	0xbe520e32	-0.20513228
182	0xbdbd22a8	-0.09235126
183	0xbb803d25	-0.003913539
184	0x3e3b7b0a	0.18308654
185	0xbdb8fbbe	-0.09032391
186	0x3e97215d	0.29517642
187	0xbe21904a	-0.15777698
188	0xbe0eaa22	-0.13932088
189	0x3d584e95	0.052809317
190	0x3ea9866d	0.3311037
191	0x3ce242aa	0.027619679
192	0xbe9a4d42	-0.30137068
193	0xbd6e1e57	-0.058134403
194	0x3d0f7662	0.035025008
195	0x3e7d1329	0.2471434
196	0x3ca3b509	0.019983785
197	0xbe3f2e52	-0.18670014
198	0x3e444008	0.19165051
199	0x3e8d4665	0.2759277
200	0xbc20e770	-0.009820804
201	0xbe0d797b	-0.13815872
202	0x3cbc208f	0.022964744
203	0x3e8fd1d6	0.2808978
204	0xbe81b3cc	-0.25332487
205	0xbe504be2	-0.20341447
206	0xbe117705	-0.14205559
207	0x3df55d02	0.119806305
208	0x3b57c57d	0.0032924109
209	0x3e9335ff	0.28752133
210	0x3e862268	0.26198125
211	0x3ea1dfe3	0.31616125
212	0xbe591386	-0.21198854
213	0x3d6c3602	0.057668693
214	0x3e0c6eeb	0.13714187
215	0x3d9c7c2b	0.07640871
216	0x3e954178	0.2915151
217	0x3d6c0535	0.057622153
218	0x3e60f6bd	0.21969123
219	0xbcc1c439	-0.023653137
220	0x3b76ec8d	0.0037677616
221	0x3e9c1d9b	0.30491337
222	0x3e6f89c4	0.23392397
223	0x3dd15072	0.10220422
224	0xbe36c275	-0.17847617
225	0xbccba1bc	-0.024857394
226	0x3d5b0607	0.053472545
227	0xbea01d0f	-0.3127217
228	0xbdcd8898	-0.10035819
229	0xbd2d8ff1	-0.0423736
230	0xbe566f6e	-0.20940945
231	0x3e8ccb7e	0.27499002
232	0xbea068a3	-0.3132983
233	0x3e1c65d3	0.15273218
234	0x3e180dfe	0.14849088
235	0xbc9c19ed	-0.019055331
236	0x3e5531f0	0.20819831
237	0x3de11a85	0.10991386
238	0x3e272acd	0.16324921
239	0x3dd8a428	0.10578185
240	0x3e921da4	0.2853824
241	0x3c5b4fd2	0.01338573
242	0x3d7d0065	0.061767954
243	0x3e104955	0.14090474
244	0x3dd32ff3	0.1031188
245	0x3d8af3a6	0.067847535
246	0x3cccf41f	0.02501875
247	0x3e0099ac	0.12558621
248	0x3ce27af1	0.027646514
249	0x3d6af1a8	0.057359368
250	0x3de1f258	0.110325515
251	0xbd5f8769	-0.054572497
252	0xbe14e23f	-0.14539431
253	0x3e9c6492	0.3054548
254	0xbd8842bf	-0.06653356
255	0xbe14423c	-0.14478391

input_layer.bias f4 [64]
0	0x3da975b9	0.08274407
1	0xbe98ac2d	-0.2981886
2	0x3e0d48f3	0.13797359
3	0xbc9d6565	-0.019213388
4	0x3d8a77e9	0.06761152
5	0x3cb2ef1c	0.021842532
6	0x3d95d062	0.073151365
7	0xbe8289a3	-0.25495633
8	0xbe6c6f6d	-0.2308938
9	0xbeaafd2a	-0.33396274
10	0x3e497507	0.19673549
11	0xbe0ab36a	-0.13545004
12	0xbd5e317a	-0.054246403
13	0x3e14add0	0.14519429
14	0x3e079d4a	0.13243595
15	0x3e82fedc	0.25585067
16	0x3e0a8fa4	0.13531357
17	0xbe19c4f5	-0.1501654
18	0xbd259ecf	-0.040434655
19	0x3e28fe09	0.16503157
20	0xbde4d6a3	-0.11173751
21	0x3ea39564	0.31949914
22	0xbe3c9ed8	-0.18419969
23	0x3de6bb94	0.112662464
24	0xbe25eebb	-0.1620435
25	0xbe860623	-0.26176557
26	0x3d32244c	0.043491647
27	0xbe1023fd	-0.14076228
28	0x3e22ec02	0.15910342
29	0xbdbe1b2b	-0.09282526
30	0x3ea37ee4	0.31932747
31	0x3d90f284	0.07077506
32	0x3ea070b2	0.3133598
33	0xbdb1f9cc	-0.08690223
34	0xbe5a5272	-0.21320513
35	0xbdac088b	-0.08400067
36	0xbe1bee18	-0.15227544
37	0x3e2ef53e	0.1708574
38	0xbe2b31b5	-0.1671818
39	0xbe6c9584	-0.2310391
40	0xbe6fa260	-0.23401785
41	0x3e84b00f	0.25915572
42	0xbe7bd58c	-0.2459318
43	0x3d62180c	0.055198714
44	0x3e54e334	0.20789796
45	0xbe63fd88	-0.22264683
46	0xbd36f98e	-0.044671588
47	0xbe23d59f	-0.15999459
48	0x3e99cd5e	0.30039495
49	0xbdfb00f1	-0.12256039
50	0x3da35378	0.07974905
51	0x3d879f53	0.066221856
52	0xbe9648a0	-0.29352283
53	0x3e08087d	0.13284488
54	0xbe26e670	-0.16298842
55	0x3e8eb2ba	0.27870733
56	0x3e697435	0.22798236
57	0x3dd74b98	0.10512465
58	0xbd7b35ab	-0.06133048
59	0xbe387b53	-0.18015794
60	0x3e8d98a6	0.27655524
61	0x3d4d1414	0.050067976
62	0x3eafc385	0.34328857
63	0xbd357db5	-0.044309337

hidden_layers.0.weight f4 [64, 64]
0	0xbdb424d5	-0.08796088
1	0x3dff1636	0.12455408
2	0x3d888435	0.066658415
3	0x3dcaecfe	0.09908484
4	0xbdaa9eae	-0.08331047
5	0x3d11c8c2	0.03559185
6	0xbdd57456	-0.1042258
7	0x3d41834e	0.047244363
8	0x3db6a007	0.089172415
9	0x3d5e0bb1	0.05421037
10	0xbcdd67e3	-0.027027076
11	0xbdce0db7	-0.1006121
12	0x3c249aac	0.010046642
13	0x3d810e88	0.063016
14	0xbd10b1d1	-0.03532583
15	0xbdbfa40f	-0.093574636
16	0x3d10640b	0.03525166
17	0x3d30b03e	0.043136828
18	0xbcc16b8f	-0.023610858
19	0xbddf70db	-0.10910197
20	0xbdebf48c	-0.11521253
21	0x3de828ee	0.11335932
22	0xbb2434a8	-0.00250558
23	0x3dad4736	0.08460848
24	0x3d521e9d	0.051298726
25	0xbd06e47d	-0.032932747
26	0xbd9b9644	-0.0759702
27	0xbdfd4582	-0.12366773
28	0x3d524529	0.051335488
29	0xbc2047a2	-0.009782704
30	0x3d792d21	0.060834054
31	0xbc5b916e	-0.013401372
32	0xbd8b031c	-0.067877024
33	0xbdd0d1c7	-0.10196262
34	0x3d68d316	0.056841932
35	0xbd87f126	-0.06637792
36	0x3dad7774	0.084700495
37	0xbd158f7d	-0.036513794
38	0xbce05e1d	-0.027388627
39	0xbb4723c9	-0.003038632
40	0x3d7d0f70	0.0617823
41	0xbd875e65	-0.06609801
42	0xbdd6a899	-0.10481376
43	0xbdac4a92	-0.08412661
44	0x3d588b2a	0.052867092
45	0xbe02bbf7	-0.12767015
46	0xbd029332	-0.031878658
47	0xbdbc8532	-0.092050925
48	0xbd994042	-0.07482959
49	0xbdeef9c3	-0.11668732
50	0xbd7934d3	-0.060841393
51	0xbdfc7727	-0.12327414
52	0xbd933d7d	-0.07189462
53	0xbe0d50cc	-0.13800353
54	0x3ccc8df8	0.02497004
55	0xbdd0bf1c	-0.10192701
56	0xbd31be0e	-0.04339414
57	0xbe004b3a	-0.12528697
58	0x3d890744	0.06690839
59	0xbdb234bf	-0.08701467
60	0xbdaa7cde	-0.08324598
61	0xbd2306e8	-0.03980151
62	0x3c801819	0.01563649
63	0xbd0b409f	-0.033997174
64	0xbdfe3143	-0.1241174
65	0xbd75743b	-0.0599253
66	0x3df48917	0.1194021
67	0xbe167bec	-0.1469571
68	0x3bdea654	0.00679473
69	0xbb6b680e	-0.0035920176
70	0x3c83bbbf	0.016080735
71	0xbdc856f2	-0.097822085
72	0x3ca75bd7	0.020429535
73	0x3dcfb892	0.10142626
74	0x3d8a27a1	0.0674584
75	0x3c9fb54d	0.01949563
76	0xbdd6f5f6	-0.10496132
77	0x3d0dea81	0.03464747
78	0x3de31cc9	0.11089475
79	0x3d06a878	0.032875508
80	0x3d1669c8	0.036721975
81	0x3c38c74e	0.011277987
82	0xbdd2662c	-0.10273394
83	0xbcdffada	-0.027341295
84	0x3dc9314b	0.09823855
85	0xbdb497aa	-0.0881799
86	0x3b97ed14	0.004636416
87	0x3d6c5a70	0.057703435
88	0x3df1609c	0.11786005
89	0xbd0104b1	-0.031498615
90	0xbda83c6c	-0.082146496
91	0xbc221007	-0.0098915165
92	0xbd6f712c	-0.05845754
93	0xbd854a97	-0.065083675
94	0x3d1f261c	0.038854703
95	0xbd1e276d	-0.038611818
96	0x3d3c3030	0.045944393
97	0xbca51baf	-0.020154802
98	0xbddfac68	-0.10921556
99	0xbd80e49f	-0.06293606
100	0x3d8c1f66	0.06841926
101	0xbd135846	-0.035972856
102	0xbd6bafe8	-0.057540804
103	0x3dff3e17	0.124630146
104	0xbd31ea29	-0.043436203
105	0x3d73923e	0.05946564
106	0xbdae93eb	-0.08524307
107	0x3d298ab1	0.041392032
108	0x3dd16e4e	0.10226117
109	0xbd87e3c7	-0.06635242
110	0x3cb41008	0.0219803
111	0x3db4a470	0.088204265
112	0xbca0a5b4	-0.019610263
113	0x3c805ffc	0.015670769
114	0xbd2b072e	-0.041754894
115	0x3dabd483	0.08390143
116	0x3cb00e20	0.02149111
117	0xbdb88fce	-0.090118036
118	0x3d82ef8b	0.063933454
119	0x3b90c779	0.0044183102
120	0x3d6e67c7	0.05820444
121	0x3d18c8ee	0.037300996
122	0xbdccce4d	-0.10000286
123	0xbcf951d9	-0.030434536
124	0xbc94a91c	-0.018147044
125	0xbdd370e6	-0.10324268
126	0xbdf7c14e	-0.12097417
127	0x3d9c7c42	0.07640888
128	0x3d924a20	0.071430445
129	0x3db4bcdc	0.088250846
130	0x3df1f635	0.118145384
131	0x3da1ef56	0.07906978
132	0x3db6676a	0.089064434
133	0xbd12bc4e	-0.035824113
134	0xbdd81c40	-0.10552263
135	0xbd81355e	-0.06309007
136	0x3d4e24f5	0.050328214
137	0xbdf9387d	-0.121689774
138	0x3d264e0b	0.04060177
139	0x3cd3ef02	0.025870804
140	0xbde7f3df	-0.113258116
141	0xbd214807	-0.03937533
142	0x3af82078	0.0018930575
143	0xbd387685	-0.045034904
144	0x3d5da6ae	0.054114036
145	0x3ca56a98	0.02019243
146	0xbe051d21	-0.12999393
147	0xbda21b22	-0.079153314
148	0x3d9598d4	0.0730454
149	0x3d184d47	0.037183072
150	0xbdc67caf	-0.0969175
151	0xbd60556d	-0.05476897
152	0xbd184e4e	-0.037184052
153	0xbde3ae03	-0.111171745
154	0xbdefdc20	-0.117119074
155	0xbdd8ae21	-0.105800875
156	0xbd949cbd	-0.07256458
157	0xbc15cec6	-0.009143537
158	0xbd93698a	-0.07197864
159	0xbd9a8049	-0.07544
160	0xbde38d81	-0.11110974
161	0xbd8a5476	-0.06754391
162	0xbdb8f34a	-0.09030779
163	0x3dde5cf5	0.10857574
164	0x3bd2cd9d	0.0064332024
165	0x3d5e6f8a	0.05430559
166	0xbdc1f1ce	-0.09469949
167	0xbe03ea83	-0.12882428
168	0x3d7c6391	0.06161839
169	0xbda0dd99	-0.078547664
170	0x3a61b2dd	0.00086097216
171	0xbda43aed	-0.08019052
172	0x3d5aac1f	0.053386804
173	0x3b021786	0.0019850447
174	0x3dfa3a13	0.12218108
175	0x3df1101d	0.117706515
176	0xbda2b1b5	-0.07944051
177	0xbd579c05	-0.052639026
178	0x3c901c00	0.017591476
179	0x3dc4e5b0	0.09614122
180	0xbd841b18	-0.0645048
181	0x3dc7ee70	0.09762275
182	0x3d2b8583	0.041875374
183	0xbe0840be	-0.13305947
184	0xbdc4592f	-0.09587323
185	0x3df50ce8	0.11965352
186	0x3a49390d	0.0007676043
187	0x3d78bd3c	0.060727343
188	0xbdac0027	-0.083984666
189	0xbddec933	-0.108782195
190	0x3dfc8d65	0.12331656
191	0x3caeebb5	0.021352628
192	0x3d1412aa	0.036150612
193	0xbc0829ac	-0.008310717
194	0xbdc16557	-0.09443157
195	0x3d191255	0.037371
196	0xbd844d09	-0.06460006
197	0x3cc34276	0.023835402
198	0xbd7e2005	-0.062042255
199	0x3de784f8	0.11304659
200	0x3d0780d6	0.033081852
201	0x3d84326e	0.06454931
202	0xbcfef11b	-0.031120827
203	0xbcad6cd0	-0.02117005
204	0x3de50105	0.11181835
205	0x3c6959c4	0.014242593
206	0xbc823110	-0.015892535
207	0x3dd65ce5	0.10466937
208	0x3d5c9ced	0.053860594
209	0xbdefc377	-0.11707204
210	0x3d90231d	0.07037947
211	0x3d13182f	0.035911735
212	0xbc840e02	-0.01611996
213	0x3e003458	0.12519968
214	0x3d2eb029	0.04264847
215	0xbd9b312f	-0.075777404
216	0xbddee4c6	-0.10883479
217	0x3dd6f54b	0.10496005
218	0xbc4ecc9b	-0.012622024
219	0xbd80769e	-0.062726244
220	0x3c293f25	0.010329996
221	0x3da97433	0.08274116
222	0xbcbbdea5	-0.022933314
223	0x3d43b614	0.047781065
224	0x3cd47d2e	0.025938597
225	0xbde90272	-0.113774195
226	0xbddbfbc4	-0.1074138
227	0x3d69f985	0.057122726
228	0xbc98f8a8	-0.018673256
229	0x3c3c3fd9	0.011489832
230	0xbd991994	-0.07475582
231	0xbbb5d92c	-0.0055495705
232	0xbd3b0d37	-0.0456669
233	0x3d47cf65	0.04878177
234	0x3d4eb05d	0.050461162
235	0xbdb49811	-0.08818067
236	0xbda1b116	-0.078951046
237	0x3dd84c47	0.10561424
238	0x3c0e5442	0.008687081
239	0xbdb33b08	-0.08751494
240	0x3cd596c1	0.026072862
241	0x3dc70eea	0.097196415
242	0x3d8bc510	0.06824696
243	0x3df79221	0.12088419
244	0x3bff864c	0.007797992
245	0xbdfdbadd	-0.12389157
246	0xbe08ae74	-0.13347799
247	0x3deb53b4	0.114905745
248	0x3db70867	0.089371495
249	0x3d2ea4ea	0.042637743
250	0x3dcb75b9	0.09934563
251	0xbbf66c87	-0.0075202617
252	0x3d1ebdb2	0.038755126
253	0x3d9f2895	0.07771412
254	0x3ce6e53a	0.028185476
255	0x3d5bcd2c	0.053662464

hidden_layers.0.bias f4 [64]
0	0x3d9a4e9f	0.07534527
1	0x3d3be70f	0.04587465
2	0xbd779f67	-0.060454752
3	0x3ddfd770	0.10929763
4	0x3e002cbe	0.12517068
5	0x3d0aa644	0.03384997
6	0xbdd06eca	-0.10177381
7	0x3dcdefc1	0.10055495
8	0xbc89f803	-0.016841894
9	0xbde6a830	-0.11262548
10	0xbdd74eb5	-0.10513059
11	0x3d403eb0	0.046934783
12	0x3d46849b	0.048466306
13	0x3dff5e9e	0.12469219
14	0xbcfbd48c	-0.030740999
15	0xbdc00a1a	-0.09376927
16	0x3caa438b	0.02078416
17	0x3d6c4cfc	0.057690606
18	0x3d08a50b	0.033360522
19	0x3c4a4e9a	0.012347842
20	0x3d6752b0	0.05647534
21	0x3e02e9e3	0.12784533
22	0x3deb01b3	0.114749335
23	0x3c8adba6	0.01695044
24	0xbdc064f1	-0.09394253
25	0xbe0c2c1f	-0.13688706
26	0xbd3f1761	-0.046653155
27	0x3d6338f3	0.055474233
28	0xbd83337b	-0.064063035
29	0xbd0d3003	-0.034469616
30	0x3d704317	0.05865773
31	0xbdca5984	-0.09880355
32	0xbca97fc8	-0.020690814
33	0x3d3ec74c	0.046576783
34	0xbd687d56	-0.056760155
35	0x3d8fb75b	0.07017394
36	0xbdfef4ee	-0.124490604
37	0x3da1687d	0.07881258
38	0xbdf01c28	-0.117241204
39	0xbc0341b5	-0.008011271
40	0x3d9cf349	0.076635905
41	0x3b9cabc4	0.0047812182
42	0x3ce7fb77	0.02831815
43	0x3db7fcd3	0.08983769
44	0xbddca932	-0.10774459
45	0xbc5dcbdb	-0.013537372
46	0x3dbe2352	0.092840806
47	0xbd33b56c	-0.04387419
48	0x3dc5a0eb	0.09649833
49	0xbd7aa1ea	-0.06118957
50	0x3d2d5b3c	0.042323336
51	0xbd19000c	-0.03735356
52	0x3df1f502	0.1181431
53	0xbda0a95e	-0.07844804
54	0xbd881968	-0.06645471
55	0xbdcc4fbe	-0.09976147
56	0x3cba0317	0.022706551
57	0xbcf9045d	-0.030397588
58	0x3dd2ed2d	0.10299144
59	0xbdda9833	-0.10673561
60	0x3d033cac	0.032040283
61	0xbdf186fd	-0.11793325
62	0x3dc823d6	0.0977246
63	0xbdada892	-0.08479418

output_layer.weight f4 [20, 64]
0	0xbcc83e68	-0.02444382
1	0x3d25c1c2	0.040467985
2	0x3dfae0cf	0.1224991
3	0x3dda75b9	0.10666985
4	0xbcd06085	-0.02543665
5	0x3cbc9601	0.023020746
6	0x3d9524f0	0.07282436
7	0x3bf1ef01	0.007383228
8	0x3dc1ec99	0.094689555
9	0xbd8170c0	-0.063203335
10	0xbd3a78d4	-0.045525387
11	0x3d86579b	0.06559678
12	0x3dd82a76	0.10554974
13	0xbc0db73b	-0.008649643
14	0xbd6fd28d	-0.058550406
15	0xbdda2471	-0.10651482
16	0xbd6669d5	-0.056253273
17	0xbddbfaa9	-0.10741169
18	0xbd3938e2	-0.045220263
19	0xbd0d7afd	-0.03454112
20	0xbd78debe	-0.0607593
21	0x3ccf97c6	0.025340926
22	0xbd8e33c7	-0.069434695
23	0x3d39c661	0.045355204
24	0x3db3cf1d	0.08779738
25	0xbc34e164	-0.011040065
26	0x3da4a495	0.08039204
27	0x3d15db95	0.036586363
28	0x3c9fb408	0.019495025
29	0x3dcc8805	0.09986881
30	0xbdeb22ff	-0.11481284
31	0x3e0cf7a8	0.13766348
32	0xbcd17f34	-0.02557335
33	0x3dee2b8c	0.116294
34	0xbc8ec362	-0.01742715
35	0x3c17d128	0.009266175
36	0xbd3f835d	-0.046756137
37	0xbdaeb5f4	-0.085307986
38	0xbdd60295	-0.10449711
39	0xbd2ca15c	-0.04214607
40	0xbda3baba	-0.079946
41	0x3dc3d410	0.09561932
42	0x3d5256a8	0.051352173
43	0x3c8fab02	0.017537598
44	0xbc68666c	-0.0141845755
45	0xbdf9ec23	-0.12203243
46	0x3cf177a3	0.029475993
47	0x3d657e18	0.056028455
48	0xbe023c1d	-0.12718244
49	0xbdc93f36	-0.0982651
50	0xbc7c91d6	-0.015415629
51	0x3c9c8b3f	0.019109366
52	0xbcfedf02	-0.031112198
53	0x3d670e03	0.056409847
54	0xbd3509f2	-0.044198938
55	0x3da7117e	0.08157633
56	0xbda250b8	-0.07925552
57	0x3d9530fd	0.072847344
58	0x3cd4588a	0.025921125
59	0xbac4a212	-0.0015001914
60	0x3c1ab60a	0.009442816
61	0xbb694583	-0.003559441
62	0x3d8c2886	0.06843667
63	0x3de33569	0.110941716
64	0x3c490dee	0.0122713875
65	0xbc4fb483	-0.012677315
66	0x3da30a39	0.07960934
67	0x3d5dd536	0.054158412
68	0xbd2146c9	-0.039374147
69	0xbd8d08fc	-0.06886479
70	0xbdd9efb4	-0.10641423
71	0xbd72dbd0	-0.05929166
72	0xbd536925	-0.051613946
73	0x3d3d7750	0.046256363
74	0x3da64e20	0.0812037
75	0xbc786718	-0.015161298
76	0xbdb0fc21	-0.0864184
77	0x3c945e1b	0.01811128
78	0x3da81f87	0.08209138
79	0xbdd235dc	-0.10264179
80	0x3d41b01a	0.047287084
81	0xbd2c046a	-0.041996397
82	0xb979641c	-0.00023783784
83	0xbdc801f7	-0.09766
84	0xbd3a625d	-0.045503963
85	0xbdca0927	-0.09865027
86	0x3d945ab9	0.072438665
87	0xbd01c6f8	-0.031683892
88	0x3d6513fe	0.05592727
89	0xbd0b4eac	-0.034010574
90	0xbdef434a	-0.11682756
91	0xbd7540a9	-0.059876118
92	0x3cad8314	0.021180667
93	0xbda694f9	-0.08133883
94	0x3d3a6b87	0.045512702
95	0x3dab3034	0.083588034
96	0x3db5b190	0.08871758
97	0xbd8b4559	-0.068003364
98	0x3d9e590f	0.0773183
99	0x3c916062	0.017746154
100	0xbdf68ca3	-0.12038543
101	0xbe012b8a	-0.12614265
102	0x3cf8e72c	0.030383669
103	0xbddcca27	-0.10780745
104	0xbca357b5	-0.019939283
105	0xbd9a8bac	-0.075461715
106	0x3d8b564f	0.068035714
107	0xbd4e08d2	-0.05030138
108	0x3db4f8e1	0.088365324
109	0xbde347f6	-0.1109771
110	0x3dc21f2d	0.094786026
111	0xbdc8f46f	-0.09812247
112	0x3ddfd36e	0.10928999
113	0xbca9843b	-0.020692935
114	0xbd20f281	-0.03929377
115	0x3ca95958	0.020672485
116	0x3e01adf7	0.12664019
117	0xbd35c790	-0.04437977
118	0xbd766294	-0.060152605
119	0x3da9aa3c	0.08284423
120	0xbd609495	-0.0548292
121	0xbd15f0f7	-0.036606755
122	0x3c1376de	0.009000508
123	0x3dbf1e5f	0.09331965
124	0xbdd1e0e5	-0.10247973
125	0xbd622ca0	-0.05521834
126	0x3abd7355	0.0014453927
127	0x3d40f076	0.04710432
128	0x3d6d7921	0.057976846
129	0x3c731f40	0.014838994
130	0x3a859f78	0.001019462
131	0x3da33978	0.07969946
132	0xbda86cb3	-0.08223858
133	0x3cf04662	0.029330436
134	0x3ddc3998	0.10753173
135	0xbdcc2bb5	-0.09969274
136	0x3c0c7b98	0.008574389
137	0xbc20447c	-0.009781953
138	0x3dee1518	0.11625117
139	0xbdb33d67	-0.08751946
140	0x3de5acdf	0.11214613
141	0x3d85a052	0.06524719
142	0x3da3fa95	0.08006779
143	0xbde7716a	-0.11300929
144	0x3d3a004f	0.04541045
145	0xbd6f2e2b	-0.05839364
146	0x3dd4b967	0.10386925
147	0xbd866e1b	-0.0656397
148	0xbdca5e30	-0.09881246
149	0x3d3379f4	0.043817475
150	0xbce25a32	-0.0276309
151	0xbdb00194	-0.08594051
152	0x3da1f22f	0.07907521
153	0xbdca82da	-0.09888239
154	0xbda00eda	-0.07815333
155	0xbd81de31	-0.06341208
156	0x3d998ea9	0.074979134
157	0x3d194851	0.037422482
158	0x3dadedf4	0.084926516
159	0x3cfd46ea	0.030917604
160	0x3dbd8e65	0.09255675
161	0xbcee4ef1	-0.029090377
162	0xbc635a63	-0.01387653
163	0x3bf48039	0.0074615744
164	0x3da95d87	0.08269792
165	0x3d22efad	0.039779354
166	0x3ceeeea8	0.029166535
167	0x3dbdce7e	0.09267901
168	0xbdd4114b	-0.10354861
169	0x3dc2a476	0.09504025
170	0x3d9008fc	0.07032964
171	0x3d742903	0.059609424
172	0xbddf2dba	-0.108973935
173	0xbde998c7	-0.11406093
174	0xbddaebb2	-0.106894866
175	0xbd4f2f67	-0.050582316
176	0x3de11562	0.109904066
177	0x3e0805ab	0.13283412
178	0xbd909515	-0.07059685
179	0x3e00ef2c	0.12591237
180	0x3c9bc8da	0.019016672
181	0xbd4dc16d	-0.050233293
182	0xbdce9f7e	-0.100890145
183	0xbd86c9af	-0.06581437
184	0x3c95c668	0.018283084
185	0xbd9c7880	-0.07640171
186	0x3da3f8f8	0.080064714
187	0x3dd179d4	0.10228315
188	0xbdf3fc33	-0.119133376
189	0xbc8b2041	-0.016983153
190	0x3dfa3b8e	0.122183904
191	0x3deefc01	0.1166916
192	0xbdb236bf	-0.08701848
193	0x3d25b1ff	0.040452953
194	0x3de01ec1	0.10943366
195	0x3c1b5e76	0.00948297
196	0x3d5aafba	0.053390242
197	0x3d889333	0.06668701
198	0xbd519369	-0.051165972
199	0xbdd3e407	-0.10346227
200	0xbda8119a	-0.08206482
201	0x3e007907	0.12546168
202	0xbd1b0bb8	-0.037852973
203	0xbd82e11c	-0.063905925
204	0x3d100ae0	0.03516662
205	0x3dbe5c4b	0.09294947
206	0x3da6107f	0.08108615
207	0xbd95b4af	-0.07309853
208	0xbdfbf637	-0.12302821
209	0xbd35b809	-0.044364963
210	0x3d8f1cde	0.06987928
211	0x3dadfed2	0.08495869
212	0x3db5a36e	0.08869062
213	0x3dd736a6	0.1050847
214	0xbe03f925	-0.1288801
215	0x3baa02fa	0.005188343
216	0x3c0cd538	0.008595757
217	0xbb7ad933	-0.0038276433
218	0xbdb420e4	-0.08795336
219	0x3d5d3cc9	0.054013047
220	0xbdadc347	-0.08484512
221	0x3cc9f2c0	0.024651885
222	0xbd974a08	-0.07387167
223	0x3d4d7792	0.05016286
224	0xbd8618a0	-0.065476656
225	0x3d8f39da	0.06993456
226	0xbc7f7659	-0.015592181
227	0xbbde79e3	-0.0067894324
228	0xbd02d608	-0.031942397
229	0xbdb52bad	-0.08846221
230	0x3d3ce45f	0.04611623
231	0x3d83a1b7	0.06427329
232	0xbd974da2	-0.07387854
233	0x3d700258	0.058595985
234	0x3ccfb33f	0.025354026
235	0x3d2f5490	0.042805254
236	0xbda22928	-0.07918006
237	0xbd74325e	-0.059618346
238	0xbd5cd03d	-0.05390953
239	0x3dd78502	0.10523416
240	0x3db402b9	0.08789582
241	0x3cf74059	0.03018205
242	0x3be09535	0.0068537244
243	0xbdd1124e	-0.102085695
244	0xbcab26ce	-0.020892527
245	0x3d7f4221	0.062318925
246	0xbd7b9b31	-0.0614273
247	0xbd98ce4b	-0.07461222
248	0x3dcda21d	0.10040686
249	0xbd5db6ae	-0.054129295
250	0x3dd2ecee	0.10299097
251	0x3d161a25	0.036646027
252	0xbcd59668	-0.026072696
253	0x3c542030	0.012947127
254	0x3c8a99c2	0.01691902
255	0x3d1e209b	0.038605314

output_layer.bias f4 [20]
0	0x3d2970e4	0.041367427
1	0x3de15cad	0.110040046
2	0x3dcf246c	0.10114369
3	0x3db5f6fe	0.08885001
4	0xbd7dae89	-0.061934028
5	0xbdb928a5	-0.090409555
6	0x3d126468	0.035740286
7	0xbdece944	-0.115679294
8	0xbdc51ead	-0.096249916
9	0x3df197c6	0.117965266
10	0x3cfcfd3a	0.030882467
11	0xbd9c14ea	-0.076211765
12	0x3d4b1aac	0.049585983
13	0xbe009eb2	-0.12560537
14	0x3d4835e1	0.048879508
15	0x3cfbb4f3	0.030725932
16	0xbc264e22	-0.010150464
17	0xbd988601	-0.07447434
18	0xbddea468	-0.10871202
19	0xbc3faec7	-0.011699385
