dqn_results/results6x5/qnet.pth (torch, 21375 bytes, 5 tensors)

conv1.0.weight f4 [64, 9]
0	0xc013dc73	-2.3103302
1	0xbf918050	-1.1367283
2	0xbf9abf4c	-1.2089629
3	0x3eed0ce3	0.46298894
4	0x3f0a24b6	0.53962266
5	0xbfcfff68	-1.6249819
6	0x3f8d0cc4	1.1019521
7	0x3f1c546c	0.6106632
8	0xbbfd3425	-0.0077271634
9	0x3f2f51f8	0.6848445
10	0xbfce8d0d	-1.6136795
11	0xbece26c4	-0.4026395
12	0xbe4257e3	-0.18978839
13	0x3f013cf0	0.5048361
14	0xc00c69b7	-2.1939523
15	0xbf0fe25a	-0.5620476
16	0xbf11f501	-0.5701447
17	0xbe074a9a	-0.13212052
18	0x403f988b	2.9936855
19	0x3e854972	0.26032597
20	0xbebda87a	-0.370426
21	0xbd2e8512	-0.042607374
22	0xbe302348	-0.17200959
23	0x3dd76e1e	0.1051905
24	0xbdaa94c0	-0.08329153
25	0x3f0c37c1	0.54772574
26	0x3c69cc6a	0.0142699275
27	0x3f4a9e57	0.7914786
28	0xbf605142	-0.8762399
29	0xbdeb93c3	-0.11502793
30	0xbed767aa	-0.42071277
31	0xbf035299	-0.5129791
32	0xbec6fc39	-0.38864306
33	0x3fc163d0	1.5108585
34	0xbd5c3894	-0.053764895
35	0x3f18448a	0.5947958
36	0xbc34d62d	-0.011037392
37	0x3fd818c4	1.6882558
38	0x3ea960e6	0.3308174
39	0xbd4bbf6b	-0.049743097
40	0xbe096d0b	-0.13420503
41	0x3e71910b	0.23590486
42	0x3dd2cb2c	0.10292658
43	0xbebe8c7c	-0.37216556
44	0x400623ff	2.095947
45	0x3ef6bb91	0.48189977
46	0xbf2fa337	-0.6860842
47	0xbfccbf33	-1.5995849
48	0x3f073893	0.528207
49	0x3d4ee4fe	0.050511353
50	0x3f04fe9b	0.51951
51	0x3f7d2fa4	0.9890082
52	0xbf227287	-0.63456005
53	0xc0093858	-2.144064
54	0xbe5c5c9d	-0.21519704
55	0x3e711632	0.23543623
56	0xbe6f9ee9	-0.23400463
57	0xbe8118b5	-0.25214162
58	0xbe8155ed	-0.2526087
59	0x3e669309	0.22517027
60	0xbe8f2177	-0.2795522
61	0xbe5f4117	-0.21802174
62	0x3db79c41	0.0896535
63	0xbdba1a46	-0.090870425
64	0xbe83c4d4	-0.25736105
65	0x3cab3439	0.020898925
66	0xbe346080	-0.17614937
67	0xbe4b6427	-0.19862424
68	0x3ca95bc0	0.020673633
69	0xbd957816	-0.07298295
70	0x3e894c4f	0.2681603
71	0x3e2c5836	0.16830525
72	0xbf84876a	-1.0353825
73	0x3d3c9110	0.04603678
74	0xbece4a27	-0.4029095
75	0x3f0eeea1	0.5583287
76	0xbe728a54	-0.2368558
77	0x406b8f83	3.6806343
78	0xc0662853	-3.5962112
79	0xbfe013e6	-1.7506073
80	0xbfb32125	-1.399449
81	0x3e3fbb54	0.18723804
82	0xbe831d5e	-0.25608343
83	0xc02a5cfc	-2.6619253
84	0xc0238f13	-2.5556076
85	0xbe3564b0	-0.1771419
86	0x3e91924c	0.28431928
87	0xbf2b610e	-0.6694497
88	0x3d11e5c2	0.035619505
89	0xbf948844	-1.1604085
90	0x404c5f43	3.1933143
91	0x3d16d208	0.036821395
92	0xbe1df734	-0.15426332
93	0xbec89780	-0.39178085
94	0x3e2bb93d	0.16769882
95	0xbfa6b7fd	-1.3024899
96	0xbf064692	-0.5245143
97	0xbfb9311a	-1.446811
98	0x3e8491f2	0.25892597
99	0x3be822f3	0.0070842444
100	0x3d2cfae2	0.042231448
101	0xbdec81c7	-0.115481906
102	0xbe509bb4	-0.20371896
103	0xbea5dbc4	-0.3239423
104	0xbc449664	-0.011998747
105	0x3e07bf83	0.1325665
106	0x3e614ca6	0.22001895
107	0x3d44ac2a	0.04801575
108	0x3d94a693	0.07258334
109	0xbecc39fd	-0.39887992
110	0x3dc1c2e5	0.09461001
111	0xbf01b0dc	-0.5066049
112	0xbe6acfa5	-0.22930773
113	0xbf648a40	-0.8927345
114	0x3f2541f0	0.6455374
115	0x3e78b899	0.24289168
116	0x3f4c90e9	0.79908615
117	0xc0993cd4	-4.7886753
118	0xc032097d	-2.781829
119	0x3f09fb46	0.5389904
120	0x3f9b8608	1.2150278
121	0xbf9e9a32	-1.2390807
122	0xc0897aa1	-4.2962193
123	0xc048c963	-3.1372917
124	0xc0132073	-2.2988555
125	0xbfc23380	-1.5171967
126	0x3fc0ee3b	1.5072702
127	0x3f90b2ac	1.1304526
128	0xbef60771	-0.48052552
129	0x3d921885	0.07133583
130	0x3d106481	0.035252098
131	0xbf01b1c4	-0.50661874
132	0x401a4cb2	2.410931
133	0xbd4e19f3	-0.050317716
134	0xbf56c7e9	-0.8389879
135	0xbf605469	-0.876288
136	0xbeeccea1	-0.46251395
137	0xbf293b96	-0.66106546
138	0x3d6a13f9	0.057147954
139	0xbf5e0d3f	-0.8673896
140	0xc01acd78	-2.4187908
141	0x3f0c5f88	0.5483327
142	0x3f9486d6	1.1603649
143	0x3f3c37de	0.73522747
144	0xc026c7ba	-2.6059403
145	0xc05d1b2b	-3.4547832
146	0x3d956456	0.07294528
147	0x3e90d1c7	0.28285047
148	0xbebb4c90	-0.3658185
149	0x3f4b8352	0.79497254
150	0xc0b980ba	-5.7969637
151	0x40281acd	2.6266358
152	0x3e08c379	0.13355817
153	0x3dd5eac8	0.104451716
154	0xc069f730	-3.6557121
155	0xbe8e0964	-0.2774154
156	0x3e3d5e0e	0.1849291
157	0xbfb9bc18	-1.4510527
158	0x3f8376c3	1.0270618
159	0x3f83f4e0	1.0309105
160	0x3f022f5c	0.50853515
161	0xbf61bda1	-0.88179976
162	0xc03666cb	-2.850024
163	0xbf90ab25	-1.1302229
164	0x3e58bbb6	0.21165356
165	0x3ed75b6a	0.4206193
166	0x3f9e8a4d	1.2385956
167	0x3fc766c6	1.5578239
168	0x3eff100e	0.49816936
169	0xc00ae531	-2.1702387
170	0xc039f911	-2.9058268
171	0xbf4062f1	-0.7515097
172	0x3ea394a4	0.3194934
173	0xbbfa0ac1	-0.0076306765
174	0xbe8596cd	-0.26091614
175	0xbe50b4f2	-0.20381525
176	0xbeff0259	-0.4980648
177	0xbfe1c5fa	-1.7638543
178	0xbe0cd28c	-0.13752192
179	0x3e95acc1	0.29233363
180	0xbfd69aa9	-1.6765949
181	0x3fec56be	1.8463972
182	0xbfccc120	-1.5996437
183	0x3e9e16d4	0.3087679
184	0x4019b969	2.4019415
185	0xc09b1e85	-4.8474755
186	0xbe4581d6	-0.1928781
187	0x3f9813a2	1.1880991
188	0xbf8b01ca	-1.0859921
189	0x3f17ecfa	0.5934597
190	0xbf9f1c77	-1.2430562
191	0xc02b8da1	-2.6805193
192	0x3f17bcb0	0.5927229
193	0xbfcc7024	-1.5971723
194	0xc06263fd	-3.5373528
195	0x3f8c4fc6	1.0961845
196	0x3f9205fa	1.1408074
197	0xbe052da3	-0.1300569
198	0xbfb5b583	-1.4196018
199	0x3fae1eac	1.360311
200	0xbfef1576	-1.8678424
201	0x3f127f32	0.57225335
202	0xbed87b1d	-0.42281428
203	0x3fe0b863	1.755627
204	0x3fa01775	1.2507159
205	0xbf55e10f	-0.8354654
206	0xbfc3328f	-1.5249804
207	0x3e905758	0.28191638
208	0xc0a57480	-5.170471
209	0xbe81e455	-0.25369516
210	0x3e68b011	0.22723414
211	0xbec694c0	-0.38785362
212	0xbe6b56ac	-0.22982281
213	0x3f1a1fbb	0.60204667
214	0xbf09e6e7	-0.53867954
215	0xbf4acbcb	-0.79217213
216	0x3fc55f7a	1.5419762
217	0x3fbea99d	1.4895512
218	0x3f3391c0	0.7014427
219	0xbf5f9e3e	-0.87350833
220	0x3d89e2b0	0.0673269
221	0x3f1b96d1	0.60777
222	0xbf45c9ce	-0.77261055
223	0x3fedd776	1.8581378
224	0xbffc1cde	-1.969631
225	0xbf4d3177	-0.801536
226	0xbf68586a	-0.9075991
227	0xbe906703	-0.28203592
228	0x3e79b273	0.24384479
229	0xbe48c061	-0.19604637
230	0x3f4c966c	0.79917026
231	0xbf6aa47b	-0.9165723
232	0xbe166b23	-0.14689307
233	0x3d10a0f3	0.035309743
234	0xbe46e172	-0.19421938
235	0x3e495f62	0.19665292
236	0x3ca8c0ca	0.020599741
237	0xbdf73ca0	-0.1207211
238	0xbe2095b1	-0.15682103
239	0xbe7a2cc4	-0.24431139
240	0xbe8df816	-0.27728337
241	0xbdf13307	-0.11777311
242	0xbe413b04	-0.18870169
243	0xc082d7c6	-4.0888395
244	0xbf2142cc	-0.6299255
245	0x3f976c28	1.1829882
246	0xbe9d74bb	-0.3075312
247	0x3f0d1fec	0.55126834
248	0xbe92d764	-0.28679955
249	0x3ce901a9	0.028443174
250	0x3feb3b6f	1.8377513
251	0xbf4220c7	-0.75831264
252	0x3e08d01b	0.13360636
253	0x3f91e7d5	1.1398875
254	0x3d929734	0.07157746
255	0xbeee1ff8	-0.46508765

conv1.0.bias f4 [64]
0	0x3f1ecd84	0.6203234
1	0x40402990	3.0025368
2	0xc02d6243	-2.7091224
3	0x4067eed0	3.623951
4	0xc0932c02	-4.599122
5	0xbe86b5dc	-0.26310623
6	0xbd149081	-0.036270622
7	0xbca62e47	-0.020285739
8	0x3fa6e46e	1.3038461
9	0x3f841ae5	1.0320708
10	0xbf9dd634	-1.2330995
11	0xbdd716bc	-0.10502383
12	0xbd96ec6e	-0.07369314
13	0x3f75406c	0.95801425
14	0xbffa9649	-1.9577113
15	0x3f03c80d	0.5147713
16	0xbfc3cd73	-1.5297073
17	0x3f58b276	0.8464731
18	0x3fd327c1	1.6496507
19	0xbf406f1c	-0.7516954
20	0x402ec4e6	2.7307677
21	0xc0962494	-4.691965
22	0x3f458eb7	0.7717089
23	0x3f92c950	1.1467686
24	0x3fb73654	1.4313455
25	0x3eb2a94d	0.3489479
26	0xbd04f3f6	-0.03245922
27	0x3fcdb8b4	1.6071992
28	0x3ddb38b2	0.10704173
29	0x4063d6f3	3.5599945
30	0x3f8a62d0	1.0811405
31	0xbfec702f	-1.8471736
32	0xbd021ac4	-0.031763807
33	0x3dd9338f	0.10605537
34	0xbe220ecf	-0.15825962
35	0x4001bd0a	2.027163
36	0x3eb7f308	0.35927606
37	0xbf338a1f	-0.7013263
38	0x4027676e	2.6156878
39	0xbf09a6a4	-0.537699
40	0x40696819	3.6469786
41	0x00000000	0.0
42	0xbef3fa75	-0.4765202
43	0x4079f679	3.9056685
44	0xc02418a1	-2.5640032
45	0xbf1714f0	-0.59016323
46	0xc0315b7f	-2.7712095
47	0xc00dbd76	-2.2146888
48	0xbd90913c	-0.07058951
49	0x3f5f3c6d	0.8720158
50	0xbe083169	-0.13300098
51	0x3f883b82	1.064316
52	0xc03cf33c	-2.9523458
53	0xbea2e62d	-0.31816235
54	0x3e8de657	0.27714798
55	0x3f19273c	0.5982549
56	0x3e8172d9	0.25282934
57	0x3f0eb512	0.5574504
58	0xbf0bdb83	-0.54631823
59	0x3ebaecb9	0.3650873
60	0x3f71e9f5	0.94497615
61	0xbf3584c8	-0.70905733
62	0xbea264df	-0.31717584
63	0x00000000	0.0

conv2.0.weight f4 [64, 64]
0	0x3d5230f9	0.051316235
1	0x3d29a05c	0.041412696
2	0x3d4bf385	0.049792785
3	0x3dae5ce2	0.0851381
4	0xbe9be38d	-0.30447045
5	0x3d63846e	0.055546217
6	0x3d778da4	0.060437813
7	0x3e2b472d	0.1672637
8	0xbe65954b	-0.22420232
9	0x3e38eeed	0.18059893
10	0xbdef22c0	-0.1167655
11	0x3e4cc41f	0.1999669
12	0x3df4bc96	0.119500324
13	0x3df86353	0.121283196
14	0xbcd47c63	-0.025938218
15	0xbe05fd41	-0.1308489
16	0x3e2ab127	0.16669141
17	0xbe24c7a3	-0.1609178
18	0xbe205548	-0.15657532
19	0xbdb84820	-0.08998132
20	0xbe6becf7	-0.23039614
21	0xbe20a514	-0.15687972
22	0xbe00fb08	-0.12595761
23	0x3d86e4a6	0.0658658
24	0xbe808680	-0.25102615
25	0xbd5a5fd9	-0.053314064
26	0xbdf4bd53	-0.11950173
27	0xbd675e4d	-0.056486417
28	0x3c967888	0.01836802
29	0xbe43a31b	-0.19105189
30	0xbe59cbe5	-0.21269186
31	0xbe764400	-0.24049377
32	0xbe4e09c9	-0.2012092
33	0xbda4462a	-0.08021195
34	0x3a879800	0.0010344982
35	0xbd53f833	-0.051750373
36	0xbe8d69a2	-0.27619654
37	0xbd8b3c2e	-0.06798588
38	0xbe50505b	-0.20343153
39	0xbe1bf05f	-0.15228413
40	0xbe9d8959	-0.3076885
41	0xbd823778	-0.06358236
42	0x3df5a08a	0.11993511
43	0x3d1da712	0.03848941
44	0xbe8b3c9d	-0.27194682
45	0xbe39b15c	-0.18134063
46	0x3c7aea38	0.015314631
47	0xbe065057	-0.13116585
48	0x3d93c46a	0.072151974
49	0xbe1d863e	-0.1538324
50	0x3bff2e40	0.007787496
51	0x3ddf8e9f	0.10915875
52	0xbd26bfa4	-0.040710106
53	0xbe740244	-0.2382899
54	0xbe0e85fc	-0.13918298
55	0x3c399d5d	0.011329022
56	0xbd75a1c1	-0.059968714
57	0xbe4323cc	-0.19056624
58	0xbbdac23c	-0.0066759866
59	0xbd7f0403	-0.062259685
60	0x3dfe2546	0.12409453
61	0x3cf68169	0.030091004
62	0xbdd860bb	-0.10565325
63	0x3d02eb58	0.031962723
64	0x3f0733ba	0.52813303
65	0x3ef0752e	0.469644
66	0xbe2bd473	-0.16780262
67	0xbf871ae7	-1.0555085
68	0x3f3482a0	0.7051182
69	0x3f19b789	0.6004568
70	0xbe16fcf6	-0.14744934
71	0xbd4000e8	-0.046875864
72	0xbef1d13c	-0.47229946
73	0xbf30f2b0	-0.6912031
74	0x3f413888	0.75476885
75	0x3e0c646c	0.13710183
76	0xbefb65c0	-0.49101067
77	0x3eac70e3	0.33679876
78	0x3e47fc3c	0.19529814
79	0x3e127850	0.14303708
80	0x400375af	2.0540578
81	0x4026bd45	2.605302
82	0x3f8331b8	1.0249548
83	0x3f6283a3	0.8848211
84	0xbf3db635	-0.7410615
85	0x3f7e2fb2	0.9929153
86	0x3f0ec3bf	0.55767435
87	0xbf9947f3	-1.1975082
88	0xbd699c74	-0.05703397
89	0x3f6cfdee	0.92574966
90	0xbcc8ccfb	-0.024511805
91	0xbf4aac60	-0.79169273
92	0x3f3e78a4	0.74402833
93	0x3f7b9dda	0.9828774
94	0x3f1907e8	0.5977769
95	0xbebbf1b1	-0.36707833
96	0x3dae7870	0.085190654
97	0x3e20bb30	0.15696406
98	0xbe1c3d4b	-0.15257756
99	0xbedc61a9	-0.4304326
100	0x3f6d546f	0.9270696
101	0x3e68de82	0.2274113
102	0xbe913635	-0.2836167
103	0xbfef4576	-1.8693073
104	0xbeb81d42	-0.35959822
105	0x3e14821f	0.14502762
106	0x3f502df9	0.8132015
107	0x3fa5a09b	1.2939638
108	0xbf7728d5	-0.9654668
109	0x4083c6bf	4.118011
110	0x3fb1621b	1.3858064
111	0xbf35c583	-0.71004504
112	0xbe96f2d7	-0.29482147
113	0xbfb5acd3	-1.4193367
114	0xbd4ee9b8	-0.05051586
115	0x40447abb	3.0699909
116	0x3f013d8d	0.50484544
117	0x3eeef225	0.46669117
118	0x3efd7da5	0.49509922
119	0xbea3f96a	-0.32026225
120	0xbf289bb1	-0.65862566
121	0x3f9544db	1.1661638
122	0x3ec2254c	0.3791908
123	0xbcf29dc3	-0.029616242
124	0x3f4a211f	0.7895679
125	0x3fda7d33	1.7069458
126	0x3f9fb2b7	1.2476414
127	0x3de2c34e	0.11072408
128	0xc03e4db2	-2.9734921
129	0x3f7d4f48	0.989491
130	0x3e282adf	0.16422604
131	0xbf16dc81	-0.5893021
132	0xbfae76f7	-1.3630055
133	0x3f20a924	0.6275809
134	0x3defbe6a	0.117062405
135	0xbe21b9d1	-0.1579354
136	0xbeecee75	-0.46275678
137	0xbffd2def	-1.9779643
138	0xbef08bd3	-0.46981677
139	0xbe3d9a15	-0.18515809
140	0xbf10d7b8	-0.5657916
141	0x403b890f	2.9302404
142	0x3f594f77	0.8488688
143	0x4047add5	3.1199849
144	0xbfd6c5b9	-1.677909
145	0x3d7085a0	0.058721185
146	0xbfc538e3	-1.5407985
147	0x3f8e1849	1.1101161
148	0xbf3476c1	-0.70493704
149	0x402f8355	2.7423909
150	0xbfc10d82	-1.5082247
151	0xbf3e6a6b	-0.7438113
152	0xbfde5fcb	-1.7372984
153	0xbf1edf1d	-0.62059194
154	0x3ce7117b	0.028206578
155	0xc032112e	-2.7822986
156	0xbf766ce6	-0.96259916
157	0x3e1829d2	0.14859703
158	0x3e056935	0.13028415
159	0x3f1f8d87	0.6232533
160	0x3d5296dc	0.051413402
161	0xbe03e495	-0.12880166
162	0xbd795611	-0.060873095
163	0xbd85b283	-0.06528189
164	0xbd8a2725	-0.067457475
165	0xc0a6f5eb	-5.2175193
166	0x3fcbae6e	1.5912607
167	0xc02614fb	-2.5950305
168	0xbf949d4b	-1.1610502
169	0x3df9f236	0.12204401
170	0xbe8e3183	-0.2777215
171	0x3f155b83	0.5834276
172	0x403af973	2.9214752
173	0x406ece22	3.7313313
174	0x3e4aeb48	0.19816315
175	0x3fe59b77	1.7938069
176	0xbdc3d026	-0.095611855
177	0x3df2c3c2	0.11853744
178	0x3df10343	0.117682
179	0x3d52e63d	0.051489104
180	0x4064a346	3.5724654
181	0xc01f4efc	-2.4891958
182	0xbb6d26e7	-0.0036186518
183	0xbe0b16e9	-0.13582958
184	0x3f83093b	1.0237192
185	0x3fbdb66a	1.4821293
186	0x3e4310a3	0.19049315
187	0x3edc8ca0	0.43076038
188	0x3e278bed	0.16361971
189	0x403ba69c	2.932044
190	0x3e91ad9d	0.2845277
191	0x3d60cfec	0.05488579
192	0x3f183510	0.59455967
193	0x3f80964b	1.0045866
194	0xbe0a2a8e	-0.13492796
195	0xbfbd45a4	-1.4786878
196	0xc0240409	-2.5627463
197	0xc02cf96b	-2.7027233
198	0xbe1c63d0	-0.1527245
199	0xbce49a60	-0.027905643
200	0x3f5aecb9	0.8551746
201	0x3f461cf0	0.77387905
202	0xbfc62d41	-1.548256
203	0x3e16379a	0.14669648
204	0x3e354ca7	0.17705022
205	0xbfb88824	-1.4416547
206	0xbf76a9da	-0.9635292
207	0xbf322cf0	-0.6959982
208	0xbfc1a847	-1.5129479
209	0x4071a063	3.7754142
210	0xbf58578b	-0.8450858
211	0x3e018daf	0.12651704
212	0xbe8cfee8	-0.27538228
213	0xbf357459	-0.7088066
214	0xbf40336c	-0.75078464
215	0x407ae73e	3.920364
216	0x3f8bee36	1.0932071
217	0x3f8f132f	1.1177729
218	0x3c4c7fc0	0.01248163
219	0x3eae2ea9	0.34019974
220	0xc0ad8fca	-5.4238024
221	0xbf2ef3fb	-0.68341035
222	0x3fd91dec	1.6962256
223	0xbee2ec5a	-0.44320947
224	0xbde63f53	-0.11242547
225	0x3f239237	0.6389498
226	0x3e53bf37	0.20678411
227	0xbffe1333	-1.9849609
228	0x3f4fb177	0.81130165
229	0xc02f6826	-2.7407317
230	0xbfe8d5cd	-1.8190247
231	0xbfcc11c5	-1.5942923
232	0x3f4b7c82	0.7948686
233	0x3e2a8e69	0.16655888
234	0x3fac2573	1.3448929
235	0xbff64701	-1.9240419
236	0xbfbbe881	-1.468033
237	0x3f454465	0.77057487
238	0x4020080c	2.5004911
239	0xbf2298db	-0.6351449
240	0x3fb20ee9	1.39108
241	0xbe048d1e	-0.12944457
242	0x3df870f7	0.12130921
243	0x400466a1	2.068764
244	0xc0d7414f	-6.7267222
245	0xbd9995cd	-0.07499275
246	0x3f4369e7	0.7633347
247	0x405946ba	3.3949418
248	0x3fadcc76	1.3578022
249	0x40cfef24	6.497942
250	0x3ea9b54a	0.33146125
251	0xbea60fc4	-0.32433903
252	0x4002f760	2.0463486
253	0x40a9e77d	5.309508
254	0x40142993	2.3150375
255	0xbd4d8ab4	-0.050181106

conv2.0.bias f4 [64]
0	0xbe41f60e	-0.18941519
1	0x40836180	4.105652
2	0x401387f7	2.3051736
3	0xc044a594	-3.072606
4	0xbfbbfa65	-1.4685789
5	0xc03cd7e8	-2.9506779
6	0x404fff68	3.2499638
7	0xbde581ec	-0.11206421
8	0x4006abb1	2.1042292
9	0xc09a8e0c	-4.8298397
10	0xc025d98d	-2.5914032
11	0xbe24421a	-0.1604084
12	0xbffe9ad2	-1.9890997
13	0xbac74557	-0.001520316
14	0xc011a25a	-2.2755342
15	0xbdb74fc5	-0.08950762
16	0x3df3fd27	0.11913519
17	0x3f0405f3	0.5157158
18	0xbfcf939a	-1.621692
19	0xbea3c413	-0.3198553
20	0xbe4644c7	-0.19362174
21	0x3fc3ca64	1.529614
22	0xbddce5dc	-0.1078603
23	0x40c8db16	6.276744
24	0x41031d7f	8.194701
25	0x3e334d49	0.1750995
26	0xbf79f25e	-0.9763545
27	0xbdccf872	-0.10008325
28	0xbf8eba50	-1.1150608
29	0xc041ee1f	-3.0301588
30	0xbfc6200f	-1.5478534
31	0x4009222c	2.1427107
32	0x408a58be	4.323333
33	0xbeb465ef	-0.3523402
34	0x40c76bad	6.231894
35	0x40a0c1dc	5.0236645
36	0x40940a70	4.626274
37	0xbf2a00ac	-0.66407275
38	0x40543aa1	3.3160784
39	0x3e16aede	0.14715144
40	0x3fa35189	1.2759258
41	0xbfe77851	-1.8083593
42	0x40a8ad4d	5.271155
43	0xbe1dc89a	-0.15408555
44	0x401303d2	2.2971082
45	0xbe76b1fa	-0.2409133
46	0x3fccbf8d	1.5995957
47	0x3e6007c8	0.21877968
48	0xc087a2f3	-4.2386413
49	0xbf880c06	-1.0628669
50	0xbdc6b772	-0.09702958
51	0xbdeb49b7	-0.11488669
52	0xc098c645	-4.774203
53	0xc022ebf6	-2.545652
54	0xc0cfedbd	-6.497771
55	0xc0495629	-3.1458838
56	0xbf15cf36	-0.58519304
57	0x3f165480	0.58722687
58	0xc014f4a8	-2.3274326
59	0xbe39d945	-0.18149288
60	0x3eaf31d5	0.34217706
61	0xbe484e8d	-0.19561215
62	0xc0bc0fde	-5.876937
63	0xbf26dc7e	-0.65180194

conv3.0.weight f4 [1, 64]
0	0xbd7330d6	-0.059372745
1	0x3f7a4506	0.9776157
2	0x4005dd81	2.0916445
3	0xc028f311	-2.6398356
4	0xc009a282	-2.1505437
5	0xc03cf95a	-2.9527192
6	0x3f6a015a	0.9140831
7	0x3cc97968	0.024594024
8	0x3f860f85	1.0473486
9	0xc02fa2b5	-2.7443058
10	0xbfaa0365	-1.3282286
11	0x3dc79dfc	0.0974693
12	0xc066ddd3	-3.607289
13	0xc0dc3f7f	-6.882751
14	0xc0c2d216	-6.0881453
15	0xbf19951c	-0.5999315
16	0xc0c6d57f	-6.2135615
17	0x3fd57c10	1.6678486
18	0x3fe2f5ef	1.7731303
19	0xbdebe1ba	-0.11517663
20	0xbcbd4d01	-0.023108007
21	0x4022c23f	2.5431058
22	0xbe00ec80	-0.12590218
23	0x402b09f4	2.6724825
24	0x40281978	2.6265545
25	0x3fb4b31f	1.4117163
26	0xc05f33af	-3.4875295
27	0x3ba462fd	0.005016683
28	0xc0ec7f77	-7.3905597
29	0xc09a73a8	-4.826618
30	0xc05c8481	-3.4455874
31	0x3fb4770c	1.409883
32	0x3f9c2882	1.2199862
33	0xbe414dbb	-0.18877308
34	0x4010d059	2.2627165
35	0x3f665d42	0.8998605
36	0x3f337a5a	0.7010857
37	0xbfbcd201	-1.4751588
38	0x3fbdcf3d	1.4828869
39	0xc05d18ae	-3.4546313
40	0x4046492b	3.0982158
41	0xbfb7bc52	-1.4354346
42	0x4089f3ce	4.3110113
43	0x3a4eade9	0.0007884191
44	0x4019d887	2.4038408
45	0xbde77120	-0.11300874
46	0x3f90e63b	1.1320261
47	0x3f83ca84	1.0296178
48	0xbfc4ade2	-1.5365565
49	0xc0476bea	-3.1159616
50	0xbc8fcfae	-0.017555084
51	0x3b5047e0	0.0031781122
52	0xbfcaf7bd	-1.5856854
53	0xc0380079	-2.8750288
54	0xbf806e5f	-1.0033683
55	0xc0f3623a	-7.6057405
56	0xc006dca6	-2.1072173
57	0x4029a43d	2.6506493
58	0xbfe645a5	-1.7990004
59	0xbd87719e	-0.06613468
60	0x401c7874	2.4448519
61	0xbd778ded	-0.060438085
62	0xbfc5ccf3	-1.545317
63	0xc00e2e92	-2.2215924
