dqn_results/results6x5/target_net.pth (torch, 21743 bytes, 5 tensors)

conv1.0.weight f4 [64, 9]
00000000: b2dc 13c0 6580 91bf 87bf 9abf 5e0b ed3e
00000010: 5b24 0a3f 48ff cfbf 140c 8d3f 5d53 1c3f
00000020: a6c5 fdbb a151 2f3f 438d cebf 6427 cebe
00000030: 485b 42be ac3c 013f bd69 0cc0 c1e3 0fbf
00000040: 20f6 11bf 434e 07be 6098 3f40 0149 853e
00000050: 54aa bdbe 1c95 2ebd ef26 30be 246b d73d
00000060: 779d aabd 5836 0c3f 377f 693c c99d 4a3f
00000070: 0952 60bf 1a97 ebbd 7769 d7be b653 03bf
00000080: 6afc c6be 3663 c13f 4248 5cbd 7643 183f
00000090: f9b0 34bc 2e19 d83f 5f62 a93e 56b2 4bbd
000000a0: 1169 09be 5a90 713e e8d2 d23d 428b bebe
000000b0: 2b24 0640 7eba f63e a8a3 2fbf eabe ccbf
000000c0: 9b38 073f 4aee 4e3d 8bfd 043f ca2f 7d3f
000000d0: ff72 22bf 5438 09c0 9c5c 5cbe 3216 713e
000000e0: e99e 6fbe b518 81be ed55 81be 0993 663e
000000f0: 7721 8fbe 1741 5fbe 409c b73d 461a babd
00000100: d4c4 83be 3934 ab3c 8060 34be 2664 4bbe
00000110: c05b a93c 1678 95bd 4f4c 893e 3658 2c3e
00000120: 6b87 84bf d382 3c3d ec4a cebe b2ed 0e3f
00000130: 7b8c 72be 5f8f 6b40 9228 66c0 6e14 e0bf
00000140: 5821 b3bf 9dc1 3f3e 5e1d 83be fc5c 2ac0
00000150: 138f 23c0 fc5f 35be 4c92 913e 0e61 2bbf
00000160: c2e5 113d 4488 94bf b05f 4c40 21f2 163d
00000170: 5af3 1dbe 0a94 c8be 1cc3 2b3e c0b7 a6bf
00000180: bb44 06bf 5530 b9bf c295 843e f322 e83b
00000190: e2fa 2c3d c781 ecbd b39b 50be c4db a5be
000001a0: 6496 44bc 83bf 073e a64c 613e 2aac 443d
000001b0: 38a0 943d cc39 ccbe 34be c13d 0ab1 01bf
000001c0: 93d1 6abe 2c8a 64bf d841 253f aab6 783e
000001d0: 9290 4c3f fb3c 99c0 8d09 32c0 70fa 093f
000001e0: d685 9b3f e399 9ebf a17a 89c0 64c9 48c0
000001f0: 8920 13c0 2e34 c2bf 41ee c03f 83b2 903f
00000200: e905 f6be 5a1d 923d 256f 103d d9b2 01bf
00000210: e14c 1a40 3d0b 4ebd e9c6 56bf 2456 60bf
00000220: c2cf ecbe 0f3d 29bf 40fe 693d 7a0e 5ebf
00000230: a2cd 1ac0 625e 0c3f ee85 943f 1836 3c3f
00000240: c3c7 26c0 481b 5dc0 c764 953d 8cd1 903e
00000250: 704c bbbe e482 4b3f ba80 b9c0 b41a 2840
00000260: 06c2 083e 6de3 d53d 92f7 69c0 030b 8ebe
00000270: ad58 3d3e bbbc b9bf 8976 833f 0df4 833f
00000280: f02d 023f 82bf 61bf ef66 36c0 0eab 90bf
00000290: fabb 583e 105b d73e 8b8a 9e3f c666 c73f
000002a0: a40d ff3e 59e5 0ac0 1cf9 39c0 f162 40bf
000002b0: a494 a33e c10a fabb cd96 85be f1b4 50be
000002c0: 5902 ffbe fac5 e1bf 8cd2 0cbe c0ac 953e
000002d0: 0c9b d6bf 0f57 ec3f ffc0 ccbf 1c18 9e3e
000002e0: 7cb9 1940 7c1e 9bc0 1580 45be 0d14 983f
000002f0: 5b01 8bbf eaed 173f 7e1c 9fbf 838d 2bc0
00000300: 19bd 173f e06f ccbf 3464 62c0 3250 8c3f
00000310: 3a06 923f 0e2c 05be 33b5 b5bf c41e ae3f
00000320: a915 efbf 3a7f 123f 537b d8be a3b8 e03f
00000330: 9b17 a03f 25e0 55bf bd32 c3bf 4856 903e
00000340: 8274 a5c0 c9e3 81be 94b0 683e bc94 c6be
00000350: 5c55 6bbe e41f 1a3f f6e6 09bf c4cb 4abf
00000360: 7a5f c53f 26aa be3f d892 333f 4e9d 5fbf
00000370: 16ec 893d f396 1b3f c7c9 45bf cdd7 ed3f
00000380: d51c fcbf 1d32 4dbf 2159 68bf ab68 90be
00000390: 52ae 793e 72c3 48be f595 4c3f 82a4 6abf
000003a0: ba6e 16be 6d97 103d 72e1 46be 625f 493e
000003b0: cac0 a83c a03c f7bd b195 20be c42c 7abe
000003c0: 16f8 8dbe 0733 f1bd 043b 41be dcd7 82c0
000003d0: 8d43 21bf 1f6c 973f 6475 9dbe 2c1f 0d3f
000003e0: 1ed7 92be 77ef e83c 2c3b eb3f ac21 42bf
000003f0: 60cd 083e 5ee7 913f 1d8c 923d e122 eebe
-2.3103452 -1.1367308 -1.20897 0.46297735 0.53961724 -1.6249781 1.1019311 0.610647
-0.007744509 0.6848393 -1.613686 -0.40264428 -0.18980134 0.504832 -2.1939538 -0.562069
-0.5701618 -0.13213448 2.9936752 0.2603226 -0.37044013 -0.04262267 -0.17202352 0.10518482
-0.08330815 0.5477042 0.014251522 0.7914701 -0.87625176 -0.1150343 -0.4207265 -0.5129961
-0.38864452 1.5108402 -0.053779848 0.5947794 -0.011028522 1.6882684 0.33082864 -0.04973062
-0.13418986 0.23590222 0.102941334 -0.3721562 2.0959575 0.48189157 -0.68609095 -1.5995762
0.5282075 0.05052022 0.51949376 0.98901045 -0.6345672 -2.144063 -0.21519703 0.23543623
-0.23400463 -0.25214162 -0.2526087 0.22517027 -0.2795522 -0.21802174 0.08965349 -0.090870425
-0.25736105 0.020898925 -0.17614937 -0.19862422 0.020673633 -0.07298295 0.2681603 0.16830525
-1.0353826 0.0460232 -0.40291536 0.55831444 -0.23686402 3.6806257 -3.5962262 -1.7506235
-1.3994551 0.18726201 -0.25608343 -2.6619253 -2.5556076 -0.17712396 0.28431928 -0.6694497
0.035619505 -1.1604085 3.1933403 0.036852006 -0.15424863 -0.39175445 0.16773647 -1.3024826
-0.52448624 -1.4467875 0.25895506 0.0070842444 0.042231448 -0.115481906 -0.20371895 -0.3239423
-0.011998747 0.1325665 0.22001895 0.04801575 0.07257122 -0.39887846 0.094601065 -0.50660765
-0.22931509 -0.89273334 0.64553595 0.24288431 0.79908097 -4.788694 -2.781833 0.5389776
1.2150218 -1.2390712 -4.2962193 -3.137292 -2.2988608 -1.5172174 1.5072709 1.1304477
-0.48051384 0.071345046 0.035262246 -0.50663525 2.4109423 -0.050303686 -0.8389726 -0.8763144
-0.46252257 -0.66108793 0.057127237 -0.8674084 -2.4188008 0.54831517 1.1603372 0.7352004
-2.6059425 -3.45479 0.072946124 0.28284872 -0.36581755 0.794966 -5.7969637 2.6266298
0.13355264 0.10443769 -3.6557355 -0.27742776 0.18490858 -1.4510721 1.0270549 1.0308853
0.50851345 -0.8818284 -2.8500326 -1.1302202 0.21165457 0.42061663 1.238603 1.5578239
0.49815094 -2.1702483 -2.9058294 -0.7515097 0.3194934 -0.0076306765 -0.26091614 -0.20381524
-0.4980648 -1.7638543 -0.13752192 0.2923336 -1.6766067 1.8464068 -1.5996398 0.3087777
2.401946 -4.847471 -0.1928714 1.1881119 -1.0859789 0.59347403 -1.243057 -2.6805122
0.59272915 -1.5971642 -3.537366 1.0961974 1.140815 -0.13005087 -1.4195923 1.3603139
-1.8678485 0.5722538 -0.4228159 1.7556347 1.2507204 -0.8354514 -1.5249859 0.28190827
-5.170472 -0.253691 0.22723609 -0.3878535 -0.22981781 0.6020491 -0.53868043 -0.7921717
1.5419762 1.4895675 0.7014594 -0.873494 0.06734483 0.60777205 -0.7726101 1.8581482
-1.9696299 -0.8015459 -0.90761 -0.28204855 0.24382904 -0.19605806 0.79916316 -0.9165727
-0.14690676 0.03530066 -0.19421938 0.19665292 0.020599741 -0.1207211 -0.15682103 -0.24431139
-0.27728337 -0.11777311 -0.18870169 -4.08885 -0.629937 1.1829871 -0.30753624 0.5512569
-0.28679746 0.028434498 1.8377433 -0.7583263 0.13359594 1.1398733 0.07155631 -0.46510985

conv1.0.bias f4 [64]
00000000: 1ecd 1e3f 8129 4040 8462 2dc0 86ee 6740
00000010: e42b 93c0 d6b4 86be 8190 14bd 472e a6bc
00000020: 2ce4 a63f 4a1b 843f 2ad5 9dbf bc16 d7bd
00000030: 56f1 96bd 8a40 753f e795 fabf 96c6 033f
00000040: 70cd c3bf 70b1 583f f427 d33f 1c6f 40bf
00000050: f3c4 2e40 8024 96c0 9b8e 453f 5ac9 923f
00000060: e136 b73f 9ca7 b23e f6f3 04bd 6cb8 cd3f
00000070: 9b2b db3d ecd6 6340 be62 8a3f 1770 ecbf
00000080: c41a 02bd 8f33 d93d cf0e 22be 0cbd 0140
00000090: 08f3 b73e ac88 33bf b967 2740 e4a6 09bf
000000a0: 2868 6940 0000 0000 d3fc f3be 8ef6 7940
000000b0: a418 24c0 f314 17bf bd5b 31c0 4dbd 0dc0
000000c0: 5e9e 90bd 683c 5f3f 6931 08be f63b 883f
000000d0: 2ff3 3cc0 d4e7 a2be 57e6 8d3e d226 193f
000000e0: 5471 813e 9fb5 0e3f bedc 0bbf b9ec ba3e
000000f0: 58e9 713f c584 35bf 7a64 a2be 0000 0000
0.62031734 3.0025332 -2.709138 3.6239333 -4.5991077 -0.26309842 -0.036270622 -0.020285739
1.3038383 1.0320828 -1.2330678 -0.10502383 -0.0737025 0.95801604 -1.9576997 0.51474893
-1.529707 0.8464575 1.6496568 -0.7516954 2.7307708 -4.6919556 0.77170724 1.1467698
1.4313623 0.348935 -0.03245922 1.6071906 0.107016765 3.5599928 1.0811384 -1.8471707
-0.031763807 0.10605537 -0.15825962 2.0271635 0.35927606 -0.7013042 2.6157057 -0.5377028
3.6469822 0.0 -0.47653827 3.9056735 -2.564004 -0.5901634 -2.7712243 -2.214679
-0.07061456 0.8720155 -0.13300098 1.0643299 -2.9523427 -0.31817496 0.27714798 0.5982486
0.25281775 0.5574588 -0.546337 0.3650873 0.9449668 -0.70905715 -0.31717283 0.0

conv2.0.weight f4 [64, 64]
00000000: f930 523d 5ca0 293d 84f3 4b3d e25c ae3d
00000010: 8de3 9bbe 6e84 633d a48d 773d 2d47 2b3e
00000020: 4b95 65be ecee 383e c022 efbd 1fc4 4c3e
00000030: 96bc f43d 5363 f83d 637c d4bc 41fd 05be
00000040: 27b1 2a3e a3c7 24be 4855 20be 1f48 b8bd
00000050: f7ec 6bbe 14a5 20be 08fb 00be a6e4 863d
00000060: 8086 80be d95f 5abd 53bd f4bd 4d5e 67bd
00000070: 8878 963c 1ba3 43be e4cb 59be 0044 76be
00000080: c909 4ebe 2a46 a4bd 0098 873a 33f8 53bd
00000090: a269 8dbe 2d3c 8bbd 5b50 50be 5ff0 1bbe
000000a0: 5989 9dbe 7837 82bd 8aa0 f53d 12a7 1d3d
000000b0: 9d3c 8bbe 5cb1 39be 38ea 7a3c 5750 06be
000000c0: 6ac4 933d 3e86 1dbe 402e ff3b 9f8e df3d
000000d0: a4bf 26bd 4402 74be fc85 0ebe 5d9d 393c
000000e0: c0a1 75bd cc23 43be 3cc2 dabb 0204 7fbd
000000f0: 4625 fe3d 6981 f63c bb60 d8bd 58eb 023d
00000100: 9532 073f 3276 f03e d2d2 2bbe bc1a 87bf
00000110: 4683 343f 8ab7 193f f6fc 16be e800 40bd
00000120: 7ed0 f1be caf3 30bf 9438 413f 6b64 0c3e
00000130: cd63 fbbe 8e72 ac3e cefd 473e 987a 123e
00000140: c875 0340 3bbd 2640 4b32 833f a383 623f
00000150: 09b7 3dbf ea2f 7e3f a9c2 0e3f 7b47 99bf
00000160: 6a99 69bd 6ffe 6c3f fbcc c8bc 89ac 4abf
00000170: 8478 3e3f d29d 7b3f 3808 193f 05f3 bbbe
00000180: 7078 ae3d 30bb 203e 4b3d 1cbe 1562 dcbe
00000190: 6e54 6d3f bddf 683e e534 91be 7645 efbf
000001a0: 891c b8be 1f82 143e 9b2e 503f bda0 a53f
000001b0: 5028 77bf b2c6 8340 7e61 b13f b5c5 35bf
000001c0: 1df0 96be 9cac b5bf b7e9 4ebd 797a 4440
000001d0: d73d 013f 60f2 ee3e a57d fd3e 24f9 a3be
000001e0: 919b 28bf 1645 953f 6425 c23e c39d f2bc
000001f0: 8621 4a3f 587d da3f a2b2 9f3f 4ec3 e23d
00000200: 914d 3ec0 944f 7d3f 1e2c 283e 13dc 16bf
00000210: 7f76 aebf 38a9 203f 6abe ef3d d1b9 21be
00000220: 8fee ecbe 7d2e fdbf ab8b f0be 149a 3dbe
00000230: efd6 10bf 0e89 3b40 e54f 593f 19ae 4740
00000240: 12c6 d6bf d780 703d 8e38 c5bf 4818 8e3f
00000250: 4277 34bf 5b83 2f40 8e0d c1bf 7069 3ebf
00000260: c05f debf e7de 1ebf 7a11 e73c 1811 32c0
00000270: ba6c 76bf 192b 183e d169 053e ea8d 1f3f
00000280: dc96 523d 95e4 03be 1156 79bd 12a4 85bd
00000290: 2427 8abd e6f5 a6c0 bfae cb3f fb14 26c0
000002a0: 139d 94bf 36f2 f93d eb30 8ebe b05b 153f
000002b0: 93f9 3a40 4bce 6e40 13e8 4a3e 829b e53f
000002c0: c1cd c3bd 00c6 f23d 4203 f13d f4ea 523d
000002d0: 56a3 6440 f44e 1fc0 e726 6dbb db13 0bbe
000002e0: 1409 833f a3b6 bd3f 2911 433e a08c dc3e
000002f0: 898d 273e a6a6 3b40 9bad 913e eccf 603d
00000300: 4a35 183f bd95 803f 682b 0abe 3a45 bdbf
00000310: 1b04 24c0 40f9 2cc0 cf63 1cbe 5f9a e4bc
00000320: daea 5a3f c11c 463f 702d c6bf 9a37 163e
00000330: a74c 353e 6b88 b8bf 29a9 76bf 032d 32bf
00000340: 5ea8 c1bf 83a0 7140 c158 58bf af8d 013e
00000350: d4ff 8cbe b473 35bf db32 40bf 3ce7 7a40
00000360: 0cee 8b3f c312 8f3f bf7f 4c3c d12e ae3e
00000370: ca8f adc0 5bf3 2ebf 271e d93f adea e2be
00000380: 533f e6bd 3792 233f 36bf 533e fd12 febf
00000390: 77b1 4f3f f367 2fc0 fbd5 e8bf 1812 ccbf
000003a0: 4a7c 4b3f 698e 2a3e f924 ac3f 8747 f6bf
000003b0: ffe7 bbbf 1645 453f 0c08 2040 9e98 22bf
000003c0: 240e b23f 8f8e 04be f670 f83d c566 0440
000003d0: 4741 d7c0 04a0 99bd e669 433f b346 5940
000003e0: 4fcc ad3f 26ef cf40 15b2 a93e c40f a6be
000003f0: 54f7 0240 88e7 a940 c129 1440 b38a 4dbd
0.051316235 0.041412696 0.04979278 0.0851381 -0.30447045 0.055546217 0.060437813 0.1672637
-0.22420232 0.18059891 -0.1167655 0.1999669 0.119500324 0.121283196 -0.025938218 -0.1308489
0.16669141 -0.1609178 -0.15657532 -0.08998131 -0.23039614 -0.15687972 -0.12595761 0.0658658
-0.25102615 -0.053314064 -0.11950173 -0.056486417 0.01836802 -0.19105189 -0.21269184 -0.24049377
-0.2012092 -0.08021195 0.0010344982 -0.051750373 -0.27619654 -0.06798587 -0.20343153 -0.15228413
-0.3076885 -0.06358236 0.11993511 0.03848941 -0.27194682 -0.18134063 0.015314631 -0.13116585
0.072151974 -0.1538324 0.007787496 0.10915875 -0.040710106 -0.2382899 -0.13918298 0.011329022
-0.05996871 -0.19056624 -0.0066759866 -0.06225968 0.12409453 0.030091004 -0.10565325 0.031962723
0.5281156 0.46965176 -0.1677964 -1.0555034 0.7051281 0.60045683 -0.14744934 -0.046875864
-0.4722938 -0.6912199 0.75476956 0.13710181 -0.4909958 0.33681148 0.19530413 0.14304578
2.0540638 2.6052997 1.0249723 0.8848211 -0.74107414 0.9929186 0.5576578 -1.1974939
-0.057031073 0.92575735 -0.024511805 -0.7916952 0.7440264 0.9828769 0.59778166 -0.36708847
0.085190654 0.15696406 -0.15257756 -0.4304358 0.92706954 0.227416 -0.28360668 -1.8693073
-0.3595927 0.14502762 0.81321114 1.2939678 -0.96545887 4.118005 1.3857877 -0.710048
-0.29480067 -1.4193301 -0.050515857 3.0699751 0.50484985 0.46669292 0.49509922 -0.32026017
-0.65862375 1.1661708 0.37919152 -0.029616242 0.789574 1.7069502 1.247639 0.11072408
-2.9734843 0.9894955 0.1642308 -0.58929557 -1.3629912 0.6275821 0.117062405 -0.1579354
-0.46275756 -1.9779812 -0.46981558 -0.18515807 -0.5657796 2.9302402 0.84887534 3.120001
-1.6779196 0.05871662 -1.5407884 1.110116 -0.70494473 2.7423923 -1.5082262 -0.74379635
-1.737297 -0.6205887 0.028206576 -2.7822933 -0.96259654 0.1486019 0.13028647 0.6232592
0.051413402 -0.12880166 -0.060873095 -0.065254346 -0.06745747 -5.217517 1.5912703 -2.5950305
-1.1610435 0.12204401 -0.27771696 0.5834303 2.9214828 3.7313411 0.19815092 1.7938082
-0.09560729 0.11854172 0.117681995 0.0514936 3.5724692 -2.489194 -0.0036186518 -0.13581793
1.0237145 1.4821361 0.19049515 0.43076038 0.16362585 2.9320464 0.28452763 0.05488579
0.5945631 1.0045696 -0.1349312 -1.4786751 -2.5627506 -2.702713 -0.15272449 -0.027905641
0.85514605 0.77387625 -1.5482616 0.14669648 0.17705022 -1.4416631 -0.9635187 -0.6959993
-1.5129507 3.7754219 -0.8451043 0.12651704 -0.2753893 -0.70879674 -0.750776 3.9203634
1.0932021 1.1177601 0.012481629 0.34020093 -5.4238024 -0.6834008 1.6962327 -0.44319668
-0.11242547 0.6389498 0.2067841 -1.9849545 0.81130165 -2.7407196 -1.8190302 -1.5943022
0.79486525 0.16655888 1.3448783 -1.9240578 -1.4680175 0.7705854 2.5004911 -0.63514125
1.3910565 -0.12945007 0.121309206 2.0687726 -6.7267184 -0.07501224 0.76333463 3.3949401
1.3577975 6.497943 0.33143678 -0.32433903 2.0463457 5.309513 2.3150485 -0.050181102

conv2.0.bias f4 [64]
00000000: 0ef6 41be 8961 8340 0f88 1340 ada5 44c0
00000010: 54fa bbbf f5d7 3cc0 99ff 4f40 ec81 e5bd
00000020: b2ab 0640 128e 9ac0 6cd9 25c0 1a42 24be
00000030: ed9a febf ac3b c7ba a1a2 11c0 6254 b7bd
00000040: 97ff f33d 8306 043f ad93 cfbf 13c4 a3be
00000050: c744 46be b5c9 c33f dce5 dcbd 20db c840
00000060: 7f1d 0341 fe4e 333e 1ef0 79bf 72f8 ccbd
00000070: 46ba 8ebf 64ee 41c0 be20 c6bf 2022 0940
00000080: c258 8a40 ef65 b4be b56b c740 e0c1 a040
00000090: 7d0a 9440 4801 2abf 723a 5440 2cb0 163e
000000a0: 6b51 a33f 6678 e7bf 3bad a840 9ac8 1dbe
000000b0: 0a04 1340 fab1 76be 17c0 cc3f bf02 603e
000000c0: 0ca3 87c0 fd0b 88bf 71b7 c6bd b649 ebbd
000000d0: 32c6 98c0 c2eb 22c0 d2ed cfc0 6a56 49c0
000000e0: 0ccf 15bf 0155 163f e6f4 14c0 45d9 39be
000000f0: 6d34 af3e 8c4e 48be eb0f bcc0 5cdc 26bf
-0.18941519 4.105656 2.3051794 -3.072612 -1.4685769 -2.950681 3.2499754 -0.11206421
2.1042295 -4.8298426 -2.5913954 -0.1604084 -1.989103 -0.0015200279 -2.275551 -0.089516416
0.11913984 0.51572436 -1.6216942 -0.3198553 -0.19362174 1.5295931 -0.1078603 6.2767487
8.194701 0.17510602 -0.97632015 -0.10008325 -1.1150596 -3.0301752 -1.5478742 2.1427078
4.3233347 -0.3523402 6.231898 5.0236664 4.6262803 -0.66408205 3.3160672 0.14715642
1.2759222 -1.8083618 5.2711463 -0.15408555 2.2971215 -0.2409133 1.5996121 0.21876048
-4.238653 -1.0628659 -0.097029574 -0.114886686 -4.774194 -2.5456395 -6.497781 -3.1458993
-0.58519053 0.58723456 -2.3274474 -0.18149288 0.34219685 -0.19561213 -5.876943 -0.6517999

conv3.0.weight f4 [1, 64]
00000000: d530 73bd 1345 7a3f 96dd 0540 26f3 28c0
00000010: 85a2 09c0 46f9 3cc0 6001 6a3f 6879 c93c
00000020: 8e0f 863f bda2 2fc0 5503 aabf fb9d c73d
00000030: b5dd 66c0 6f3f dcc0 efd1 c2c0 1695 19bf
00000040: 45d5 c6c0 0d7c d53f f4f5 e23f bae1 ebbd
00000050: 014d bdbc 16c2 2240 80ec 00be 060a 2b40
00000060: 6919 2840 7db3 b43f 0934 5fc0 fd62 a43b
00000070: 677f ecc0 8273 9ac0 1984 5cc0 1e77 b43f
00000080: 8928 9c3f ba4d 41be 58d0 1040 595d 663f
00000090: b17a 333f f7d1 bcbf 2ecf bd3f b918 5dc0
000000a0: 1749 4640 1fbc b7bf b4f3 8940 e9ad 4e3a
000000b0: 7ed8 1940 2071 e7bd bde6 903f 9ec9 833f
000000c0: 8aad c4bf f76b 47c0 aecf 8fbc df47 503b
000000d0: 8af7 cabf af00 38c0 286e 80bf 2062 f3c0
000000e0: b2dc 06c0 74a4 2940 4745 e6bf 9e71 87bd
000000f0: ac78 1c40 ed8d 77bd d3cc c5bf bd2e 0ec0
-0.05937274 0.9776165 2.0916495 -2.6398406 -2.1505444 -2.9527144 0.9140835 0.024594024
1.0473497 -2.7443078 -1.3282267 0.09746929 -3.607282 -6.8827434 -6.0881267 -0.5999311
-6.213534 1.6678482 1.7731309 -0.11517663 -0.023108007 2.543096 -0.12590218 2.6724868
2.626551 1.4117275 -3.487551 0.005016683 -7.390552 -4.8266 -3.4455626 1.4098852
1.219987 -0.18877307 2.2627163 0.8998619 0.7010909 -1.4751576 1.4828851 -3.454634
3.098211 -1.4354285 4.310999 0.0007884191 2.4038386 -0.11300874 1.1320416 1.0295904
-1.536546 -3.1159647 -0.017555084 0.003178112 -1.5856793 -2.8750417 -1.0033617 -7.605728
-2.1072202 2.6506624 -1.7989892 -0.06613468 2.4448652 -0.060438085 -1.5453132 -2.2216027
