dqn_results/results10x10/qnet.pth (torch, 21375 bytes, 5 tensors)

conv1.0.weight f4 [64, 9]
00000000: 7e58 cebf 2989 60c0 d272 8c3f 8305 babe
00000010: 1704 89be e628 50be e196 bbbf 5166 c7bc
00000020: 2aa0 fabe 1b60 0fbe f5b4 6c3e 8104 04be
00000030: 8abd a3be 4d7e 343d 3a78 7a3d be80 48bf
00000040: f3b1 34bf a6a6 6b3e 4288 2fbf 4dc5 3c3d
00000050: 0bde 9bbe 0672 05bc 0d7d 7c3c 8d52 a43e
00000060: 4d5e 3bbe 8f8d e9bc d047 873b 3156 56bf
00000070: 4f20 ea3e ff9b be3c 1ba5 d7be 9e46 083d
00000080: 0030 b039 21d6 503f 17c0 b5be 708c 93bf
00000090: a871 81bd 7683 a7bf a35a cebd 0a21 d93b
000000a0: 8b24 f8bd fced 40be 5df7 84bd d912 78be
000000b0: ee03 683e 22a9 d03e 3056 67c0 319a 3a3e
000000c0: ad64 82bf 4564 30bf 7963 223e c4d1 84c0
000000d0: e6db 52c0 e00c 65c0 5419 043e 4840 debf
000000e0: 3467 2dbe d38e 963d 5fb7 7a3e 9c7c 523c
000000f0: 2904 6bbd c9f8 e8bd 7a2b 50ba 81ae d3bf
00000100: cd78 333f 150e 793e ece9 a53e 1d91 c2be
00000110: bcba 263f aad8 4dc0 51fd 583f b940 79be
00000120: 6d6f 84c0 45fd dbc0 365f 3e3f 3fa2 be3d
00000130: 2339 913e 212b 803f af39 a4bf fb53 5dbc
00000140: fc83 cfbe 0667 91bd 978b 8abe 65c6 09be
00000150: 5cd9 40bd fc6c 66bd 4ce3 2dbe 9c99 77bd
00000160: 76f1 273e 003f 77be b4df 5fbe 9d88 d6be
00000170: 8b5b bcbd ceb5 6abd 77e0 923b 6de3 70be
00000180: bc2c 80be 35ce 84bd a3e6 bc3d a132 80c0
00000190: b46b 933f 6804 02be 8248 783e 3ad4 a33d
000001a0: 8d97 983f 7db6 48bf a3e6 543f 2e19 2e3f
000001b0: 3f95 0c3f fd10 1c40 5b81 29c0 62e2 d0bf
000001c0: 0072 3d3f cd07 44bf a8de 70c0 825d 17c0
000001d0: c50a 28c0 cb2a 303f f00f babf 994d d5be
000001e0: c90d f7be eee9 9ebd 2ff7 cabc 17cd cabe
000001f0: 8173 3bbf fa3e f8be 04e7 67be f37d 07be
00000200: f472 3e3d 7b19 74be 925b 15bc ee97 3bbe
00000210: c7f2 68be 1134 e4be a2c5 6dbf 0882 f2c0
00000220: ca27 3a3f b701 6cbf 168c ddbd 622f 4f3f
00000230: 8b9b 6bbf b164 7bbf 77b6 38bf 6859 e5bf
00000240: 9220 593e f734 33c0 ff5c 0d3f e615 20bf
00000250: 8675 c3be 2a60 003f 3cef 4dbf 917e 4c3c
00000260: 3349 7a3f a4a3 2d3d 6e02 8dbd 531a 6ebe
00000270: 96f5 c7be 07d3 68be 66d6 f9bd 2d23 ab3d
00000280: e8e4 ab3d fbdd 98be 58e8 51bd 9098 81bc
00000290: 68f6 c43d 2033 4bbe 0284 a7bd 83f5 64be
000002a0: 3824 a5bd d8a7 063e 227b d0bd af8d a33e
000002b0: f309 f0c0 3b84 2e3e fba2 00bf 8e58 2d3f
000002c0: 5d6a 123e 2f4c 32be 7439 ccbf 2217 ebbf
000002d0: 5b0d 03bf 5835 6d3f cc41 533f 455e 573e
000002e0: ad2a 1f3f 0de2 093f fb3f b03e 0a14 f6be
000002f0: 59a1 9abf 9e6e 6cbe a777 17be 0fc0 91be
00000300: 52d0 1abe 3404 acbd 962f 45be 3007 f9bc
00000310: 8e06 7ebe aed7 71be f3ab d3c0 c143 1bc0
00000320: 6521 013f c34c 623e 8181 ae3c 74e7 f03f
00000330: d982 d8be fa82 9d3f 2746 39c0 698f 893e
00000340: b913 56be 8b85 c8be e075 42be 375c cfbd
00000350: 09c9 19be 6055 5dbf 0eac b3be dedf aa3c
00000360: d7e0 d23f 76a1 7e3f 4997 a63e 1016 dbbc
00000370: 0f62 48be fea5 51bf 23a2 943e c8b8 a03d
00000380: d506 3e3f eda1 b53b 6eb3 3f3e 36c4 5fbe
00000390: 394b 34be 83ff 92bc 3655 62be 0090 18bf
000003a0: 28d2 08be 3424 aa3c e0d6 afbd 5af6 52be
000003b0: d881 d8bd 321c 7bbe ce82 5e3c 6ec3 5dbe
000003c0: 01c8 26be 809f acbe f789 92be b0f8 0fbd
000003d0: fc6f 2f3e 04af 9cbd 3038 a5bd f329 81be
000003e0: 04f8 8dbe 87cd 57be 91ac 9fbe bb46 73be
000003f0: 17c3 813d f8ea 6fbf a501 663e 4b2a 14bf
-1.6120756 -3.5083716 1.097254 -0.3633233 -0.26760933 -0.20328102 -1.465542 -0.02434078
-0.4895032 -0.14001505 0.23115905 -0.12892343 -0.31980544 0.044065762 0.061149813 -0.78321445
-0.7058403 0.2301279 -0.6856729 0.0460866 -0.30442843 -0.008144861 0.015410674 0.3209423
-0.18297692 -0.028509883 0.0041284338 -0.8372527 0.45727775 0.023267744 -0.42118153 0.03327047
0.000336051 0.81576735 -0.35498115 -1.1527233 -0.06320506 -1.3086994 -0.10075881 0.006626253
-0.12116345 -0.18840784 -0.06492493 -0.2422594 0.22657749 0.40754038 -3.6146355 0.18222882
-1.0186974 -0.68903 0.15858258 -4.150606 -3.2946715 -3.5789108 0.12900287 -1.7363367
-0.169339 0.0735146 0.24484013 0.012847092 -0.057377014 -0.11375577 -0.0007941049 -1.6537629
0.701062 0.24321778 0.3240503 -0.38001338 0.65128684 -3.2163491 0.8476153 -0.24341096
-4.138602 -6.8746667 0.7436403 0.0930829 0.28363904 1.0013162 -1.2830104 -0.013508792
-0.40530384 -0.07099728 -0.27059624 -0.13454588 -0.04708229 -0.05625628 -0.16981238 -0.060449228
0.16400704 -0.24145126 -0.2186268 -0.41901103 -0.09197148 -0.05730229 0.0044823247 -0.23524256
-0.2503413 -0.06484643 0.09223678 -4.0061803 1.1517243 -0.12696993 0.2424641 0.079994634
1.192125 -0.78403455 0.83164424 0.6800717 0.5491523 2.438537 -2.6485202 -1.6319087
0.74002075 -0.76574403 -3.7635899 -2.3650823 -2.6256573 0.68815297 -1.4536114 -0.41660765
-0.48252705 -0.07759462 -0.02477607 -0.39609596 -0.7322312 -0.48485547 -0.22646719 -0.1323164
0.046496347 -0.23837845 -0.00911607 -0.18319675 -0.22748862 -0.44570974 -0.9287969 -7.578373
0.72716963 -0.92190117 -0.10817735 0.80931675 -0.92034215 -0.9820052 -0.7215342 -1.791791
0.21203831 -2.8001077 0.55220026 -0.62533414 -0.381756 0.50146735 -0.8044317 0.012481348
0.97767943 0.042392388 -0.06885229 -0.2325223 -0.39054555 -0.2273675 -0.121990964 0.083563186
0.0839327 -0.29856858 -0.05124697 -0.015819818 0.09617311 -0.19843721 -0.08179475 -0.2235928
-0.08063549 0.13149965 -0.10179736 0.31944034 -7.5012145 0.1704263 -0.5024869 0.6771325
0.14298387 -0.17411874 -1.5955033 -1.8366435 -0.51192254 0.9265952 0.82522273 0.21032055
0.62174493 0.5386055 0.34423813 -0.48062164 -1.2080489 -0.23089072 -0.14791737 -0.28466842
-0.1511853 -0.08399239 -0.19256434 -0.030398935 -0.24807188 -0.23617432 -6.61474 -2.4260104
0.5044158 0.22099595 0.021301987 1.8820634 -0.4228733 1.2305596 -2.8949068 0.26867226
-0.20905961 -0.39164385 -0.18990278 -0.101250105 -0.15018095 -0.86458397 -0.35092205 0.020858701
1.6474866 0.9946512 0.32537296 -0.026743919 -0.19568656 -0.8189391 0.2902995 0.07847744
0.74229175 0.0055429847 0.1872079 -0.21852192 -0.1760682 -0.017944103 -0.22102818 -0.59594727
-0.13361418 0.020769216 -0.08585906 -0.20601788 -0.10571641 -0.24522474 0.013580991 -0.21656582
-0.16287233 -0.3371544 -0.28620884 -0.035149276 0.17132562 -0.07650569 -0.080673575 -0.25227317
-0.27728283 -0.21074496 -0.31186345 -0.2375745 0.063360386 -0.9371791 0.22461565 -0.57877034

conv1.0.bias f4 [64]
00000000: f154 aabf 6896 e8be 8d2d 2bbe 1d8d dfbe
00000010: 587f 58bd 19b8 91bd 746a 4641 54ca 0240
00000020: 6797 56be 0000 0000 40be 94be d172 38bd
00000030: dd25 96bf 5f06 35bf af16 133d 682f 7040
00000040: 8f7c 2dbf 1780 58be 0000 0000 4bc8 383f
00000050: 5e8e d3c0 0000 0000 0c43 b13f 6484 98be
00000060: 78e3 37c1 59db 40be 02bd 61be 9965 fabc
00000070: e97d f0bd 27b1 3dbe 485f 5cbe 944f 8440
00000080: 0000 0000 5a49 6240 f907 b8be 29a9 d8bd
00000090: 5425 43c0 0750 c23e 0000 0000 0000 0000
000000a0: d798 6b3f e62f 71be e668 51bd 5bad 4b40
000000b0: 4341 b740 5121 2dbf 7af4 26bf d268 25be
000000c0: 6b9e 42be e7fc 2ebf 3e81 403f 110d 0fbf
000000d0: 46dc e33d f1f7 c240 3220 f83f 9c1c 82bd
000000e0: c41a 8bbf 27d4 e9bf a545 903f 0ed2 58be
000000f0: 7e1e 4840 fc46 8ebc 438c 3d40 ca58 7dbe
-1.3307172 -0.4542725 -0.16716595 -0.43662348 -0.05285582 -0.07115192 12.40099 2.0435991
-0.20956193 0.0 -0.290514 -0.045031372 -1.1730305 -0.70712847 0.035910305 3.7528934
-0.67768186 -0.21142612 0.0 0.7218062 -6.611129 0.0 1.3848586 -0.29788506
-11.493034 -0.18833674 -0.22044757 -0.030566024 -0.117427655 -0.1852461 -0.21520722 4.134714
0.0 3.535727 -0.35943583 -0.1057914 -3.0491533 0.3795168 0.0 0.0
0.9203009 -0.23553428 -0.05112543 3.1824558 5.7267165 -0.6762896 -0.6521679 -0.16153267
-0.19005744 -0.6835465 0.7519721 -0.5587931 0.11125998 6.0927663 1.9384825 -0.06353113
-1.0867543 -1.8267869 1.1271254 -0.2117388 3.126861 -0.017367832 2.961686 -0.24740902

conv2.0.weight f4 [64, 64]
00000000: e1ae 59be b256 32be d79c 063e 50b6 6dbd
00000010: 384f 3a3e 2278 163e 5a60 81be 81f3 70bd
00000020: de06 4ebb d05a c7bc 514c b83d 9f98 6ebd
00000030: c842 a2bd 81ea 1d3d b9b5 6cbe d2cb 04be
00000040: 8c05 babd d8c9 0cbe e076 adbd 6003 94bd
00000050: c352 a8bd 4a5c 5abe aad2 d3bd 4482 67bd
00000060: da6a 20be 9fe4 58be 23c2 1d3e 2f34 1f3e
00000070: 1f71 d0bd 0073 1c3b acd2 353d 49f2 66bd
00000080: 58e8 cbbd d17e 8bbd 21f7 debd 00c9 bdbd
00000090: d10d 3cbe 00c8 97b8 16ad 47be 84ce 7f3d
000000a0: f56d 53bd ab32 363e 1b12 363e b0de 08be
000000b0: b571 b63d 1424 3dbd 72c6 893c 0869 4bbd
000000c0: e45e 4b3d d0fe 053e c2ef 17be 03c7 57be
000000d0: d6cc 15be 4bc7 be3d a353 02bd ffaa ebbd
000000e0: 8207 a53d b973 f93d fdd4 f73d dc9e 42be
000000f0: e1ca 5fbe ac06 a4bd 9ec0 9abc 202d c83b
00000100: 46f7 a7bf c3ce 413e 3433 2e3d 9e94 853d
00000110: 3eee 04be 531e 8ebe 0310 b53f 78b3 efbf
00000120: 6b9b d6bf e608 51be a160 2bbe b3b8 a2be
00000130: eddb e93e f7ee afbf b49f 3b3d f1e9 29c0
00000140: c7c6 9e3f 3530 0b3d 0905 543e 28aa b13f
00000150: 92f8 24bf 8801 073d 99ff 06c0 c8f6 0a3d
00000160: 3644 e9bf 15fe 2dbe 74e5 103d 9e3f f33d
00000170: 3221 eabe 0aba c23e f48a 6f3d 815f b13f
00000180: 0015 0ebb 37b2 173e 2b7e 0dbe e97e 4d3e
00000190: 362f 903f d602 1bc0 6c45 613d 1c6b 52be
000001a0: b1c0 c53e 81cd 943d d6a0 86bd 3fc1 efc0
000001b0: cd7c 553f 3a3e b4bd 0c75 903f ccff 37c0
000001c0: 7e49 cb3d 7865 26be 79e1 0ec0 bc10 cb3e
000001d0: eef3 cfbe 4fa9 03c0 b5a2 d1bf 01b4 313e
000001e0: 6426 ffbd e7a3 5bbd cab6 f73f ec11 17be
000001f0: 9b69 893f 51dd 12bc 5ce7 81be 45e0 2ebe
00000200: 6fcf 53bf a8f9 56be df86 dd3d b501 69be
00000210: 5883 183e 7a48 8b3e 07ad d13f aaaf 2c3f
00000220: f289 acbe 5c21 35bd 590d 103e 8274 0a3f
00000230: 8c66 8cbe 0e7d 01bf 76aa b93d 0419 acbf
00000240: 14e1 c7be 2556 4dbc 4e66 58be dddf 0dbe
00000250: 08ed 0ec0 10f2 453c 917e fabe 6200 913e
00000260: 3f4d 08bf 1bcc 87bd 7312 32bd 16e6 4abe
00000270: c6a5 f6be b01a 8cbd a05c 7f3d 2fec d73d
00000280: 50a0 8fbd 49eb 02bf d768 44bd b765 ac3d
00000290: 55df dabe 358e 273f e2e4 aa3d 802b 06be
000002a0: a5bb 01c0 33e9 343e 29dc 0b3d a2c4 d4bf
000002b0: e353 1e3f da24 13be 1170 d7bf 3121 0fbf
000002c0: 4e36 5f3e e433 a73d 4cc1 c7be 7cab 633f
000002d0: df9d ee3e 1f81 06bf 6b7b a7bd fb03 48be
000002e0: 3c89 70be 57b1 a8be d1e9 1cbf b2ec 9d3d
000002f0: d07a 413e 8a10 dc3d 30d6 42bd 5ad8 8ebe
00000300: 8140 193f 86ae 9a3e ca17 313e dd7b 173f
00000310: 7272 f23e df6c efbf c342 0e40 38e8 cabe
00000320: 6d77 5d3f 02d9 b43d d15f a1bd 89bc 24be
00000330: 5689 9ebf 1173 403e c0ea 8b3e f74d dbbd
00000340: eed9 7fbf cf5d 6a3e ffe0 3abe 2a73 893e
00000350: 7278 673e 1c9d 7e3d 3b55 36bf e064 c0bd
00000360: 7dc8 8dbe 4451 d53e cb28 6a3e 2a5d 2d3e
00000370: b1cf c0be c680 183e 8ac3 8a3e 2307 2a3f
00000380: b6eb 36be 0050 9d3e 2765 e43e a261 1f3e
00000390: 8ae2 4dbf 03cd 94be 3dbf f0bd 5c1c 65bd
000003a0: a83f 92bf 75e2 6e3d 6c1f b63d 83bc 0bbf
000003b0: 6d51 af3e 7d2d 1f3e d3ed 3bbe f15c e93e
000003c0: 9109 933d dca7 fb3c e6af 95be b17b 203e
000003d0: 57c8 4b3e 4c6a 8a3f 91c3 b83e 7b69 73bd
000003e0: cd54 e73e a070 c9bf 4b73 93bf 4994 1cbd
000003f0: 2e78 7c3f b920 023f fd34 5540 6cd5 673e
-0.21258117 -0.17415884 0.13145767 -0.058035195 0.18194282 0.14694265 -0.25268823 -0.058825973
-0.0031437199 -0.024335295 0.08998931 -0.05825102 -0.07922894 0.03855372 -0.23116197 -0.12968376
-0.09083089 -0.13748872 -0.08469939 -0.07227206 -0.082189105 -0.21324268 -0.10342915 -0.056520715
-0.1566576 -0.21180962 0.15406089 0.1554725 -0.10177826 0.0023872256 0.044390365 -0.056383405
-0.099564254 -0.06811298 -0.1088698 -0.09266853 -0.18364646 -7.237494e-05 -0.19499621 0.062452808
-0.051618535 0.17792766 0.17780344 -0.13366199 0.08908407 -0.046176985 0.016818259 -0.049660712
0.04965104 0.13085485 -0.14837554 -0.2107201 -0.1462892 0.09315356 -0.031818043 -0.11507224
0.080580726 0.121802755 0.12101171 -0.19005913 -0.21854736 -0.08009085 -0.018890675 0.006108895
-1.3122337 0.1892653 0.0425293 0.06522487 -0.12981507 -0.2775751 1.4145511 -1.8726645
-1.676618 -0.2041355 -0.1673608 -0.3178154 0.45675603 -1.3744801 0.0458066 -2.6549037
1.2404412 0.03398152 0.20705046 1.3880053 -0.6444179 0.032960445 -2.1093504 0.033926755
-1.8223941 -0.16991456 0.035375074 0.118773684 -0.4572845 0.38032562 0.058482125 1.385727
-0.0021679997 0.14814077 -0.1381766 0.20067944 1.1264408 -2.422048 0.054997846 -0.20548671
0.38623574 0.07265759 -0.06573646 -7.4923396 0.83393556 -0.08800931 1.128572 -2.8749876
0.09926127 -0.16249645 -2.2325118 0.39661205 -0.4061579 -2.0572088 -1.6377779 0.17353822
-0.12458494 -0.053623106 1.9352658 -0.1475293 1.0735353 -0.008963899 -0.25371826 -0.1707774
-0.82738394 -0.20993674 0.1081674 -0.22754557 0.14893854 0.27203733 1.6380929 0.6745554
-0.33698994 -0.044221267 0.14067592 0.54084027 -0.27421987 -0.50581443 0.09065716 -1.3445134
-0.39038908 -0.0125327455 -0.21132776 -0.13854928 -2.2332172 0.012081638 -0.48924688 0.28320605
-0.5324287 -0.06630727 -0.043474626 -0.19814333 -0.4817335 -0.06841028 0.062344193 0.10543095
-0.07012999 -0.51140267 -0.047951546 0.08417838 -0.42748514 0.65451366 0.08344437 -0.13102531
-2.027078 0.17667083 0.034145508 -1.6622508 0.6184675 -0.14369527 -1.6831075 -0.5591002
0.2179806 0.08164194 -0.3901466 0.8893354 0.4660482 -0.52540773 -0.08177837 -0.19532768
-0.23489851 -0.329478 -0.61294276 0.07711162 0.18894506 0.10745342 -0.047567546 -0.27899438
0.5986405 0.30211276 0.17294231 0.59173375 0.4735294 -1.87051 2.2228248 -0.39630294
0.86510354 0.088304535 -0.07879604 -0.16087545 -1.2385662 0.18793894 0.27327538 -0.1070823
-0.9994191 0.22887348 -0.18249892 0.26845676 0.2260454 0.06216155 -0.712238 -0.093942404
-0.27692023 0.41663563 0.22867124 0.1693007 -0.37658456 0.14892873 0.2710231 0.6641714
-0.17863354 0.30725098 0.44608423 0.15564588 -0.80423796 -0.29062662 -0.11755226 -0.05593525
-1.1425676 0.058321435 0.08892712 -0.5458452 0.3424181 0.15544696 -0.18352441 0.4557872
0.07179559 0.03071969 -0.29235762 0.15672185 0.19900642 1.0813689 0.36086705 -0.059426766
0.45181885 -1.5737495 -1.151956 -0.038227353 0.9862088 0.5083118 3.3313591 0.22640008

conv2.0.bias f4 [64]
00000000: 6c77 febd ffe4 f53f 074e 9b3f b7a7 6641
00000010: ae8f 4140 7431 93c0 fac4 243f f2f6 ae40
00000020: a2b3 49be f743 843e dbd4 e8bd 1dc3 6fbe
00000030: 5a79 dd3d d569 5540 143d 8fbe 4390 18c1
00000040: 36ae 34be 02e7 c7bd 5452 d0c0 7543 1940
00000050: 5c78 4f40 a52d ea3f 2f70 e23f ec5e b6c0
00000060: 02fa 783f 9835 bdbd 713f 5540 62a7 20c0
00000070: 0cb1 9cbe 14a6 46be 6ace 41c1 522e ffbd
00000080: 79dd 5fc0 a908 8740 b253 1ac1 6363 593f
00000090: d68b e7c0 3a6e 2040 7d18 a13f 0215 013e
000000a0: e38b 2abe d87b 483d 7873 e4c0 a486 1d41
000000b0: c9fe 77c0 fa30 703f fd6d 72bd be9b 183e
000000c0: e2dc 69bd 1225 ad40 f192 07be 2c83 8d40
000000d0: d9dc 88be 8092 92bd ab91 9fbe 8425 c140
000000e0: 7e98 6841 38dc ce40 014d 4240 a349 443f
000000f0: 946a 173f 8f41 ae3f 54da 1a40 2560 f6bf
-0.12425122 1.9210509 1.2133187 14.415946 3.0243945 -4.5997868 0.6436306 5.4676447
-0.1969743 0.25833103 -0.11368724 -0.23414274 0.108141616 3.3345845 -0.27976286 -9.53522
-0.17644581 -0.09760858 -6.51005 2.3947423 3.2417212 1.829518 1.7690486 -5.699087
0.9725648 -0.09238738 3.3319972 -2.5102162 -0.30603826 -0.19399291 -12.112894 -0.12460007
-3.4978926 4.219807 -9.645433 0.8491728 -7.23582 2.5067277 1.2585598 0.1260567
-0.16654925 0.04894623 -7.1390953 9.845371 -3.8749259 0.9382473 -0.059186924 0.14903161
-0.057095416 5.410775 -0.13239647 4.422262 -0.26730993 -0.07156849 -0.31165823 6.0358295
14.53723 6.464382 3.03595 0.7667486 0.59147 1.3613757 2.4195757 -1.9248091

conv3.0.weight f4 [1, 64]
00000000: 26b2 5f3b 0997 0640 0ca8 90c0 5199 4740
00000010: 36fa c73f 56cc 68bf 9db4 093f 5e0e cd3f
00000020: cefa b7bc 52e4 403e a8ff 2a3c 8e1e 20be
00000030: 56d2 ed3b 03e4 ca3f 3ab3 cc3b a378 abbf
00000040: 1dc2 04be 6e4e 97bd 1176 7cbf db3e 5940
00000050: 0c19 3c40 850a e03f 06cb b93e 28b8 cfbf
00000060: aff3 103d 9d61 47be b7c2 8b3f 918b 26bf
00000070: f22d fb3d eca0 d8bd 8147 c4bf dc3d 93bd
00000080: b1a1 10c0 9b73 ce3f ae6b 52c0 1676 0c40
00000090: e118 9fbf d8f9 c23f 99a2 a43f 0888 ce3f
000000a0: d7f3 c73d 59ae 013e 7d35 c3bf a546 4940
000000b0: d582 2fc0 a78a 963f 3e37 3cbc 5814 673d
000000c0: caa2 e93b dfe4 3840 c39a fb3c 26fb b03f
000000d0: 779a a93d e8cd f7bb 7b7b 54bc 05c5 3140
000000e0: 223d 2440 5282 8b40 beb5 5e40 8e3b 663f
000000f0: fd7e 813d c075 663f b1b1 603f 0a6c eebf
0.0034133284 2.1029685 -4.5205135 3.1187327 1.5623233 -0.9093679 0.5379122 1.602001
-0.02245846 0.18837097 0.01043693 -0.15636656 0.00725774 1.5850834 0.0062469514 -1.339619
-0.12964673 -0.07388006 -0.98617655 3.3944614 2.9390287 1.750321 0.36287707 -1.6228075
0.035388645 -0.1947083 1.0918797 -0.6505671 0.12264623 -0.105775684 -1.5334321 -0.07189533
-2.2598689 1.612903 -3.2878222 2.1947074 -1.2429467 1.5232496 1.2862121 1.6135263
0.09763306 0.12664165 -1.5250698 3.1449368 -2.7423604 1.1761063 -0.01148778 0.056415886
0.0071300017 2.8889692 0.030713445 1.3826644 0.08281415 -0.0075623877 -0.012968893 2.77765
2.5662313 4.3596582 3.4798427 0.89934623 0.06323049 0.9002342 0.87771136 -1.8626721
