dqn_results/results10x10/target_net.pth (torch, 21743 bytes, 5 tensors)

conv1.0.weight f4 [64, 9]
00000000: 7d58 cebf 2989 60c0 0c73 8c3f 9804 babe
00000010: 5c03 89be e628 50be a496 bbbf 5266 c7bc
00000020: 9d9f fabe 1b60 0fbe f5b4 6c3e 8104 04be
00000030: 89bd a3be 4d7e 343d 3a78 7a3d be80 48bf
00000040: f3b1 34bf a6a6 6b3e 4288 2fbf 4dc5 3c3d
00000050: 0bde 9bbe 0672 05bc 0d7d 7c3c 8d52 a43e
00000060: 4d5e 3bbe 8e8d e9bc d047 873b 3056 56bf
00000070: 4f20 ea3e ff9b be3c 1aa5 d7be 9e46 083d
00000080: 0030 b039 21d6 503f 16c0 b5be 708c 93bf
00000090: a871 81bd 7683 a7bf a35a cebd 0a21 d93b
000000a0: 8b24 f8bd fced 40be 5df7 84bd d912 78be
000000b0: ee03 683e b3a8 d03e 3056 67c0 f598 3a3e
000000c0: ce64 82bf 8364 30bf 7963 223e c7d1 84c0
000000d0: e6db 52c0 e80c 65c0 ea1a 043e 8c40 debf
000000e0: 1d66 2dbe b18e 963d bfb7 7a3e 0057 523c
000000f0: ac04 6bbd edfa e8bd d4c0 50ba c7ae d3bf
00000100: fb77 333f 9f0f 793e 54ea a53e 2291 c2be
00000110: bcba 263f 97d8 4dc0 aafd 583f cd3f 79be
00000120: 7b6f 84c0 42fd dbc0 0e5f 3e3f 6aa0 be3d
00000130: 7338 913e 212b 803f c139 a4bf 0d55 5dbc
00000140: 8683 cfbe 0667 91bd 978b 8abe 65c6 09be
00000150: 5cd9 40bd fc6c 66bd 4ce3 2dbe 9c99 77bd
00000160: 76f1 273e 003f 77be b4df 5fbe 9d88 d6be
00000170: 8b5b bcbd ceb5 6abd 77e0 923b 6de3 70be
00000180: bc2c 80be 35ce 84bd a2e6 bc3d a632 80c0
00000190: 516b 933f 5a04 02be 2b46 783e 2cd3 a33d
000001a0: a397 983f 2db7 48bf 10e6 543f ad18 2e3f
000001b0: 0694 0c3f fd10 1c40 9881 29c0 1fe3 d0bf
000001c0: cc71 3d3f cd07 44bf ebde 70c0 fa5d 17c0
000001d0: bd0a 28c0 422b 303f d90f babf 2b4d d5be
000001e0: 410d f7be 11e8 9ebd a4f7 cabc 8fcc cabe
000001f0: 1473 3bbf fa3e f8be 04e7 67be f37d 07be
00000200: f372 3e3d 7a19 74be 925b 15bc ee97 3bbe
00000210: c7f2 68be 1134 e4be a2c5 6dbf 0882 f2c0
00000220: 4428 3a3f fd00 6cbf 1a87 ddbd f72f 4f3f
00000230: 8b9b 6bbf f863 7bbf c5b4 38bf 6159 e5bf
00000240: c223 593e f734 33c0 805e 0d3f 9014 20bf
00000250: ab72 c3be 2a60 003f 9bee 4dbf 43a4 4c3c
00000260: 924a 7a3f a4a3 2d3d 6e02 8dbd 521a 6ebe
00000270: 96f5 c7be 07d3 68be 66d6 f9bd 2d23 ab3d
00000280: e8e4 ab3d fbdd 98be 58e8 51bd 9098 81bc
00000290: 68f6 c43d 2033 4bbe 0284 a7bd 83f5 64be
000002a0: 3824 a5bd d8a7 063e 227b d0bd c68f a33e
000002b0: f209 f0c0 ca84 2e3e eaa2 00bf 4858 2d3f
000002c0: 5d6a 123e 1c4b 32be 7d39 ccbf aa16 ebbf
000002d0: 3b0e 03bf 2134 6d3f bb40 533f dd57 573e
000002e0: 5029 1f3f cbe2 093f a73c b03e 8717 f6be
000002f0: f8a1 9abf 9e6e 6cbe a777 17be 0fc0 91be
00000300: 52d0 1abe 3304 acbd 962f 45be 3007 f9bc
00000310: 8e06 7ebe aed7 71be d6ab d3c0 8043 1bc0
00000320: 6c22 013f 8f51 623e b0a5 ae3c 3ee7 f03f
00000330: a180 d8be a683 9d3f e645 39c0 1c8f 893e
00000340: 9812 56be eb85 c8be c375 42be 5760 cfbd
00000350: 09c9 19be 6a55 5dbf 5bab b3be abd1 aa3c
00000360: a4e0 d23f f2a1 7e3f bc96 a63e 5815 dbbc
00000370: 3c62 48be 6da5 51bf 40a2 943e bfba a03d
00000380: ff06 3e3f eca1 b53b 6eb3 3f3e 36c4 5fbe
00000390: 394b 34be 83ff 92bc 3655 62be 0090 18bf
000003a0: 28d2 08be 3324 aa3c dfd6 afbd 5af6 52be
000003b0: d881 d8bd 321c 7bbe ce82 5e3c 6ec3 5dbe
000003c0: 01c8 26be 809f acbe f789 92be b0f8 0fbd
000003d0: fb6f 2f3e 04af 9cbd 3038 a5bd f329 81be
000003e0: 03f8 8dbe 87cd 57be 91ac 9fbe bb46 73be
000003f0: 17c3 813d f8ea 6fbf a501 663e 4b2a 14bf
-1.6120754 -3.5083716 1.097261 -0.3633163 -0.26760375 -0.20328102 -1.4655347 -0.024340782
-0.489499 -0.14001505 0.23115905 -0.12892343 -0.3198054 0.044065762 0.061149813 -0.78321445
-0.7058403 0.2301279 -0.6856729 0.0460866 -0.30442843 -0.008144861 0.015410674 0.3209423
-0.18297692 -0.028509881 0.0041284338 -0.8372526 0.45727775 0.023267744 -0.4211815 0.03327047
0.000336051 0.81576735 -0.35498112 -1.1527233 -0.06320506 -1.3086994 -0.10075881 0.006626253
-0.12116345 -0.18840784 -0.06492493 -0.2422594 0.22657749 0.40753707 -3.6146355 0.18222411
-1.0187013 -0.6890337 0.15858258 -4.1506076 -3.2946715 -3.5789127 0.12900892 -1.7363448
-0.16933484 0.07351435 0.24484156 0.012838125 -0.057377502 -0.11375985 -0.0007963304 -1.6537713
0.7010495 0.24322365 0.3240534 -0.38001353 0.65128684 -3.2163446 0.8476206 -0.24340744
-4.1386085 -6.8746653 0.7436379 0.0930794 0.2836338 1.0013162 -1.2830125 -0.013509047
-0.40530032 -0.07099728 -0.27059624 -0.13454588 -0.04708229 -0.05625628 -0.16981238 -0.060449228
0.16400704 -0.24145126 -0.2186268 -0.41901103 -0.09197148 -0.05730229 0.0044823247 -0.23524256
-0.2503413 -0.06484643 0.09223677 -4.0061827 1.1517125 -0.12696972 0.24245517 0.07999262
1.1921276 -0.78404504 0.8316355 0.680064 0.54913366 2.438537 -2.6485348 -1.6319312
0.74001765 -0.76574403 -3.7636058 -2.3651109 -2.6256554 0.68816006 -1.4536086 -0.41660437
-0.482523 -0.07759107 -0.024776287 -0.3960919 -0.7322247 -0.48485547 -0.22646719 -0.1323164
0.046496343 -0.23837844 -0.00911607 -0.18319675 -0.22748862 -0.44570974 -0.9287969 -7.578373
0.7271769 -0.9218901 -0.10816784 0.80932564 -0.92034215 -0.98199415 -0.7215083 -1.7917901
0.21205047 -2.8001077 0.5522232 -0.62531376 -0.38173422 0.50146735 -0.8044221 0.012490335
0.97770035 0.042392388 -0.06885229 -0.23252228 -0.39054555 -0.2273675 -0.121990964 0.083563186
0.0839327 -0.29856858 -0.05124697 -0.015819818 0.09617311 -0.19843721 -0.08179475 -0.2235928
-0.08063549 0.13149965 -0.10179736 0.31945628 -7.501214 0.17042843 -0.5024859 0.6771283
0.14298387 -0.17411464 -1.5955044 -1.8366292 -0.5119359 0.9265767 0.82520646 0.21029611
0.6217241 0.53861684 0.34421274 -0.48064825 -1.2080679 -0.23089072 -0.14791737 -0.28466842
-0.1511853 -0.083992384 -0.19256434 -0.030398935 -0.24807188 -0.23617432 -6.614726 -2.4259949
0.5044315 0.22101425 0.02131924 1.882057 -0.42285636 1.2305801 -2.8948913 0.26866996
-0.2090553 -0.3916467 -0.18990235 -0.10125797 -0.15018095 -0.86458457 -0.3509167 0.02085193
1.6474805 0.9946586 0.32536876 -0.026743576 -0.19568723 -0.81893045 0.29030037 0.07848119
0.74229425 0.005542984 0.1872079 -0.21852192 -0.1760682 -0.017944103 -0.22102818 -0.59594727
-0.13361418 0.020769214 -0.08585905 -0.20601788 -0.10571641 -0.24522474 0.013580991 -0.21656582
-0.16287233 -0.3371544 -0.28620884 -0.035149276 0.17132561 -0.07650569 -0.080673575 -0.25227317
-0.2772828 -0.21074496 -0.31186345 -0.2375745 0.063360386 -0.9371791 0.22461565 -0.57877034

conv1.0.bias f4 [64]
00000000: bc54 aabf 6896 e8be 8d2d 2bbe 1d8d dfbe
00000010: 587f 58bd 14ba 91bd 716a 4641 5bca 0240
00000020: 3199 56be 0000 0000 40be 94be c574 38bd
00000030: f325 96bf 2006 35bf af16 133d 8c2f 7040
00000040: fa7a 2dbf 1680 58be 0000 0000 0ac8 383f
00000050: 858e d3c0 0000 0000 9a43 b13f 3085 98be
00000060: 74e3 37c1 59db 40be 02bd 61be 9865 fabc
00000070: e97d f0bd 27b1 3dbe 485f 5cbe 974f 8440
00000080: 0000 0000 4f49 6240 f907 b8be 29a9 d8bd
00000090: 5025 43c0 0150 c23e 0000 0000 0000 0000
000000a0: eb99 6b3f 1730 71be e668 51bd 87ad 4b40
000000b0: 4b41 b740 5121 2dbf 6ff4 26bf 9e66 25be
000000c0: 389e 42be e7fc 2ebf 5e81 403f 720d 0fbf
000000d0: cddb e33d f3f7 c240 e51f f83f 9c1c 82bd
000000e0: d51a 8bbf 14d4 e9bf f445 903f 0dd2 58be
000000f0: 4c1e 4840 fc46 8ebc 438c 3d40 e059 7dbe
-1.3307109 -0.4542725 -0.16716595 -0.43662348 -0.05285582 -0.0711557 12.400987 2.0436008
-0.20956875 0.0 -0.290514 -0.045033235 -1.1730331 -0.7071247 0.035910305 3.752902
-0.6776577 -0.21142611 0.0 0.72180235 -6.6111474 0.0 1.3848755 -0.29789114
-11.493031 -0.18833674 -0.22044757 -0.030566022 -0.117427655 -0.1852461 -0.21520722 4.1347156
0.0 3.5357244 -0.35943583 -0.1057914 -3.0491524 0.37951663 0.0 0.0
0.92031735 -0.23553501 -0.05112543 3.1824663 5.7267203 -0.6762896 -0.65216726 -0.16152427
-0.19005668 -0.6835465 0.751974 -0.5587989 0.11125908 6.0927672 1.9384733 -0.06353113
-1.0867563 -1.8267846 1.1271348 -0.21173878 3.1268492 -0.017367832 2.961686 -0.24741316

conv2.0.weight f4 [64, 64]
00000000: e1ae 59be b256 32be d79c 063e 50b6 6dbd
00000010: 384f 3a3e 2278 163e 5a60 81be 81f3 70bd
00000020: de06 4ebb d05a c7bc 514c b83d 9f98 6ebd
00000030: c742 a2bd 81ea 1d3d b9b5 6cbe d2cb 04be
00000040: 8c05 babd d8c9 0cbe e076 adbd 6003 94bd
00000050: c352 a8bd 4a5c 5abe aad2 d3bd 4482 67bd
00000060: da6a 20be 9fe4 58be 23c2 1d3e 2f34 1f3e
00000070: 1e71 d0bd 0073 1c3b abd2 353d 49f2 66bd
00000080: 57e8 cbbd d07e 8bbd 21f7 debd 00c9 bdbd
00000090: d10d 3cbe 00c8 97b8 16ad 47be 83ce 7f3d
000000a0: f56d 53bd ab32 363e 1b12 363e b0de 08be
000000b0: b571 b63d 1424 3dbd 72c6 893c 0869 4bbd
000000c0: e45e 4b3d d0fe 053e c2ef 17be 02c7 57be
000000d0: d6cc 15be 4bc7 be3d a353 02bd ffaa ebbd
000000e0: 8207 a53d b873 f93d fdd4 f73d dc9e 42be
000000f0: e1ca 5fbe ac06 a4bd 9ec0 9abc 202d c83b
00000100: 46f7 a7bf c3ce 413e 3433 2e3d 9e94 853d
00000110: 3eee 04be b41e 8ebe 5d10 b53f e8b2 efbf
00000120: 6b9b d6bf e608 51be a160 2bbe deb7 a2be
00000130: f9db e93e fdee afbf b49f 3b3d f2e9 29c0
00000140: 11c7 9e3f 3530 0b3d 0905 543e 6eaa b13f
00000150: fbf7 24bf 8801 073d 8bff 06c0 9b0d 0b3d
00000160: d243 e9bf 15fe 2dbe 74e5 103d 9e3f f33d
00000170: 3221 eabe 0aba c23e f48a 6f3d f25f b13f
00000180: ff14 0ebb 2db5 173e 2b7e 0dbe e87e 4d3e
00000190: 562f 903f da02 1bc0 6c45 613d 1c6b 52be
000001a0: b1c0 c53e 70cb 943d d6a0 86bd 30c1 efc0
000001b0: 6b7d 553f 3a3e b4bd 1575 903f ccff 37c0
000001c0: 1448 cb3d 7865 26be 78e1 0ec0 6f12 cb3e
000001d0: 1df4 cfbe 1fa9 03c0 51a2 d1bf 01b4 313e
000001e0: 9b2d ffbd f696 5bbd b2b6 f73f ec11 17be
000001f0: d369 893f 51dd 12bc 5ce7 81be 4ee1 2ebe
00000200: 6fcf 53bf a8f9 56be df86 dd3d b501 69be
00000210: 5883 183e 7a48 8b3e fbac d13f e5b1 2c3f
00000220: 4685 acbe 5c21 35bd 590d 103e 5175 0a3f
00000230: c866 8cbe 4d7d 01bf 76aa b93d 4218 acbf
00000240: 2de3 c7be 2556 4dbc 4e66 58be ece0 0dbe
00000250: dbec 0ec0 10f2 453c 0a7b fabe d6fe 903e
00000260: c64d 08bf 1acc 87bd 7212 32bd 16e6 4abe
00000270: c6a5 f6be b01a 8cbd a05c 7f3d 71e9 d73d
00000280: 4fa0 8fbd c7eb 02bf d768 44bd b765 ac3d
00000290: aede dabe bf8f 273f e2e4 aa3d 802b 06be
000002a0: a5bb 01c0 33e9 343e 29dc 0b3d f9c3 d4bf
000002b0: 4153 1e3f da24 13be 876f d7bf f71f 0fbf
000002c0: 4e36 5f3e e433 a73d 54bf c7be 45ac 633f
000002d0: df9d ee3e cd7f 06bf 3b7e a7bd fb03 48be
000002e0: 2786 70be 57b1 a8be 8be8 1cbf b2ec 9d3d
000002f0: 217d 413e 8a10 dc3d 30d6 42bd 5ad8 8ebe
00000300: be41 193f 86ae 9a3e ca17 313e dd7b 173f
00000310: 7272 f23e ee6c efbf d042 0e40 cae8 cabe
00000320: e576 5d3f 02d9 b43d d15f a1bd 14c1 24be
00000330: 4389 9ebf 8b72 403e c0ea 8b3e ae4f dbbd
00000340: 65d9 7fbf cf5d 6a3e ffe0 3abe c973 893e
00000350: c678 673e 1c9d 7e3d 6756 36bf 6f5d c0bd
00000360: d9c7 8dbe 4451 d53e ca28 6a3e 2a5d 2d3e
00000370: b1cf c0be c680 183e 8ac3 8a3e 9707 2a3f
00000380: b6eb 36be 8950 9d3e 2765 e43e a261 1f3e
00000390: d0e2 4dbf cfce 94be 3dbf f0bd 5c1c 65bd
000003a0: bf3f 92bf 10e1 6e3d 6c1f b63d 93bd 0bbf
000003b0: 8e51 af3e 7c2d 1f3e d8ed 3bbe f05c e93e
000003c0: 0809 933d dba7 fb3c 80b0 95be 307d 203e
000003d0: 24c8 4b3e 316a 8a3f 76c4 b83e 7b69 73bd
000003e0: e552 e73e 4d70 c9bf 7773 93bf 4994 1cbd
000003f0: ad78 7c3f b920 023f fd34 5540 96d4 673e
-0.21258117 -0.17415884 0.13145767 -0.058035195 0.18194282 0.14694265 -0.25268823 -0.058825973
-0.0031437199 -0.024335295 0.08998931 -0.05825102 -0.07922893 0.03855372 -0.23116197 -0.12968376
-0.09083089 -0.13748872 -0.08469939 -0.07227206 -0.082189105 -0.21324268 -0.10342915 -0.056520715
-0.1566576 -0.21180962 0.15406089 0.1554725 -0.101778254 0.0023872256 0.04439036 -0.056383405
-0.09956425 -0.06811297 -0.1088698 -0.09266853 -0.18364646 -7.237494e-05 -0.19499621 0.062452804
-0.051618535 0.17792766 0.17780344 -0.13366199 0.08908407 -0.046176985 0.016818259 -0.049660712
0.04965104 0.13085485 -0.14837554 -0.21072009 -0.1462892 0.09315356 -0.031818043 -0.11507224
0.080580726 0.12180275 0.12101171 -0.19005913 -0.21854736 -0.08009085 -0.018890675 0.006108895
-1.3122337 0.1892653 0.0425293 0.06522487 -0.12981507 -0.277578 1.4145619 -1.8726473
-1.676618 -0.2041355 -0.1673608 -0.31780905 0.45675638 -1.3744808 0.0458066 -2.654904
1.24045 0.03398152 0.20705046 1.3880136 -0.6444089 0.032960445 -2.109347 0.033948522
-1.8223822 -0.16991456 0.035375074 0.118773684 -0.4572845 0.38032562 0.058482125 1.3857405
-0.0021679995 0.14815207 -0.1381766 0.20067942 1.1264446 -2.422049 0.054997846 -0.20548671
0.38623574 0.07265365 -0.06573646 -7.4923325 0.833945 -0.08800931 1.1285731 -2.8749876
0.09925857 -0.16249645 -2.2325115 0.396625 -0.4061593 -2.0571973 -1.637766 0.17353822
-0.124598704 -0.053610764 1.9352629 -0.1475293 1.073542 -0.008963899 -0.25371826 -0.17078134
-0.82738394 -0.20993674 0.1081674 -0.22754557 0.14893854 0.27203733 1.6380914 0.67458946
-0.3369543 -0.044221267 0.14067592 0.5408526 -0.27422166 -0.5058182 0.09065716 -1.3444903
-0.3904051 -0.0125327455 -0.21132776 -0.13855332 -2.2332065 0.012081638 -0.48921996 0.28319424
-0.5324367 -0.06630726 -0.043474622 -0.19814333 -0.4817335 -0.06841028 0.062344193 0.10542572
-0.07012998 -0.5114102 -0.047951546 0.08417838 -0.42748016 0.65453714 0.08344437 -0.13102531
-2.027078 0.17667083 0.034145508 -1.6622306 0.61845785 -0.14369527 -1.683091 -0.5590815
0.2179806 0.08164194 -0.3901316 0.8893474 0.4660482 -0.5253876 -0.081783734 -0.19532768
-0.23488675 -0.329478 -0.6129233 0.07711162 0.18895389 0.10745342 -0.047567546 -0.27899438
0.5986594 0.30211276 0.17294231 0.59173375 0.4735294 -1.8705118 2.222828 -0.3963073
0.86509544 0.088304535 -0.07879604 -0.16089278 -1.2385639 0.18793695 0.27327538 -0.10708557
-0.9994109 0.22887348 -0.18249892 0.2684615 0.22604665 0.06216155 -0.7122559 -0.09392821
-0.27691534 0.41663563 0.22867122 0.1693007 -0.37658456 0.14892873 0.2710231 0.6641783
-0.17863354 0.30725506 0.44608423 0.15564588 -0.80424213 -0.29064032 -0.11755226 -0.05593525
-1.1425704 0.058320105 0.08892712 -0.5458614 0.3424191 0.15544695 -0.18352449 0.45578718
0.07179457 0.030719688 -0.2923622 0.15672755 0.19900566 1.0813657 0.36087388 -0.059426766
0.4518043 -1.5737396 -1.1519612 -0.038227353 0.98621637 0.5083118 3.3313591 0.22639689

conv2.0.bias f4 [64]
00000000: 6c77 febd 2ae5 f53f fb4d 9b3f b4a7 6641
00000010: e58f 4140 4f31 93c0 fac4 243f fff6 ae40
00000020: a2b3 49be f743 843e dbd4 e8bd 1dc3 6fbe
00000030: 5a79 dd3d a269 5540 143d 8fbe 4690 18c1
00000040: 36ae 34be 02e7 c7bd 4d52 d0c0 7843 1940
00000050: 4478 4f40 b02d ea3f 2f70 e23f ea5e b6c0
00000060: 02fa 783f 9835 bdbd 753f 5540 4ea7 20c0
00000070: 0cb1 9cbe 14a6 46be 67ce 41c1 522e ffbd
00000080: b0dd 5fc0 aa08 8740 aa53 1ac1 4d63 593f
00000090: cf8b e7c0 456e 2040 4618 a13f 0215 013e
000000a0: e28b 2abe d87b 483d 7773 e4c0 a686 1d41
000000b0: 6cfe 77c0 fa30 703f fc6d 72bd be9b 183e
000000c0: e2dc 69bd 1325 ad40 f192 07be 2683 8d40
000000d0: d9dc 88be 8092 92bd ab91 9fbe 8325 c140
000000e0: 7a98 6841 33dc ce40 d44c 4240 a249 443f
000000f0: 946a 173f d641 ae3f 6fda 1a40 9a5f f6bf
-0.12425122 1.921056 1.2133173 14.415943 3.0244076 -4.599769 0.6436306 5.467651
-0.1969743 0.25833103 -0.11368724 -0.23414274 0.108141616 3.3345723 -0.27976286 -9.535223
-0.17644581 -0.09760858 -6.5100465 2.394743 3.2417154 1.8295193 1.7690486 -5.699086
0.9725648 -0.09238738 3.331998 -2.5102115 -0.30603826 -0.19399291 -12.112891 -0.12460007
-3.4979057 4.2198076 -9.645426 0.84917146 -7.2358165 2.5067303 1.2585533 0.1260567
-0.16654924 0.04894623 -7.139095 9.845373 -3.8749037 0.9382473 -0.05918692 0.14903161
-0.057095416 5.4107757 -0.13239647 4.4222593 -0.26730993 -0.07156849 -0.31165823 6.035829
14.537226 6.46438 3.0359392 0.76674855 0.59147 1.3613842 2.4195821 -1.9247925

conv3.0.weight f4 [1, 64]
00000000: 26b2 5f3b 4b97 0640 f3a7 90c0 6a99 4740
00000010: 22fa c73f 7fcc 68bf 9cb4 093f 820e cd3f
00000020: cefa b7bc 52e4 403e a7ff 2a3c 8e1e 20be
00000030: 56d2 ed3b 91e3 ca3f 3ab3 cc3b 6e78 abbf
00000040: 1dc2 04be 6e4e 97bd a375 7cbf cd3e 5940
00000050: 2d19 3c40 880a e03f 06cb b93e f5b7 cfbf
00000060: aff3 103d 9d61 47be b0c2 8b3f 418c 26bf
00000070: f22d fb3d eca0 d8bd 5047 c4bf db3d 93bd
00000080: 9ca1 10c0 db73 ce3f cc6b 52c0 1b76 0c40
00000090: ca18 9fbf 4afa c23f a2a2 a43f 0888 ce3f
000000a0: d6f3 c73d 59ae 013e 4c35 c3bf bd46 4940
000000b0: 3483 2fc0 a78a 963f 3d37 3cbc 5814 673d
000000c0: caa2 e93b cbe4 3840 c39a fb3c 39fb b03f
000000d0: 779a a93d e8cd f7bb 7b7b 54bc 09c5 3140
000000e0: 2d3d 2440 4c82 8b40 bbb5 5e40 8e3b 663f
000000f0: fd7e 813d f775 663f 70b2 603f c76c eebf
0.0034133284 2.1029842 -4.5205016 3.1187387 1.562321 -0.90937036 0.53791213 1.6020052
-0.02245846 0.18837097 0.010436929 -0.15636656 0.00725774 1.5850698 0.0062469514 -1.3396127
-0.12964673 -0.07388006 -0.98617 3.394458 2.9390366 1.7503214 0.36287707 -1.6228014
0.035388645 -0.1947083 1.0918789 -0.6505776 0.12264623 -0.105775684 -1.5334263 -0.07189532
-2.2598639 1.6129106 -3.2878294 2.1947086 -1.242944 1.5232632 1.2862132 1.6135263
0.09763305 0.12664165 -1.525064 3.1449425 -2.742383 1.1761063 -0.011487779 0.056415886
0.0071300017 2.8889644 0.030713445 1.3826667 0.08281415 -0.0075623877 -0.012968893 2.777651
2.5662339 4.3596554 3.479842 0.89934623 0.06323049 0.9002375 0.87772274 -1.8626946
