combine_results/results6x5/actor.pkl (torch, 26311 bytes, 6 tensors)

input_layer.weight f4 [64, 9]
0.024431134 0.041265428 0.25683543 0.070981205 -0.24337828 0.23789269 0.03559844 0.1164013
-0.20741303 -0.049393304 -0.3301055 0.32153437 -0.25530484 -0.28773478 0.17708816 -0.08102816
-0.30261272 -0.15409818 -0.0788826 -0.14169154 -0.20109111 -0.30705914 0.0057228673 -0.114099726
0.020207109 -0.28111902 0.0074450546 0.077918954 0.15740754 -0.030838812 -0.095245376 0.22258791
-0.014884687 0.21011877 0.20803319 0.19785026 0.22172515 -0.0862952 0.26408225 -0.22475481
-0.30746746 -0.1994939 0.028294805 0.097528845 0.10585709 0.034651406 -0.34308895 -0.22390358
-0.0064213513 0.19109076 0.20482738 0.18987374 -0.09104497 0.11776959 -0.15556522 -0.229868
-0.2787101 0.18094441 0.20126693 0.032402795 0.20895262 0.09473513 0.32504413 -0.31942007
-0.32058984 0.0745089 -0.08058966 0.24966158 -0.075624235 0.22430493 -0.15017506 0.10776997
-0.20866795 0.14979315 0.044173636 -0.1162017 -0.2870803 0.1110999 0.15021114 -0.0053481767
0.06502598 -0.13150127 -0.09781601 0.29803127 -0.06798295 -0.2639321 0.3174916 -0.051506404
0.25995508 -0.302764 -0.17937887 -0.27651992 -0.27335963 0.01500891 -0.32330135 0.25055793
0.27153277 -0.21259275 -0.1951791 0.06677379 -0.2707797 -0.038573097 -0.019500261 0.16718303
-0.15238227 -0.09642485 0.30889288 -0.13577148 0.0032609934 -0.25864077 0.22533815 0.15528402
0.25571015 -0.019810302 0.38646626 0.19761242 -0.23933712 0.11759254 -0.18349867 0.11447545
-0.030179983 0.24019058 -0.01601935 0.23115087 0.27142218 -0.027523523 0.13494374 -0.012373935
0.19838153 0.2447413 0.26344225 -0.016860595 -0.09561121 0.20883606 0.29945555 -0.16312808
-0.33868706 -0.1307358 -0.18421775 0.14617111 -0.29387698 0.15618226 0.04540076 -0.07363591
-0.113886505 -0.09810133 0.13135275 0.18614356 -0.11234535 0.14892408 -0.14953136 0.13424037
-0.31871292 0.06749046 0.22215842 -0.13055725 -0.2699145 0.06206015 0.15242888 -0.20114928
0.20276953 -0.074868485 -0.2885849 -0.15553989 0.2649684 0.05159143 -0.27742285 0.2509759
-0.09745895 0.24303405 0.19719782 -0.2652714 0.24429837 -0.30719548 -0.32652673 -0.2277149
-0.20136468 0.30227014 -0.119426005 -0.07017869 0.10825347 -0.20704255 -0.08134861 0.007845219
0.14656478 -0.11357672 0.30690256 -0.16203055 -0.14493956 0.034029063 0.32528573 0.047286544
-0.30052903 -0.056278348 0.04101332 0.26286328 0.035083067 -0.2015666 0.18943734 0.28435576
-0.013155802 -0.14413215 0.035579145 0.30690715 -0.29137865 -0.1853885 -0.1477381 0.10050156
0.0034100662 0.28301194 0.2376799 0.30045465 -0.186573 0.08075827 0.152673 0.056399103
0.28393364 0.07263461 0.1725681 0.0009861396 0.020031257 0.3133056 0.24288118 0.11225549
-0.14772253 -0.009185981 0.062131997 -0.30947512 -0.093518905 -0.034997776 -0.18736205 0.24500741
-0.28185838 0.14036748 0.14930978 -0.0064800885 0.21520035 0.16004582 0.18458864 0.15535031
0.27391097 0.07297642 0.068512276 0.120709375 0.09863014 0.062289055 0.018673746 0.11500457
0.024745343 0.061276726 0.13542496 -0.09265282 -0.14907454 0.28903407 -0.067238145 -0.16012302
00000000: cd23 c83c f005 293d ef7f 833e 985e 913d
00000010: 2838 79be 249a 733e abcf 113d ce63 ee3d
00000020: 1564 54be a250 4abd 9703 a9be 27a0 a43e
00000030: 51b7 82be f951 93be 9956 353e 18f2 a5bd
00000040: 0ef0 9abe eacb 1dbe 338d a1bd 9617 11be
00000050: d4ea 4dbe db36 9dbe e486 bb3b 1ead e9bd
00000060: 6189 a53c d5ee 8fbe a5f5 f33b f993 9f3d
00000070: 712f 213e ada1 fcbc 0210 c3bd 16ee 633e
00000080: e7de 73bc 6029 573e a706 553e 4299 4a3e
00000090: eb0b 633e 8abb b0bd ca35 873e 2026 66be
000000a0: 606c 9dbe 2148 4cbe 82ca e73c 34bd c73d
000000b0: 9acb d83d a2ee 0d3d 5ba9 afbe fb46 65be
000000c0: 336a d2bb 4cad 433e 45be 513e 436e 423e
000000d0: c975 babd 2f31 f13d 7d4c 1fbe 8462 6bbe
000000e0: 17b3 8ebe 7e49 393e eb18 4e3e cbb8 043d
000000f0: adf7 553e 7e04 c23d 2f6c a63e 078b a3be
00000100: 5a24 a4be 1f98 983d 310c a5bd 49a7 7f3e
00000110: e1e0 9abd 31b0 653e 7ec7 19be 81b6 dc3d
00000120: 0dad 55be 6063 193e 6aef 343d 28fb edbd
00000130: 30fc 92be 5888 e33d f3d0 193e c23f afbb
00000140: 572c 853d 45a8 06be c353 c8bd 8e97 983e
00000150: a53a 8bbd 1c22 87be 428e a23e 61f8 52bd
00000160: d518 853e e203 9bbe 18af 37be 0594 8dbe
00000170: cbf5 8bbe eee7 753c c187 a5be 2149 803e
00000180: 5806 8b3e eab1 59be 08dd 47be b2c0 883d
00000190: a3a3 8abe d3fe 1dbd 03bf 9fbc 0732 2b3e
000001a0: 190a 1cbe 647a c5bd 3527 9e3e ae07 0bbe
000001b0: 64b6 553b 906c 84be 0bbf 663e c602 1f3e
000001c0: 71ec 823e 3749 a2bc e8de c53e e95a 4a3e
000001d0: ca14 75be 5cd4 f03d 13e7 3bbe 1b72 ea3d
000001e0: 033c f7bc 85f4 753e 033b 83bc d0b2 6c3e
000001f0: d9f7 8a3e 0379 e1bc b12e 0a3e 0cbc 4abc
00000200: 8724 4b3e 779d 7a3e e7e1 863e 3b1f 8abc
00000210: cfcf c3bd 1fd9 553e 3d52 993e 0c0b 27be
00000220: 6468 adbe 9bdf 05be 94a3 3cbe e1ad 153e
00000230: 0b77 96be 3eee 1f3e 26f6 393d 6dce 96bd
00000240: 543d e9bd 5ae9 c8bd 5681 063e 6b9c 3e3e
00000250: 5215 e6bd 8e7f 183e c01e 19be 4f76 093e
00000260: 572e a3be 7038 8a3d 7f7d 633e cdb0 05be
00000270: 3c32 8abe c932 7e3d 5116 1c3e 14fa 4dbe
00000280: d1a2 4f3e a654 99bd 66c1 93be d945 1fbe
00000290: f0a9 873e 8951 533d 5e0a 8ebe ea7f 803e
000002a0: 8f98 c7bd ebdd 783e 3aee 493e a7d1 87be
000002b0: 5a29 7a3e ba48 9dbe 832e a7be 182e 69be
000002c0: 8b32 4ebe 27c3 9a3e 9f95 f4bd d8b9 8fbd
000002d0: ffb3 dd3d f602 54be 1a9a a6bd 3c89 003c
000002e0: 1415 163e e99a e8bd 5522 9d3e 56eb 25be
000002f0: 096b 14be 0f62 0b3d da8b a63e 89af 413d
00000300: f1de 99be 2084 66bd 95fd 273d 0496 863e
00000310: 43b3 0f3d 7a67 4ebe ddfb 413e 1497 913e
00000320: 6f8b 57bc 6197 13be 70bb 113d ef22 9d3e
00000330: 952f 95be 7cd6 3dbe a848 17be c3d3 cd3d
00000340: 6b7b 5f3b f1e6 903e 5c62 733e 31d5 993e
00000350: fe0c 3fbe 9864 a53d 5056 1c3e bf02 673d
00000360: c05f 913e 74c1 943d b1b5 303e 5b41 813a
00000370: 9718 a43c 9769 a03e d8b5 783e 35e6 e53d
00000380: 9344 17be cc80 16bc 1f7e 7e3d 8673 9ebe
00000390: d786 bfbd d459 0fbd d6db 3fbe 39e3 7a3e
000003a0: be4f 90be 7ebc 0f3e aae4 183e ec56 d4bb
000003b0: 7b5d 5c3e 0de3 233e ce04 3d3e 2714 1f3e
000003c0: 0f3e 8c3e a974 953d 2a50 8c3d 7a36 f73d
000003d0: 99fe c93d cf22 7f3d aff9 983c 8487 eb3d
000003e0: bfb6 ca3c 4efd 7a3d d7ac 0a3e c3c0 bdbd
000003f0: ffa6 18be 46fc 933e 27b4 89bd 4af7 23be

input_layer.bias f4 [64]
0.07419412 -0.3123135 0.13427214 -0.01684561 0.053939413 0.007472891 0.03628297 -0.25906053
-0.21122456 -0.3223624 0.2002339 -0.14595626 -0.07197962 0.15149029 0.1375378 0.23016004
0.15580371 -0.16342291 -0.050600845 0.19089197 -0.11846558 0.34489748 -0.1745569 0.08866597
-0.18780783 -0.26669762 0.031174012 -0.118300796 0.1484949 -0.072165444 0.34465453 0.100815356
0.39877138 -0.08329796 -0.24820668 -0.06613185 -0.1547164 0.19272336 -0.19456618 -0.21959722
-0.21868904 0.26654062 -0.26111704 0.07464284 0.22988835 -0.199758 -0.013260471 -0.18726023
0.329718 -0.117873825 0.0825346 0.07863996 -0.3032958 0.18150547 -0.15653646 0.27855906
0.22400284 0.10169586 -0.061004505 -0.18714824 0.28872493 0.03308158 0.30010247 -0.048699457
00000000: 16f3 973d 8ee7 9fbe a37e 093e ceff 89bc
00000010: 93ef 5c3d 27df f43b 749d 143d 95a3 84be
00000020: 404b 58be af0c a5be 1e0a 4d3e 8f75 15be
00000030: 0d6a 93bd 4520 1b3e b6d6 0c3e 13af 6b3e
00000040: 028b 1f3e 5658 27be d542 4fbd 2f79 433e
00000050: 159e f2bd 6796 b03e 0bbf 32be 8196 b53d
00000060: b250 40be 978c 88be a460 ff3c b047 f2bd
00000070: 0c0f 183e 7acb 93bd 8f76 b03e 4878 ce3d
00000080: c32b cc3e 1f98 aabd e429 7ebe 2370 87bd
00000090: fa6d 1ebe 4659 453e 5b3c 47be 18de 60be
000000a0: 05f0 5fbe 0378 883e 22b1 85be 58de 983d
000000b0: da67 6b3e 5c8d 4cbe 7242 59bc 25c1 3fbe
000000c0: ccd0 a83e d567 f1bd e607 a93d fd0d a13d
000000d0: 9649 9bbe 92dc 393e 184b 20be 4b9f 8e3e
000000e0: 0061 653e eb45 d03d dcdf 79bd caa3 3fbe
000000f0: c1d3 933e 8d80 073d 08a7 993e 1579 47bd

hidden_layers.0.weight f4 [64, 64]
-0.059453454 0.119188674 0.014335651 0.08977576 -0.11570342 0.015767718 -0.087205 0.050971728
0.0847197 0.042490546 -0.009179043 -0.10481753 0.0047167973 0.090571016 -0.039823864 -0.12049354
0.03584125 0.065888554 -0.040495977 -0.11140283 -0.113280475 0.14029741 0.0042646793 0.08203922
0.038637344 -0.018037636 -0.10008804 -0.13262324 0.067783415 -0.012144827 0.029078651 -0.010932631
-0.0942569 -0.089511715 0.086780265 -0.02962012 0.045710463 -0.041537613 -0.039502442 -0.023603559
0.072477736 -0.043755617 -0.088225685 -0.10211368 0.052196763 -0.16807412 -0.028027905 -0.11718224
-0.09543279 -0.127984 -0.06725134 -0.09259616 -0.10203177 -0.120614275 0.043378934 -0.09371855
-0.007258909 -0.107628524 0.11865925 -0.07307498 -0.102562055 -0.052127007 -0.0051498264 -0.080360524
-0.09670045 -0.040732276 0.13899134 -0.11203358 0.024540802 0.010890245 -0.011166503 -0.063951746
0.033351935 0.123522095 0.077289775 0.035842612 -0.056966662 0.028226413 0.1131547 0.021528427
0.015456085 0.029799094 -0.09918407 0.039083768 0.12029245 -0.108714394 0.0005496383 0.04161804
0.15531535 0.006643677 -0.048653174 -0.004403112 -0.07602852 -0.053801097 0.07669304 -0.025801964
0.06547201 0.04934709 -0.112573296 -0.034837898 0.053744595 -0.027043058 -0.064549096 0.07730996
-0.02932074 0.075583816 -0.1222063 0.075111695 0.10090637 -0.071894124 0.03073391 0.04777062
-0.046461046 -0.023164442 -0.032935273 0.10334857 0.010263103 -0.08061761 0.04539634 0.00473
0.054227613 0.04396724 -0.06466093 -0.035451204 -0.040038116 -0.10761995 -0.13492043 0.08815573
0.075238466 0.06885494 0.12801838 0.0704031 0.05083625 -0.0077004964 -0.11885225 -0.024410458
0.043892402 -0.14801371 0.052826706 0.036841977 -0.12334234 -0.054381266 -0.033428818 -0.0388962
0.08004425 0.018667951 -0.11260321 -0.08369835 0.08671406 0.060662035 -0.14294194 -0.0509003
-0.020246169 -0.09409787 -0.14085986 -0.11278221 -0.09789442 -0.02417996 -0.08279211 -0.05984673
-0.1302391 -0.05115665 -0.12101318 0.105045885 0.021636117 0.0758548 -0.10531242 -0.14000091
0.079005696 -0.15106046 0.0058060405 -0.15023194 0.03699381 -0.22487089 0.12005505 0.12674761
-0.038530525 -0.06298903 -0.0057127597 0.08345189 -0.06524562 0.13323835 0.03608851 -0.120786086
-0.090693645 0.121582314 0.020260893 0.068429455 -0.1114791 -0.106221445 0.090190075 0.014277248
0.06798698 0.015013427 -0.06866884 -0.003532084 -0.04337291 0.029539775 -0.06783057 0.12595253
0.0039001862 0.033708602 -0.026933338 0.012686053 0.11924308 0.011720419 -0.013127024 0.12010135
0.037865177 -0.13792175 0.05122021 0.03631477 -0.031048074 0.09041002 0.04407867 -0.039921988
-0.119624555 0.09528301 -0.0070736497 -0.033857904 0.033858564 0.07443181 -0.040480692 0.042618148
0.02609489 -0.092639685 -0.07460936 0.07772496 -0.052472934 -0.017930951 -0.10238774 0.015769783
-0.024965882 0.021986024 0.05084205 -0.08011612 -0.080312215 0.11485833 -0.006849584 -0.06037607
0.03463812 0.063658826 0.05401044 0.12654518 0.029049013 -0.09236991 -0.14264634 0.13559355
0.085604124 0.040352713 0.0873146 -0.041517273 0.018846717 0.07563716 0.009335538 0.057758976
00000000: 7785 73bd 3119 f43d 14e0 6a3c 5bdc b73d
00000010: eaf5 ecbd 4d2b 813c 8998 b2bd bbc7 503d
00000020: 8681 ad3d 910a 2e3d b263 16bc 93aa d6bd
00000030: 5d8f 9a3b 4c7d b93d 591e 23bd 51c5 f6bd
00000040: 46ce 123d 94f0 863d 1cdf 25bd 2b27 e4bd
00000050: 98ff e7bd 20aa 0f3e b9be 8b3b 2e04 a83d
00000060: 3142 1e3d aac3 93bc f5fa ccbd 63ce 07be
00000070: 08d2 8a3d 19fb 46bc 5a36 ee3c c71e 33bc
00000080: c309 c1bd eb51 b7bd dab9 b13d e5a5 f2bc
00000090: e53a 3b3d 5823 2abd 50cd 21bd 405c c1bc
000000a0: 356f 943d 1739 33bd abaf b4bd fa20 d1bd
000000b0: 46cc 553d 9f1b 2cbe c79a e5bc 3efd efbd
000000c0: 4472 c3bd 3d0e 03be 12bb 89bd 0ea3 bdbd
000000d0: 08f6 d0bd 9e04 f7bd 1cae 313d 83ef bfbd
000000e0: 24dc edbb 586c dcbd 9f03 f33d 56a8 95bd
000000f0: 0e0c d2bd 2183 55bd e0bf a8bb 0f94 a4bd
00000100: e30a c6bd e3d6 26bd bf53 0e3e dd71 e5bd
00000110: cb09 c93c 006d 323c b5f3 36bc 22f9 82bd
00000120: 0a9c 083d 27f9 fc3d 1a4a 9e3d b4cf 123d
00000130: e055 69bd 143b e73c a7bd e73d 625c b03c
00000140: 853b 7d3c 3b1d f43c 0521 cbbd 4d16 203d
00000150: e35b f63d a7a5 debd 9a15 103a ae77 2a3d
00000160: fd0a 1f3e 34b3 d93b 8d48 47bd fb47 90bb
00000170: d7b4 9bbd 8a5e 5cbd 3e11 9d3d a45e d3bc
00000180: 3016 863d 2d20 4a3d d48c e6bd 2fb2 0ebd
00000190: 4b23 5c3d 6789 ddbc 5132 84bd af54 9e3d
000001a0: 0c32 f0bc b0cb 9a3d 4c47 fabd 29d4 993d
000001b0: 00a8 ce3d 3a3d 93bd aec5 fb3c 20ab 433d
000001c0: f04d 3ebd 5bc3 bdbc 23e7 06bd 6aa8 d33d
000001d0: 9326 283c d81a a5bd 83f1 393d 1efe 9a3b
000001e0: c61d 5e3d fe16 343d f36c 84bd 4835 11bd
000001f0: 02ff 23bd d967 dcbd 9528 0abe fe8a b43d
00000200: a016 9a3d d203 8d3d 4017 033e 802f 903d
00000210: ac39 503d 7254 fcbb cf68 f3bd 71f8 c7bc
00000220: 85c8 333d e890 17be d160 583d 9de7 163d
00000230: e99a fcbd e4be 5ebd a8ec 08bd 9f51 1fbd
00000240: 3dee a33d 88ed 983c 839c e6bd 0a6a abbd
00000250: 2497 b13d c178 783d 5f5f 12be d57c 50bd
00000260: 4bdb a5bc 62b6 c0bd 913d 10be 5cfa e6bd
00000270: df7c c8bd 0d15 c6bc e98e a9bd d821 75bd
00000280: 665d 05be a389 51bd c2d5 f7bd 4c22 d73d
00000290: 3a3e b13c c359 9b3d 0aae d7bd 665c 0fbe
000002a0: bdcd a13d 98af 1abe 9940 be3b 67d6 19be
000002b0: d286 173d 8e44 66be 6cdf f53d 20ca 013e
000002c0: 2fd2 1dbd 6400 81bd 1a32 bbbb d3e8 aa3d
000002d0: 7f9f 85bd a26f 083e 8cd1 133d b25e f7bd
000002e0: 97bd b9bd 2600 f93d 2cfa a53c be24 8c3d
000002f0: 284f e4bd a18a d9bd 93b5 b83d 1eeb 693c
00000300: c23c 8b3d e0fa 753c 40a2 8cbd 897a 67bb
00000310: cba7 31bd 66fd f13c c1ea 8abd b3f9 003e
00000320: 449a 7f3b 0812 0a3d 4ea3 dcbc 2ad9 4f3c
00000330: b735 f43d 0007 403c bb12 57bc b2f7 f53d
00000340: 8418 1b3d 5c3b 0dbe 48cc 513d ccbe 143d
00000350: 8858 febc e328 b93d d68b 343d 3d85 23bd
00000360: b8fd f4bd bd23 c33d 13ca e7bb 96ae 0abd
00000370: 47af 0a3d b46f 983d 15cf 25bd 5e90 2e3d
00000380: f3c4 d53c e0b9 bdbd cbcc 98bd 442e 9f3d
00000390: dced 56bd eee3 92bc aab0 d1bd a22f 813c
000003a0: 4085 ccbc 091c b43c c13f 503d ec13 a4bd
000003b0: bb7a a4bd d83a eb3d 7a72 e0bb e64c 77bd
000003c0: b4e0 0d3d 8f5f 823d 0d3a 5d3d 0f95 013e
000003d0: 32f8 ed3c 6f2c bdbd e211 12be 09d9 0a3e
000003e0: 3751 af3d e348 253d ffd1 b23d 040e 2abd
000003f0: 6e64 9a3c a8e7 9a3d 16f4 183c ad94 6c3d

hidden_layers.0.bias f4 [64]
0.09164332 0.051468126 -0.06235104 0.12283914 0.11211162 0.073776774 -0.09302694 0.076872505
-0.012629876 -0.14679182 -0.002190299 0.041903894 0.024846032 0.13781855 0.0012301113 -0.104884766
0.027365569 0.085652545 0.040626697 0.027681695 0.062386848 0.12843946 0.08422439 0.023000868
-0.074273475 -0.1365688 -0.061474297 0.03656797 -0.088702135 -0.011223062 0.05318578 -0.10089017
-0.031957496 0.046049796 -0.06465492 0.095615946 -0.12352294 0.08337245 -0.108839884 -0.028710682
0.101556264 0.005412202 0.06235071 0.12337876 -0.106709756 0.0068257065 0.08639922 -0.048312627
0.07805587 -0.077347085 0.07889531 -0.030149104 0.12752336 -0.076294325 -0.0619117 -0.047613017
-0.005897732 -0.014877939 0.07589961 -0.09398571 0.018298969 -0.11778159 0.07718439 -0.10513072
00000000: 7eaf bb3d 3ed0 523d ce63 7fbd 1693 fb3d
00000010: c79a e53d 4718 973d e984 bebd 556f 9d3d
00000020: 8aed 4ebc 9850 16be 1f8b 0fbb 6ba3 2b3d
00000030: e889 cb3c 4e20 0d3e b03b a13a d3cd d6bd
00000040: c22d e03c 9a6a af3d 2e68 263d b9c4 e23c
00000050: 5a89 7f3d a285 033e d67d ac3d 516c bc3c
00000060: b11c 98bd b1d8 0bbe 79cc 7bbd 4cc8 153d
00000070: 77a9 b5bd efe0 37bc 55d9 593d 819f cebd
00000080: dde5 02bd b69e 3c3d cc69 84bd 4bd2 c33d
00000090: 98f9 fcbd 2dbf aa3d 72e7 debd aa32 ebbc
000000a0: bbfc cf3d d758 b13b 7563 7f3d 01ae fc3d
000000b0: a58a dabd 2daa df3b 13f2 b03d 76e3 45bd
000000c0: c2db 9f3d 2668 9ebd dd93 a13d 41fb f6bc
000000d0: 7c95 023e 3340 9cbd 1f97 7dbd de05 43bd
000000e0: c341 c1bb 99c2 73bc 4171 9b3d 947b c0bd
000000f0: b8e7 953c 7937 f1bd d912 9e3d c64e d7bd

output_layer.weight f4 [20, 64]
-0.005583476 0.0359035 0.11612146 0.08284963 -0.036724627 0.030188171 0.057950895 0.0014898265
0.10919451 -0.07009593 -0.047031384 0.04139352 0.099484935 -0.050278783 -0.051371604 -0.124272294
-0.09798101 -0.10677125 -0.034985013 -0.014418901 -0.059975106 0.03921893 -0.08149942 0.061592553
0.085297816 -0.016333401 0.0706314 0.04194384 0.018084465 0.12244216 -0.09846264 0.13306929
-0.02877122 0.1022243 -0.017047696 0.03206191 -0.03301401 -0.10492953 -0.14239517 -0.03992558
-0.093301505 0.07676266 0.067943454 0.014358502 -0.020846317 -0.14994138 0.033184078 0.07454536
-0.08334018 -0.07210596 -0.02751394 0.0073885177 -0.024627248 0.026979363 -0.018773999 0.113828115
-0.04775832 0.062630005 0.004816764 0.020739922 0.0219687 0.02650813 0.07241963 0.107375406
0.026092088 -0.007070933 0.068950795 0.0743949 -0.019282546 -0.057875447 -0.12279181 -0.10113106
-0.049117874 -0.0053120865 0.07363624 -0.02900788 -0.07068754 0.022172716 0.10193329 -0.08974671
0.08995965 -0.012224816 0.028174438 -0.10054001 -0.02185192 -0.10504129 0.08048012 -0.042365685
0.047875192 -0.03444915 -0.08559975 -0.050478008 0.037373185 -0.08422147 0.0403063 0.10460364
0.14796318 -0.061415486 0.0812651 0.048671983 -0.109875634 -0.11204369 0.031533845 -0.09367061
-0.047160354 -0.07978282 0.09381978 0.0032184944 0.06482546 -0.11975704 0.09879377 -0.09354134
0.08834034 -0.01093108 -0.015433235 0.01999139 0.109083734 -0.108615674 -0.018363453 0.06949796
-0.026548527 -0.06961039 0.012877333 0.09013461 -0.09963698 -0.043218523 0.03688906 0.051316857
0.063030094 0.03249945 -0.0018801742 0.05718942 -0.10131321 -5.966139e-05 0.09849801 -0.09389402
-0.071275584 -0.02115177 0.12881263 -0.10871322 0.13021569 0.08173032 0.07259161 -0.13090837
0.09605535 -0.05875406 0.14254107 -0.051816583 -0.120227754 0.045790434 0.0054692617 -0.0423561
0.07233776 -0.07750405 -0.073800705 -0.07444717 0.05497074 0.02741398 0.1024198 0.028908025
0.07790263 0.0010683045 -0.020736996 0.02664337 0.10976103 0.100184076 0.03830484 0.08191837
-0.08687949 0.103085816 0.1125868 0.07266774 -0.10930815 -0.10276151 -0.06825279 -0.062556855
0.1221396 0.14180455 -0.0396725 0.11527823 0.031898428 -0.07868045 -0.1404122 -0.06894155
0.020630922 -0.07089295 0.06299391 0.106208175 -0.12863992 -0.02738043 0.12596366 0.12733501
-0.111708365 0.036503073 0.12625676 -0.032392588 0.052497733 0.07094893 -0.03772012 -0.11022077
-0.089568324 0.11596813 -0.049731284 -0.06140368 0.02615778 0.09559182 0.0936931 -0.07003882
-0.09681335 -0.05472862 0.06143928 0.09143916 0.072262965 0.12058025 -0.10759972 0.03586746
-0.007110608 -0.027302995 -0.06972623 0.07075773 -0.14397562 -0.0028757744 -0.08295704 0.06530495
-0.06236044 0.09533339 0.001921928 0.01799304 -0.030148359 -0.08932224 0.06604273 0.08294036
-0.049186155 -0.00344084 0.014098416 0.04985226 -0.100537114 -0.083123386 -0.044983782 0.18852201
0.058902495 0.064544894 0.016826121 -0.12599646 -0.027348174 0.048068397 -0.10510226 -0.09178145
0.0908742 -0.054612394 0.11830686 0.028222987 -0.028153297 0.010835539 0.027042536 0.019423712
00000000: 97f5 b6bb 8c0f 133d 17d1 ed3d 11ad a93d
00000010: 906c 16bd 2f4d f73c eb5d 6d3d 4846 c33a
00000020: 5fa1 df3d 748e 8fbd fba3 40bd 408c 293d
00000030: c2be cb3d 20f1 4dbd 086b 52bd 7982 febd
00000040: 45aa c8bd e3aa dabd 724c 0fbd 413d 6cbc
00000050: 75a8 75bd 07a4 203d 2be9 a6bd 7948 7c3d
00000060: 9fb0 ae3d a0cd 85bc 32a7 903d 4ecd 2b3d
00000070: df25 943c f5c2 fa3d c8a6 c9bd 5143 083e
00000080: 9fb1 ebbc f95a d13d 9ca7 8bbc 5953 033d
00000090: b339 07bd 4be5 d6bd 0ad0 11be 0189 23bd
000000a0: dc14 bfbd be35 9d3d f025 8b3d ec3f 6b3c
000000b0: e5c5 aabc 3c8a 19be 07ec 073d 3dab 983d
000000c0: 42ae aabd 4aac 93bd ea64 e1bc 611b f23b
000000d0: 15bf c9bc d303 dd3c eecb 99bc b71e e93d
000000e0: 3a9e 43bd 2944 803d f2d5 9d3b c5e6 a93c
000000f0: b4f7 b33c 9427 d93c be50 943d a3e7 db3d
00000100: 13bf d53c 49b3 e7bb 1336 8d3d 5a5c 983d
00000110: 6ef6 9dbc ce0e 6dbd 467a fbbd cd1d cfbd
00000120: d32f 49bd 0311 aebb 99ce 963d efa1 edbc
00000130: a1c4 90bd 8ea3 b53c 67c2 d03d 20cd b7bd
00000140: c43c b83d 984a 48bc 14ce e63c ece7 cdbd
00000150: cc02 b3bc e31f d7bd c3d2 a43d a487 2dbd
00000160: c718 443d 8d1a 0dbd ec4e afbd 07c2 4ebd
00000170: a014 193d 4e7c acbd 3818 253d 6f3a d63d
00000180: a983 173e ce8e 7bbd 516e a63d 465c 473d
00000190: 7a06 e1bd 2a77 e5bd a229 013d 60d6 bfbd
000001a0: 372b 41bd 2d65 a3bd 9624 c03d 60ed 523b
000001b0: 36c3 843d 2e43 f5bd 6354 ca3d 9a92 bfbd
000001c0: c8eb b43d 4618 33bc aedb 7cbc fcc4 a33c
000001d0: 4b67 df3d e571 debd f46e 96bc f254 8e3d
000001e0: 4c7c d9bc e48f 8ebd 73fb 523c 7f98 b83d
000001f0: 790e ccbd e805 31bd fc18 173d a031 523d
00000200: ec15 813d 251e 053d 2d70 f6ba 743f 6a3d
00000210: 4d7d cfbd ee3c 7ab8 53b9 c93d 824b c0bd
00000220: eff8 91bd 7a46 adbc 75e7 033e 09a5 debd
00000230: 4357 053e 3a62 a73d e9aa 943d d80c 06be
00000240: abb8 c43d 19a8 70bd 49f6 113e a03d 54bd
00000250: f839 f6bd c08e 3b3d 7e37 b33b 977d 2dbd
00000260: d225 943d 72ba 9ebd d324 97bd c277 98bd
00000270: 0029 613d 4893 e03c 79c1 d13d 86d0 ec3c
00000280: 6a8b 9f3d 5a06 8c3a a2e0 a9bc 3243 da3c
00000290: 64ca e03d 4f2d cd3d 89e5 1c3d d2c4 a73d
000002a0: e0ed b1bd a81e d33d e893 e63d d3d2 943d
000002b0: f4dc dfbd a074 d2bd 1ec8 8bbd cf1d 80bd
000002c0: 5424 fa3d 3635 113e a27f 22bd fe16 ec3d
000002d0: eda7 023d 3723 a1bd 37c8 0fbe 3a31 8dbd
000002e0: 2e02 a93c 5330 91bd f302 813d ac83 d93d
000002f0: 2fba 03be ec4c e0bc 9efc 003e 1c64 023e
00000300: 5bc7 e4bd 3f84 153d 7449 013e 17ae 04bd
00000310: dd07 573d ac4d 913d 6a80 1abd 6dbb e1bd
00000320: 996f b7bd b380 ed3d 08b3 4bbd 6d82 7bbd
00000330: d748 d63c a5c5 c33d 2be2 bf3d 8370 8fbd
00000340: 1446 c6bd 1e2b 60bd c1a7 7b3d 7444 bb3d
00000350: 9bfe 933d c7f2 f63d 3e5d dcbd c2e9 123d
00000360: 1a00 e9bb 88aa dfbc a0cc 8ebd 6ee9 903d
00000370: 586e 13be 7d77 3cbb 61e5 a9bd 9abe 853d
00000380: a96d 7fbd 273e c33d 34e9 fb3a 2466 933c
00000390: b1f9 f6bc 94ee b6bd 6941 873d a3dc a93d
000003a0: 6c77 49bd b77f 61bb 0bfd 663c e231 4c3d
000003b0: 67e6 cdbd 983c aabd ea40 38bd ea0b 413e
000003c0: be43 713d 1d30 843d efd6 893c 3705 01be
000003d0: 4709 e0bc 5ee3 443d db3f d7bd eaf7 bbbd
000003e0: 411c ba3d 3fb1 5fbd de4a f23d e533 e73c
000003f0: bea1 e6bc 8b87 313c 4f88 dd3c 7a1e 9f3c

output_layer.bias f4 [20]
0.071092606 0.10902516 0.11078549 0.077749565 -0.07484927 -0.0891202 0.032976117 -0.12354655
-0.08105185 0.11801797 0.097086124 -0.10536241 0.013216068 -0.118403696 0.06338225 0.055207163
-0.0044334633 -0.044891044 -0.056590658 -0.034275435
00000000: 0099 913d 9548 df3d 81e3 e23d 2a3b 9f3d
00000010: 934a 99bd a784 b6bd f711 073d f905 fdbd
00000020: 83fe a5bd 68b3 f13d 17d5 c63d 3fc8 d7bd
00000030: 3588 583c a37d f2bd 8ece 813d e820 623d
00000040: 9646 91bb acdf 37bd 9bcb 67bd 6664 0cbd
