combine_results/results6x5/critic.pkl (torch, 26255 bytes, 6 tensors)

x_layer.weight f4 [64, 9]
000000 f7 31 d5 3e 31 40 07 3f 2f dd d7 be ec f2 18 3f
       0.41639683 0.52832323 -0.42160937 0.5974567
000010 80 01 25 c0 94 bb 4e 3f 42 c9 fc bf d4 28 3b be
       -2.5782166 0.8075497 -1.9748919 -0.18277293
000020 80 59 1e be 7c 1f f1 3e 02 b8 ca 3e 84 ec 75 3f
       -0.15463829 0.47094333 0.39593512 0.9606402
000030 db b1 ab be 61 d1 61 be bf c5 37 c0 37 49 6d bf
       -0.3353413 -0.22052528 -2.8714445 -0.9268984
000040 b5 7b 0b c0 3a 04 ff 3e dd 80 c2 3e 03 63 06 3f
       -2.1794255 0.49807912 0.3798894 0.5249483
000050 1f 61 80 bd c7 b4 69 be 61 85 9d 3f 84 ca 62 3f
       -0.062685244 -0.22822867 1.2306329 0.88590264
000060 41 b3 35 c0 92 7a 7d 3e 7a ac 88 bd 71 60 53 3f
       -2.8390658 0.24753788 -0.06673522 0.8256903
000070 77 43 d5 3e e7 8d 70 bf 09 47 8f bd 2c 98 67 3f
       0.41653034 -0.93966526 -0.06995971 0.9046657
000080 3e 15 bd c0 4d c0 45 3f 46 08 31 3f 68 db 99 bf
       -5.908843 0.7724655 0.6915325 -1.2020082
000090 b0 94 13 bf 5a 9e da 3e 7d d7 07 3e ff ba 8a 3e
       -0.57648754 0.42698938 0.13265796 0.27095792
0000a0 7e 34 a7 bf 74 5f e7 c0 89 69 80 be 55 94 8b 3f
       -1.3062894 -7.230402 -0.25080517 1.0904642
0000b0 27 56 1f 3e 2e 2b 17 c0 3f 2a 0b c0 46 5f a6 be
       0.15560208 -2.3620105 -2.1744535 -0.32494563
0000c0 69 f9 08 3f f5 09 60 3f a3 90 4a bf 1f b4 3e bf
       0.5350557 0.87515193 -0.7912695 -0.7449359
0000d0 76 7f ca bd 36 1a c2 3e 3f 7a 8f bd c7 f7 bd bf
       -0.098875925 0.37910622 -0.070057385 -1.4841241
0000e0 a6 99 3f bf e7 33 5e 3f bb c4 1d bd 1a cd 5d bf
       -0.74843824 0.86797947 -0.038517695 -0.86641085
0000f0 f0 3c be be f4 61 10 3f 6f 74 36 bf 4f 51 4c c0
       -0.37155867 0.56399465 -0.71271414 -3.1924627
000100 4f 72 19 c0 be 22 12 3f 7f 07 6a be 4e 3e 8b be
       -2.3976018 0.5708426 -0.22854422 -0.27195972
000110 d4 05 4f c0 55 fe 8f be 2f 4d 7a 3f a2 b4 c6 3f
       -3.2347307 -0.28123727 0.9777402 1.5523875
000120 a0 d2 b9 bd 88 37 73 bf a1 90 03 3f c4 a2 c7 3e
       -0.09073377 -0.9500661 0.5139256 0.38991368
000130 bc e0 42 3e eb de c4 c0 9f d1 d2 bd 9c c2 c4 3c
       0.19031042 -6.1522117 -0.10293888 0.024018578
000140 e9 86 8a 3c 0c 9c 86 ba 10 0c a4 3b 9d 1f 85 bd
       0.016910033 -0.0010269894 0.005006321 -0.065001704
000150 39 d5 5f be c9 4e 29 be 0f 5e 70 be 8a 2a 82 3e
       -0.21858682 -0.1653396 -0.2347338 0.2542308
000160 04 54 15 3e 1c cf a5 3d 8a fb 7e bf aa 79 de 3d
       0.1458283 0.080961436 -0.9960257 0.10863049
000170 d3 72 08 3f eb 58 9d 3e 6c 4f f0 be 87 33 dd be
       0.5330021 0.30731902 -0.46935594 -0.43203375
000180 87 e9 8c 3f 90 46 2c bd 41 81 73 bf 11 4f 8d bf
       1.1008767 -0.04205948 -0.951191 -1.1039754
000190 fe 09 50 3f e3 99 52 bf 01 25 b8 bd 68 30 82 bf
       0.81265247 -0.8226606 -0.08991433 -1.0171022
0001a0 4e d8 95 3e 92 41 3e bf e1 1a 56 3e bd f8 e4 3f
       0.2926659 -0.743188 0.20908691 1.7888409
0001b0 ea 14 29 bf 61 d5 2d bf 5b a5 3f 3f ef 2d f6 bd
       -0.6604754 -0.67903715 0.7486169 -0.1202048
0001c0 bc da d8 3d 93 d5 49 3f c7 9d 99 3f 6a b0 13 3f
       0.10588595 0.78841513 1.2001275 0.5769106
0001d0 c1 5f 83 c0 f6 31 76 3d da 84 11 bf 23 b8 af 3f
       -4.1054387 0.06010624 -0.5684334 1.3728069
0001e0 db ac 49 bf 82 b3 08 3f 31 a8 38 3c cc ba 20 be
       -0.7877938 0.5339891 0.011270569 -0.15696257
0001f0 18 40 69 3f 65 4b a6 be 05 f5 db 3f f2 a5 25 bf
       0.91113424 -0.32479396 1.7184149 -0.6470634
000200 bf dd a3 3d 73 2e 2d 3f ae 8b 8d bf dd 14 77 bf
       0.08001279 0.67649 -1.1058252 -0.9651621
000210 58 27 47 bd 75 8a ba bf 9b 69 5c bf a7 92 55 bf
       -0.048621505 -1.4573504 -0.8609864 -0.834269
000220 cf e1 e3 3e 58 f4 d8 3d bf fa f1 3d e2 18 14 bf
       0.44508216 0.1059348 0.11815404 -0.5785047
000230 f5 cd 3a be c5 89 b7 bf ef f0 8b 3e 5e 09 39 3f
       -0.18242629 -1.4338919 0.27332255 0.7227992
000240 c8 ce 4e 3d cb 2e 17 be f8 7e 50 be c0 ba d0 3c
       0.05049017 -0.14763944 -0.20360935 0.025479674
000250 83 37 7d be 1a 48 80 be 80 2a 5e be 3c dd e7 bd
       -0.24728207 -0.2505501 -0.216959 -0.11321494
000260 00 1e ca 3c 36 bd 29 3f 51 d0 3b bf 5b b4 9b 3f
       0.024672508 0.6630434 -0.7336474 1.2164415
000270 2b 8e 0c bf e1 93 9d bf 63 01 bf be 5e c9 45 3f
       -0.5490443 -1.2310754 -0.37305745 0.77260387
000280 f7 41 ad be e0 37 a2 3f 0b 08 7c c0 5f 49 07 3f
       -0.3383939 1.2673302 -3.937991 0.5284633
000290 ba 14 4d 3e 44 f0 fc 3b 10 78 d1 be 1a 1c 98 3f
       0.20027438 0.0077190716 -0.40911913 1.1883576
0002a0 df 84 a0 bd d7 13 bd 3f 4e 20 45 bf 23 f8 82 be
       -0.07837843 1.477168 -0.7700242 -0.25579938
0002b0 00 ec 87 bb b0 06 80 3d 76 81 68 be 5b cd 43 be
       -0.0041480064 0.062512755 -0.22705635 -0.19121306
0002c0 46 a0 a3 be 9c 4e ef bd 91 a9 94 3e 78 77 69 3d
       -0.31958216 -0.116849154 0.2903562 0.0569987
0002d0 88 06 3c 3f 72 f9 f9 3e 2e 60 bb 3f cc 4e 49 bf
       0.73447466 0.48823124 1.4638727 -0.7863586
0002e0 75 b9 dc be 4d bf 27 bf 04 02 b3 bf 49 4e 4e 3f
       -0.43110242 -0.65526277 -1.398499 0.80588204
0002f0 ed 6d bf bf 56 42 a1 bf ee 1d d6 bf 6f 3d aa bf
       -1.4955422 -1.2598369 -1.6727884 -1.3299998
000300 31 81 1f 3e d9 b0 87 3f dd c7 a8 bf f5 14 bc 3e
       0.15576626 1.0600845 -1.3185993 0.3673474
000310 a1 6f 46 3f 3f e9 1b be 90 f8 44 3f 30 1c b0 bd
       0.7751408 -0.15225695 0.76941776 -0.08599126
000320 d1 36 45 bf ec 11 c7 bd 6c 12 6d 3f 6b a8 c9 3e
       -0.7703677 -0.09720215 0.92606235 0.39386305
000330 90 17 9b bf 7e ae 86 3f ed f4 37 3e 32 08 7b 3d
       -1.2116566 1.0522001 0.17964526 0.061287113
000340 80 2a c6 bf 71 71 cb 3e b1 c7 7b 3e 6d 08 b4 bf
       -1.548172 0.39734986 0.24587895 -1.4065071
000350 60 e6 fe 3d 9c 07 ac bf 73 26 38 3f e6 da 63 3f
       0.12446284 -1.3439822 0.7193367 0.8900589
000360 ea 74 32 3f c1 72 dc 3e 5a 72 6d 3d 48 9f 22 bd
       0.69709647 0.430563 0.057970382 -0.039702684
000370 6f 58 40 bf 04 54 77 bf 93 4d 50 3f ec 48 fc 3d
       -0.7513494 -0.9661257 0.8136837 0.12318596
000380 84 96 58 3f f2 64 4c c0 81 65 ed bd e9 8e c2 be
       0.8460467 -3.1936612 -0.11591626 -0.37999657
000390 90 04 be 3e b9 93 d7 3e bc ef 86 3e 20 a8 11 bf
       0.37112856 0.4210489 0.26354778 -0.56897163
0003a0 79 55 04 c0 a9 9c 15 3f 7b 4a de be 7e 7a 4e c0
       -2.0677168 0.5844217 -0.434162 -3.2262263
0003b0 f3 f0 08 be 27 1a d6 3d 22 f0 ad bf ec 93 8c 3d
       -0.13373165 0.10454207 -1.3588908 0.06864151
0003c0 5a d4 18 3f a5 40 c8 3f f3 45 55 be d8 e1 26 3d
       0.5969902 1.5644728 -0.20827465 0.040742725
0003d0 db a5 cb 3f 01 ef 84 3f e5 50 7f bf 26 84 38 3f
       1.590999 1.0385438 -0.9973281 0.7207664
0003e0 2d df 78 3f 40 6d 32 3f 9f 06 1f 3f b0 65 23 bf
       0.9721554 0.6969795 0.6211948 -0.6382704
0003f0 69 fc 47 3f 0f 70 b7 bf 29 7a 0d 3e d9 78 32 3e
       0.7811952 -1.4331073 0.13816132 0.17428912

x_layer.bias f4 [64]
000000 cc ec 14 c0 d2 63 00 3c 59 e0 07 3f a9 74 d0 bf
       -2.326953 0.007836299 0.530767 -1.6285602
000010 db 79 b4 c0 98 c5 7e 3f 67 aa 05 c0 f7 5c a1 be
       -5.639875 0.99520254 -2.0885255 -0.3151624
000020 c8 2f 4f c0 e2 2b 9a 3d 63 88 ae c0 5c 06 b9 bf
       -3.2372913 0.07527901 -5.454149 -1.4455066
000030 2f de 92 bf 36 83 63 3f 4d e1 07 3f c8 7f 5c bf
       -1.1474055 0.88872087 0.53078157 -0.8613248
000040 23 a1 5d be 9d 42 62 3e 20 2f 6e bf e0 cd 72 bd
       -0.216435 0.22095723 -0.9304066 -0.05927837
000050 40 47 24 3f 55 1f 08 40 1f 0d 82 3f 39 7d 61 3f
       0.6417122 2.1269124 1.0160254 0.880817
000060 48 45 80 c0 d8 d1 f9 3e 60 7c d2 bf ad 1e 32 be
       -4.008457 0.4879291 -1.6444206 -0.17394514
000070 c8 8f 99 3e 0a 22 b8 be 93 6f 42 3f 69 f2 21 be
       0.2999251 -0.3596347 0.759515 -0.15815128
000080 89 29 1b 3f 24 aa d3 bf 68 ab 20 c0 6d 4d 5f 40
       0.6061025 -1.6536298 -2.5104618 3.4891007
000090 f3 6c db bf c7 a9 99 3f 07 7d 10 c0 5e e8 81 3f
       -1.7142624 1.2004937 -2.257631 1.0149038
0000a0 cb d5 b1 3f dc c6 b0 3f 71 17 51 3e 5a 37 37 3f
       1.389337 1.3810687 0.20419098 0.71568835
0000b0 b4 d3 c8 3d b4 6c 21 3f 9d 83 80 3f 64 cb f6 be
       0.09806004 0.6305649 1.0040165 -0.4820205
0000c0 79 d2 25 3f 5b 66 89 bf 7d a5 af bf a1 be 22 3f
       0.6477428 -1.0734361 -1.3722378 0.63572127
0000d0 02 c8 f4 3f d6 95 f0 3d 89 74 58 c0 56 f1 8f be
       1.9123538 0.11747329 -3.3821127 -0.28113812
0000e0 a2 ff 90 bf 4b a8 b5 bc 0f eb a9 3f 79 26 72 be
       -1.1328013 -0.022174975 1.3274859 -0.23647489
0000f0 65 19 be bf 28 89 12 c0 c4 a1 b3 c0 d3 79 b2 be
       -1.48515 -2.2896214 -5.613497 -0.3485857

h_layer.weight f4 [64, 64]
000000 db 92 5c 3f b0 82 ab 3f b6 bb e7 3e c6 39 22 3f
       0.86161584 1.3399258 0.452604 0.63369405
000010 b2 4c 63 3e 3a ed 6c c0 96 d4 f0 be bf 30 83 c0
       0.22197226 -3.7019792 -0.4703719 -4.0997005
000020 45 f4 86 3e 1f c4 0a 3e 72 f2 aa 3f 14 d3 ac bf
       0.26358238 0.13551377 1.3355238 -1.3501916
000030 65 eb 99 3e f6 d0 36 3f 73 5e 0a 3f 47 77 05 c0
       0.30062404 0.714126 0.5405037 -2.085405
000040 e6 f8 9f 3d 8e ae 1e bf 93 2e 9f 3f 58 80 ed bd
       0.078111455 -0.619851 1.2436088 -0.11596745
000050 1f 38 ee bf f7 e5 95 3f 1d 33 67 be 3f d2 0e 3f
       -1.8610877 1.1710805 -0.22578092 0.5578956
000060 f9 29 cc be 45 fd 09 40 96 5f c7 3e c3 25 9a 3f
       -0.39875773 2.1560833 0.38940114 1.2042774
000070 eb 75 f3 3e e1 07 80 bf 0d 20 db 3d 0c 44 ec 3e
       0.47550902 -1.0002404 0.106994726 0.46145666
000080 1f 86 2f bf ef 0e 6b bf 7e 94 99 bf 50 3f 40 c0
       -0.6856403 -0.9181966 -1.1998441 -3.0038643
000090 81 6c a4 be e0 20 b9 be 86 96 2c 3f dd cc e6 3c
       -0.32114032 -0.36157894 0.6741718 0.028173858
0000a0 a5 34 15 c0 b1 33 6f 3f 38 a1 0c bf 33 0e 78 3f
       -2.3313382 0.9343825 -0.549335 0.96896666
0000b0 0e e0 d3 bd 16 be 46 c0 9b b0 db bf da 6f 6b bf
       -0.103454694 -3.105352 -1.7163271 -0.91967547
0000c0 c0 33 b9 bd b4 22 ef 3d 6e 32 3e bf 5c 3a 44 3f
       -0.09043074 0.11676541 -0.742957 0.7665155
0000d0 3f 9c 47 be a2 51 18 3f e9 da bb bf 19 23 09 c0
       -0.19493197 0.5949956 -1.4676181 -2.1427672
0000e0 6c 84 5f bf 3d c2 5c 3e b8 a9 df be 04 41 4a bf
       -0.87311435 0.21558471 -0.43684173 -0.79005456
0000f0 f7 5a 70 3f 2c b3 7b 3e 94 06 48 be ba 80 4e c0
       0.938888 0.24580067 -0.1953376 -3.2266068
000100 a2 21 81 3e b1 6b 2c bf bd f4 38 3f 8f 9e a1 3e
       0.25220972 -0.67351824 0.7224844 0.31566283
000110 c7 d2 d2 be ee 9c c1 3e 8f 1e a4 bf c8 5b a5 3d
       -0.41176435 0.3781504 -1.2821826 0.080741465
000120 e5 66 b5 be c7 c6 06 3c e7 67 2b bf c6 ee 14 3f
       -0.35430065 0.008226103 -0.6695542 0.5817684
000130 04 7e 8a 3f bd cf a3 bf 83 b5 9e 3e cc f8 50 3f
       1.0819707 -1.2797772 0.30997857 0.81629634
000140 e0 d1 f5 3b ed 3f 09 40 e5 32 75 3d 98 2e b6 bc
       0.0075018257 2.1445267 0.05986299 -0.022239015
000150 f8 f4 de 3f d7 06 54 c0 65 ff 19 be 17 b2 f5 be
       1.7418509 -3.3129175 -0.15038832 -0.47987434
000160 41 70 85 bf cc f3 ad 3e 28 37 41 3c f6 e5 59 3e
       -1.0424882 0.33975065 0.011792935 0.2127913
000170 71 f1 f1 c0 82 4c 9f be 6d 40 35 3f 56 02 4e 3e
       -7.560723 -0.31113058 0.7080143 0.20118079
000180 28 77 b2 be f7 07 3b 3f 60 a2 ed be b6 9e 25 bf
       -0.34856534 0.7305903 -0.46412945 -0.646953
000190 d1 f2 32 3f 06 26 e1 bf 1c a2 9e 3f 3e 3e 66 3e
       0.6990176 -1.7589729 1.2393222 0.22484681
0001a0 1a 27 5e bf 1a 5e 1f bf e3 ba 9b 3f 7a e2 75 bf
       -0.86778414 -0.6225296 1.2166408 -0.960487
0001b0 54 42 c8 bd d0 d4 a9 3d 7a 19 30 c0 7b 25 cf be
       -0.09778276 0.08292544 -2.751555 -0.40458283
0001c0 15 4c b6 c0 56 c8 27 bf 63 74 91 bf 87 d3 bd 3c
       -5.6967874 -0.65540063 -1.1363643 0.023172153
0001d0 c9 17 73 3d ec 4a c3 be ac f8 cb bf 86 b4 1b bf
       0.059348855 -0.38143098 -1.5935264 -0.6082233
0001e0 b5 fb a2 bf e9 36 ec bf b9 0a 84 bf 65 65 5a bf
       -1.2733065 -1.8454257 -1.0315772 -0.85310966
0001f0 0d 20 31 bf f3 0b e9 3e 9b a8 71 3f b1 b2 5a 3e
       -0.6918953 0.4551693 0.94397897 0.21357228
000200 21 2a 1e 3f 0d 55 2e 3e 67 33 25 bf 9e dd 63 3f
       0.61783034 0.17024632 -0.6453156 0.89010036
000210 b3 b1 cf 3e 79 f7 87 3e 41 ab c4 3e 71 2d 3e bf
       0.4056526 0.26555994 0.38411906 -0.7428809
000220 16 11 91 3e b5 c2 0f 3d a6 3a ec 3d ad 9e 4f 3f
       0.28333348 0.035097796 0.11534624 0.81101495
000230 f6 b5 98 bc eb 20 a1 c0 2e e0 74 be 32 64 28 3d
       -0.018641453 -5.0352683 -0.23913643 0.04111118
000240 6a e1 83 3d 5e 0c 0f bf d5 82 96 bd d8 f2 b8 bd
       0.06439479 -0.55878246 -0.07349173 -0.09030694
000250 1d 4a 2c be ee 8c 50 bc af 5d 13 bf 3d c7 27 bf
       -0.16825147 -0.012728913 -0.57564825 -0.6553839
000260 0e ec a4 be 0e 0e d2 be fe 3f 69 c0 99 8a 90 bf
       -0.32211345 -0.41026348 -3.6445308 -1.1292297
000270 e9 03 be 3e 5b ae d6 bf 83 a7 34 bf 61 b7 95 3f
       0.37112358 -1.6771959 -0.705681 1.1696588
000280 ec 45 b3 3f 34 2a 44 be cd 76 4e bf 2f 4d 16 bf
       1.4005713 -0.19156724 -0.80650026 -0.5871152
000290 79 8d bb 3f 32 e7 68 bf ce 05 db be 1c 05 05 bf
       1.4652549 -0.90977776 -0.42777866 -0.5196092
0002a0 12 ec 40 3e 11 96 d8 bf aa a7 19 bf b5 dc 84 3f
       0.18840054 -1.6920797 -0.6002146 1.0379854
0002b0 8f 13 9b 3c 5c c7 7a 3c aa be 0d 3f a7 bf 88 3d
       0.018930225 0.01530632 0.55369055 0.0667718
0002c0 6a 5f a9 bf 05 ba be 3f 8a ca 30 c0 b0 99 05 bf
       -1.3232243 1.4900519 -2.762362 -0.52187634
0002d0 2c 52 f0 3e 8f ba c5 3f f9 f3 78 3e 15 5d 25 3f
       0.46937692 1.5447558 0.24311818 0.64595157
0002e0 e6 9b 1a 3f 04 f9 5f c0 49 9c 12 3e f7 6f 0c 3f
       0.6039413 -3.4995737 0.1431743 0.54858345
0002f0 98 fd ba bf 05 a0 aa be ad 96 60 bf 57 81 98 c0
       -1.4608641 -0.3332521 -0.87729913 -4.7657886
000300 cb d0 46 3d 5c f1 68 3e 47 08 3e bf 2a 72 d5 be
       0.048538964 0.22748321 -0.7423138 -0.41688663
000310 37 01 53 3f 9b ea 5a bf b8 5d 46 bd f3 bf 6e 3f
       0.8242373 -0.8551423 -0.04842922 0.9326164
000320 ae 36 b1 bf 57 33 ab 3d 73 9c 16 3f 9c 50 63 3e
       -1.3844812 0.08359402 0.5883247 0.22198719
000330 c0 88 35 bf 92 56 cb 3e bb 00 75 3f ea c7 30 bd
       -0.7091179 0.39714485 0.9570424 -0.043159403
000340 64 ae 39 3d 42 52 c6 bf 13 64 6c 3e 7a d4 f2 bd
       0.045332327 -1.5493853 0.2308505 -0.11856933
000350 c3 26 ef be 23 ce 51 c0 77 47 52 bf f4 6c 43 3e
       -0.4670926 -3.2782066 -0.82140297 0.19084531
000360 06 26 f1 bd 2a 63 74 bf 36 fc 4a be 49 30 7c bf
       -0.117748305 -0.9546381 -0.19822773 -0.9851118
000370 18 dd 5b 3f ec 7d 86 bf 89 ce 69 3f 53 f7 9e 3e
       0.8588424 -1.0507178 0.9133077 0.31048068
000380 7e 8e 8c 3e b3 ad 9b be 7b 44 a7 3e 07 42 df 3e
       0.27452463 -0.3040596 0.32669434 0.43605062
000390 50 28 b0 3e ae 2b 8a bf 11 89 07 40 74 82 92 bf
       0.34405756 -1.079458 2.1177409 -1.1446061
0003a0 f2 59 76 c0 58 1a 45 bd 45 63 32 be ac f6 00 40
       -3.8492398 -0.048120826 -0.17420681 2.0150557
0003b0 27 a2 3c be 7a c2 2e 3e 35 cb c3 bf d3 18 23 bf
       -0.18421231 0.17066374 -1.5296389 -0.63709754
0003c0 27 c9 77 3f 5d 7b 16 be 6e d3 a6 be a2 2d 52 bf
       0.9679131 -0.14695497 -0.32583183 -0.8210088
0003d0 9f 00 37 3e dd 6a cc 3c 96 2f b7 3f b2 4e 84 bf
       0.1787133 0.0249533 1.4311397 -1.0336516
0003e0 60 c2 b7 be 5e e3 83 be bb 61 20 3d ed bb 16 bf
       -0.35890484 -0.25759405 0.039155703 -0.588805
0003f0 43 cf 00 3e 7b be d3 3e 87 fc 68 3f cd df 79 3f
       0.12579064 0.41356263 0.91010326 0.9760712

h_layer.bias f4 [64]
000000 53 53 11 c0 d1 41 f0 bd e7 97 80 bf a3 5b 68 bf
       -2.2707107 -0.117313035 -1.0046357 -0.90764827
000010 0c f9 d0 3e 54 20 69 3f 6d 89 98 bd 5a b2 81 c0
       0.40815008 0.91064954 -0.07448087 -4.0530214
000020 b4 d0 a3 bf d5 33 4d 40 70 f4 d0 bd 2a f5 49 3d
       -1.2798066 3.2062886 -0.10202873 0.049306072
000030 fe 63 2b 3f 95 e7 5e be 9d cf 48 be 4d 46 28 c0
       0.6694945 -0.21768029 -0.19610448 -2.6292908
000040 2a a4 f2 3c 43 4e 9d 3e 7f 9a 19 40 5e 41 d2 3f
       0.029619295 0.3072377 2.4000547 1.6426198
000050 67 f7 ad 3f 37 10 ad bf 69 53 c3 be ed b3 ae 3f
       1.3591126 -1.3520573 -0.38149574 1.3648659
000060 63 96 57 3c 84 24 13 be 6d 08 d3 bf c1 e5 36 be
       0.013158414 -0.14369398 -1.6486946 -0.17861082
000070 3f 3b 24 3f f2 7c 74 bd 48 4e 56 bd 52 b3 f1 bd
       0.641529 -0.05968947 -0.05232075 -0.11801781
000080 70 21 24 bf ea 51 e9 be 56 58 b5 3e 75 6a 97 bf
       -0.6411352 -0.45570308 0.35418957 -1.1829363
000090 9e e8 41 be 98 a6 56 bf 56 f7 b8 bf 4d 7c 3a be
       -0.18936393 -0.8384795 -1.4450481 -0.1821148
0000a0 2b 09 98 bf bf 5b 0d 3e dd 0c c6 be a5 13 b1 3e
       -1.1877798 0.1380453 -0.3868169 0.345853
0000b0 8e 4e c5 bf 00 02 00 be 4d 19 8e be 47 19 23 c0
       -1.5414598 -0.12500763 -0.27753678 -2.5484178
0000c0 40 34 34 bf a5 5b ab 3f da 31 a3 be 58 ff 26 be
       -0.7039223 1.3387343 -0.3187397 -0.16308343
0000d0 8b 7b bd 3c c7 d4 ff bc 84 db b1 be 76 54 c4 bf
       0.023130199 -0.03122939 -0.3473779 -1.5338275
0000e0 75 a0 3d bf b0 85 56 bf 29 f9 8f c0 e3 de 13 c0
       -0.74072963 -0.8379774 -4.499165 -2.310479
0000f0 30 92 17 3f 10 26 a5 be 80 5c 56 3f 26 ff 0a 3f
       0.5920744 -0.32255602 0.83734894 0.54295576

y_layer.weight f4 [20, 64]
000000 24 b1 cd bd 51 4f 92 bd b5 38 b9 bd ac ed aa bd
       -0.100435525 -0.07144035 -0.09044019 -0.083461136
000010 f5 83 d4 3d 51 81 8c 3d 25 43 9a 3c 30 d3 a1 3d
       0.10376731 0.06860603 0.018830845 0.07901609
000020 9f 3e 8c bd d4 27 88 3d 5d ad 88 bd 60 bf ff 3d
       -0.068478815 0.066482216 -0.066736914 0.12487674
000030 d1 cf a9 bd 8e 70 6a 3d c1 d9 81 3a d7 fd 13 be
       -0.08291591 0.057236247 0.0009906815 -0.14452301
000040 5d ab a7 3d d0 44 15 be f2 14 81 3d 24 e0 87 3d
       0.08186982 -0.14577031 0.06302823 0.06634548
000050 ab 48 1b be 7e 12 76 3d 49 e9 4e be 82 b4 83 3d
       -0.1516444 0.06007623 -0.20206179 0.064309135
000060 2d 0e 8f 3d ac a2 ec 3c 54 18 82 bd 7a e8 cf bc
       0.06985126 0.028886162 -0.063522965 -0.025379408
000070 c5 49 89 bd bf 7c 0b 3d 4b 76 29 be fd a3 df 3a
       -0.067035235 0.034054514 -0.16549031 0.0017062422
000080 71 e3 df 3d 0e 6a b1 bd ee 83 ee 3d a1 60 19 be
       0.10932053 -0.086628065 0.11646257 -0.14978267
000090 eb 77 bf 3d e9 76 07 be 41 ee 8f bd c6 32 cc bc
       0.093490444 -0.13228954 -0.07027865 -0.024926554
0000a0 93 c0 72 be f9 9d 37 be 10 bc d9 bd e2 5c 5a 3d
       -0.23706274 -0.17931356 -0.10631573 0.053311236
0000b0 60 fa c0 3d 08 80 a2 bd ea a1 03 be c3 e7 e8 bd
       0.09422755 -0.07934576 -0.12854734 -0.1137233
0000c0 ab 4a 6e 3d 58 2c ef bd ad f7 18 3e 56 6b 5f bc
       0.058176678 -0.1167838 0.14938231 -0.013636431
0000d0 a8 73 5d 3d d1 11 a6 3d 0c 71 ae bd 1f c6 42 be
       0.054065377 0.08108867 -0.08517656 -0.1902089
0000e0 17 fa d9 bd be af d6 3d 68 5b f1 3d 94 08 ce 3d
       -0.10643404 0.10482739 0.117850125 0.1006023
0000f0 f4 e6 02 3e 3d 57 d2 3d ce d2 9b 3d ff 82 a5 3d
       0.12783414 0.10270546 0.07608567 0.08081626
000100 27 b1 cd bd 54 4f 92 bd b7 38 b9 bd ad ed aa bd
       -0.10043555 -0.07144037 -0.090440206 -0.08346114
000110 f6 83 d4 3d 52 81 8c 3d 6b 35 58 bd 30 d3 a1 3d
       0.10376732 0.068606034 -0.05278532 0.07901609
000120 a0 3e 8c bd d4 27 88 3d 56 11 e3 3d 60 bf ff 3d
       -0.06847882 0.066482216 0.11087291 0.12487674
000130 d1 cf a9 bd bc a6 04 be e8 a4 4d 3d d7 fd 13 be
       -0.08291591 -0.12954229 0.050206095 -0.14452301
000140 5f ab a7 3d d2 44 15 be f2 14 81 3d 24 e0 87 3d
       0.08186983 -0.14577034 0.06302823 0.06634548
000150 ab 48 1b be 7d 12 76 3d 49 e9 4e be 82 b4 83 3d
       -0.1516444 0.060076226 -0.20206179 0.064309135
000160 f4 cd a0 3d 6d 1f 63 3d 54 18 82 bd 3b e8 00 bb
       0.078517824 0.05544989 -0.063522965 -0.001966967
000170 c5 49 89 bd ef 08 87 bc 4b 76 29 be 22 dc b0 bd
       -0.067035235 -0.016483752 -0.16549031 -0.08635737
000180 71 e3 df 3d 0f 6a b1 bd ef 83 ee 3d a1 60 19 be
       0.10932053 -0.08662807 0.11646258 -0.14978267
000190 eb 77 bf 3d e9 76 07 be 41 ee 8f bd fc 6d c6 bb
       0.093490444 -0.13228954 -0.07027865 -0.0060555916
0001a0 93 c0 72 be fb 9d 37 be 10 bc d9 bd e2 5c 5a 3d
       -0.23706274 -0.17931359 -0.10631573 0.053311236
0001b0 60 fa c0 3d e3 2e b7 3d eb a1 03 be c5 e7 e8 bd
       0.09422755 0.0894449 -0.12854736 -0.113723315
0001c0 ab 4a 6e 3d 5a 2c ef bd ae f7 18 3e fd e7 b0 bb
       0.058176678 -0.11678381 0.14938232 -0.005398749
0001d0 a9 73 5d 3d 86 17 67 3d 0d 71 ae bd 21 c6 42 be
       0.05406538 0.056418918 -0.085176565 -0.19020893
0001e0 17 fa d9 bd be af d6 3d 69 5b f1 3d 95 08 ce 3d
       -0.10643404 0.10482739 0.11785013 0.10060231
0001f0 f4 e6 02 3e 3d 57 d2 3d ce d2 9b 3d 00 83 a5 3d
       0.12783414 0.10270546 0.07608567 0.08081627
000200 25 b1 cd bd 53 4f 92 bd b5 38 b9 bd ac ed aa bd
       -0.10043553 -0.07144036 -0.09044019 -0.083461136
000210 f5 83 d4 3d 52 81 8c 3d d5 42 8d 3d 31 d3 a1 3d
       0.10376731 0.068606034 0.06897513 0.0790161
000220 9f 3e 8c bd d4 27 88 3d 99 26 a7 bd 61 bf ff 3d
       -0.068478815 0.066482216 -0.08161659 0.124876745
000230 d1 cf a9 bd 18 34 3f bd 2f 9b 14 bd d8 fd 13 be
       -0.08291591 -0.04668054 -0.036280807 -0.14452302
000240 5e ab a7 3d d2 44 15 be f2 14 81 3d 24 e0 87 3d
       0.081869826 -0.14577034 0.06302823 0.06634548
000250 ac 48 1b be 7d 12 76 3d 49 e9 4e be 82 b4 83 3d
       -0.15164441 0.060076226 -0.20206179 0.064309135
000260 d6 f1 d6 3c 77 f6 f0 bc 55 18 82 bd 72 32 15 be
       0.026238363 -0.029414399 -0.06352297 -0.14570025
000270 c5 49 89 bd 32 c4 9f 3d 4b 76 29 be b6 76 d9 bd
       -0.067035235 0.07801093 -0.16549031 -0.106183454
000280 71 e3 df 3d 10 6a b1 bd ee 83 ee 3d a0 60 19 be
       0.10932053 -0.08662808 0.11646257 -0.14978266
000290 ea 77 bf 3d ea 76 07 be 42 ee 8f bd f5 69 b6 bd
       0.09349044 -0.13228956 -0.07027866 -0.089069284
0002a0 93 c0 72 be fa 9d 37 be 10 bc d9 bd e1 5c 5a 3d
       -0.23706274 -0.17931357 -0.10631573 0.053311232
0002b0 5f fa c0 3d e5 19 10 be ea a1 03 be c4 e7 e8 bd
       0.094227545 -0.14072378 -0.12854734 -0.11372331
0002c0 ab 4a 6e 3d 59 2c ef bd ae f7 18 3e 22 21 52 bd
       0.058176678 -0.116783805 0.14938232 -0.05130113
0002d0 a8 73 5d 3d 4f c2 93 bc 0e 71 ae bd 21 c6 42 be
       0.054065377 -0.01803699 -0.08517657 -0.19020893
0002e0 16 fa d9 bd be af d6 3d 68 5b f1 3d 94 08 ce 3d
       -0.10643403 0.10482739 0.117850125 0.1006023
0002f0 f4 e6 02 3e 3d 57 d2 3d cf d2 9b 3d 00 83 a5 3d
       0.12783414 0.10270546 0.07608568 0.08081627
000300 26 b1 cd bd 54 4f 92 bd b7 38 b9 bd ae ed aa bd
       -0.10043554 -0.07144037 -0.090440206 -0.08346115
000310 f6 83 d4 3d 53 81 8c 3d 84 b2 0c be 31 d3 a1 3d
       0.10376732 0.06860604 -0.13739973 0.0790161
000320 9f 3e 8c bd d4 27 88 3d 6f c4 6e bd 61 bf ff 3d
       -0.068478815 0.066482216 -0.058292802 0.124876745
000330 d1 cf a9 bd 62 57 88 3d 13 bd 8a 3d d8 fd 13 be
       -0.08291591 0.06657292 0.06774344 -0.14452302
000340 60 ab a7 3d d1 44 15 be f4 14 81 3d 25 e0 87 3d
       0.08186984 -0.14577033 0.063028246 0.06634549
000350 ab 48 1b be 80 12 76 3d 4a e9 4e be 82 b4 83 3d
       -0.1516444 0.060076237 -0.2020618 0.064309135
000360 a7 f4 26 bb 57 65 74 3d 54 18 82 bd 9a 95 4a bd
       -0.0025475414 0.059666958 -0.063522965 -0.049459077
000370 c7 49 89 bd 48 4c 0a bc 4b 76 29 be b2 e8 f8 bc
       -0.06703525 -0.008441038 -0.16549031 -0.030384395
000380 72 e3 df 3d 11 6a b1 bd ee 83 ee 3d a1 60 19 be
       0.109320536 -0.08662809 0.11646257 -0.14978267
000390 eb 77 bf 3d eb 76 07 be 42 ee 8f bd 5a af ba bd
       0.093490444 -0.13228957 -0.07027866 -0.09115477
0003a0 94 c0 72 be fc 9d 37 be 12 bc d9 bd e1 5c 5a 3d
       -0.23706275 -0.1793136 -0.10631575 0.053311232
0003b0 61 fa c0 3d 8c 5c 94 bc eb a1 03 be c5 e7 e8 bd
       0.09422756 -0.018110536 -0.12854736 -0.113723315
0003c0 ac 4a 6e 3d 5a 2c ef bd af f7 18 3e 15 2e e2 bd
       0.05817668 -0.11678381 0.14938234 -0.11043946
0003d0 a9 73 5d 3d cb b1 79 bd 0d 71 ae bd 21 c6 42 be
       0.05406538 -0.060960572 -0.085176565 -0.19020893
0003e0 16 fa d9 bd bf af d6 3d 69 5b f1 3d 95 08 ce 3d
       -0.10643403 0.1048274 0.11785013 0.10060231
0003f0 f4 e6 02 3e 3d 57 d2 3d cf d2 9b 3d ff 82 a5 3d
       0.12783414 0.10270546 0.07608568 0.08081626

y_layer.bias f4 [20]
000000 e5 92 51 3e e7 92 51 3e e7 92 51 3e e5 92 51 3e
       0.20466192 0.20466195 0.20466195 0.20466192
000010 e7 92 51 3e e7 92 51 3e e6 92 51 3e eb 92 51 3e
       0.20466195 0.20466195 0.20466194 0.20466201
000020 e8 92 51 3e e5 92 51 3e ea 92 51 3e e9 92 51 3e
       0.20466197 0.20466192 0.204662 0.20466198
000030 ea 92 51 3e e6 92 51 3e eb 92 51 3e e8 92 51 3e
       0.204662 0.20466194 0.20466201 0.20466197
000040 ea 92 51 3e ea 92 51 3e eb 92 51 3e e6 92 51 3e
       0.204662 0.204662 0.20466201 0.20466194
