ce_results/6x5_grid/1_time/best_weights_tryout.npy (npy, 2688 bytes, 1 tensors)

array f8 [40, 8]
00000000: adc2 573f ae5a 28c0 820b c7d7 1ae2 29c0
00000010: 426f 441e 08be 12c0 6e18 8243 cd48 24c0
00000020: 6d98 0c7f 33c0 1bc0 ce36 3667 19c1 19c0
00000030: 67ca f7eb 3f3e 0140 ec3e 2b99 2496 1e40
00000040: c51b 047f 6d41 13c0 2411 a65b 26be 1cc0
00000050: bc08 dac3 7f68 30c0 466f 175c d766 17c0
00000060: d69b 2227 2113 1040 ec1c d85e b897 07c0
00000070: 3013 9736 9ef7 2840 c802 b4ed 9c4c 29c0
00000080: dc08 aa2d ff33 26c0 048e 2a67 74d0 20c0
00000090: 928a 930f 2961 2cc0 76cd c67b a641 2bc0
000000a0: 1a06 b00b d695 0040 781d af4a 7ead 1040
000000b0: 38f4 bf42 facc fdbf 60fc f64f 4904 d4bf
000000c0: 30db d514 9fa3 0fc0 639d de74 5137 18c0
000000d0: 82be a73f 92f4 21c0 8464 a5f0 283b fbbf
000000e0: 1818 49a7 9f8a e43f 228a d194 cd86 09c0
000000f0: cb5a 42e1 987a 1340 53ce 94bf 262c 19c0
00000100: b03b b3f8 a9fd 19c0 8ba8 005f 3b9f 1fc0
00000110: 4611 e96a 7d75 27c0 5dd5 030c cb32 18c0
00000120: b006 aeae 90b6 0140 5a7f b431 c7a8 00c0
00000130: 8664 f7d4 cdec 1340 d829 d164 912c 11c0
00000140: f4cd f669 1886 1ac0 97a8 3272 0b74 1cc0
00000150: 5434 5ad5 d168 26c0 84b4 e5f3 fd09 15c0
00000160: f3eb e2c3 3382 f53f f897 7bd8 c086 c5bf
00000170: 9cce f8c8 59cf 0e40 ff0d eae5 82f5 17c0
00000180: 23f6 5a7c 99d5 1ac0 6c2e 3297 8271 1bc0
00000190: 9431 652e ad19 28c0 3b6b 4e10 3760 18c0
000001a0: 11a1 528e f150 0240 2e30 1676 289b f2bf
000001b0: 7c18 0a85 4f02 0d40 bb41 b39c bb5f 14c0
000001c0: 211a 83f1 55f1 19c0 c638 f16d 65d1 1bc0
000001d0: 8f4f 0c8a 34ec 25c0 cf9c 932f 10bb 0fc0
000001e0: b4b3 463b 2dac 0740 2baf 9e0a 15b5 0ac0
000001f0: a56c eb1b bf77 1340 9416 aea7 f7ac 14c0
00000200: 3ddf 6b62 1634 19c0 b704 66af 37bb 1bc0
00000210: 2a96 0041 a3a4 26c0 687f 7b97 c2a9 14c0
00000220: 4f52 39a8 5104 fe3f 4403 3fe3 144b ebbf
00000230: 1086 2313 48cf 0d40 1da6 f644 6652 16c0
00000240: 0229 3069 52f0 19c0 47af b84a 679e 1bc0
00000250: 7c54 b6b1 4f5e 26c0 1fab a0f6 9fa2 12c0
00000260: 1990 c3e6 8af6 0340 d755 fa55 3ed7 00c0
00000270: 5614 6dd7 04ab 1040 bbd7 fac4 a1fe 14c0
00000280: 412d bae9 d093 19c0 08cb ae85 227c 1cc0
00000290: 2efe 859b 442a 26c0 5091 0dae ba7e 12c0
000002a0: 337d 1a71 a78b 0340 f571 a4e4 ba14 02c0
000002b0: a7d0 f2dd b3e0 1040 71c2 6619 04be 14c0
000002c0: 7e53 3af3 1e8c 19c0 7f3e 5401 d9ab 1ac0
000002d0: 454e 3451 a6a4 26c0 051e 4944 836e 11c0
000002e0: 506b bb96 5185 0540 e9da 0415 835a 0ac0
000002f0: 097a 3265 bff0 1340 dbe5 24c4 da58 15c0
00000300: 52bd e2f4 6127 19c0 3b6e 4251 bf10 1cc0
00000310: dd7f 056c 1371 26c0 e79f 0b10 aedb 13c0
00000320: 8bba 6c25 735d 0140 cd29 35a5 d419 ffbf
00000330: 9896 5364 8301 1040 15c1 d929 22ac 14c0
00000340: 4288 b887 e643 19c0 2b51 2828 6cef 1ac0
00000350: ea0c 0b48 8381 26c0 6ad1 99d2 1955 12c0
00000360: 4ad0 d2f6 7b24 0340 43b1 3364 e692 03c0
00000370: 8c00 508e 7cd4 1140 4ef3 4d9a da81 15c0
00000380: 4ee4 3457 e674 19c0 6a11 422a 074c 1cc0
00000390: 07f2 b2c5 a872 26c0 200e 4b0a adb3 13c0
000003a0: b356 7e6a 927f 0240 a7fd 53b8 8964 01c0
000003b0: 9891 8f6d 2459 1040 3dcb 8b13 6d53 14c0
000003c0: 0753 7f27 0d59 19c0 56bd 8e76 d0dc 1bc0
000003d0: 6e3c 044f bfa0 26c0 d687 2bc6 bdee 13c0
000003e0: 335d 4df6 5def 0140 b608 6f74 d2e3 00c0
000003f0: b89d f3df a2ad 1040 cb72 f5c2 85ad 14c0
00000400: 8899 1bac 8e3c 19c0 d029 392f f4be 1bc0
00000410: aeec c5ba 46a2 26c0 4f10 1de0 fafe 13c0
00000420: 6c42 e948 a85a 0140 5c3a 1692 ceda febf
00000430: d024 4233 e37b 1040 cadb b28d 31ef 14c0
00000440: 66aa d73c df35 19c0 29ce 96b6 59cf 1bc0
00000450: 8e7e 9833 16b0 26c0 c094 d99f 3b4a 14c0
00000460: 7dfa af8c a533 0140 b055 8da6 bd4c ffbf
00000470: 40b4 758a 5478 1040 d5a5 7c63 efc4 14c0
00000480: 49a4 0c7b 1955 19c0 7546 dd0f c13a 1cc0
00000490: 908d d91c 28a1 26c0 fb99 f0e0 b76c 14c0
000004a0: f762 6833 8185 0140 c47c 61ed bdc8 ffbf
000004b0: 9a08 c9d8 cd3e 1040 8365 c896 b769 14c0
000004c0: 631e 0e2d 6460 19c0 0db5 ea91 c20d 1cc0
000004d0: 7e87 9365 2385 26c0 a718 c3cc 2fcf 13c0
000004e0: 1ba0 a56e 4f23 0240 b987 c4d1 52df 00c0
000004f0: a8ed 25fb 5c72 1040 74b7 6cdf 258b 14c0
00000500: 7c50 f49b d54c 19c0 c244 c903 8bec 1bc0
00000510: e669 074b 0294 26c0 7f26 c5e0 a8ee 13c0
00000520: 64c9 8652 abcd 0140 6796 eade 0784 00c0
00000530: 17f4 f31c 1675 1040 ef48 1163 30a5 14c0
00000540: ed00 00ce ab68 19c0 116c 673c ff50 1cc0
00000550: 6b61 6f8a aa75 26c0 d8ed 3f93 39f0 13c0
00000560: aae1 07eb e518 0240 af36 3dfb 1371 00c0
00000570: edde 98f1 7125 1040 2a29 8a7c 1a5c 14c0
00000580: 6e32 d82d 9c54 19c0 95f0 435e 49e5 1bc0
00000590: 42eb 370b a190 26c0 3871 db42 46ce 13c0
000005a0: 5475 555d 30f6 0140 bb42 14da 8cb2 00c0
000005b0: c654 489f f88d 1040 08b6 2b3b d7ad 14c0
000005c0: 2144 1220 cf51 19c0 0f02 179a dada 1bc0
000005d0: ed78 f29b f09b 26c0 5af3 453c 8fdd 13c0
000005e0: faa3 c2f4 4cf3 0140 37ce 52e5 bbf6 00c0
000005f0: 7cf0 5561 2aa1 1040 2283 97c3 dfac 14c0
00000600: 43cc a5b4 1056 19c0 389f ed8a d1f5 1bc0
00000610: 0316 2ad1 a591 26c0 49d6 74ac 6de2 13c0
00000620: 453a 08d1 67e6 0140 e101 ed6c 4eab 00c0
00000630: 6b58 72c6 d67e 1040 c8f9 760a 1fa1 14c0
00000640: a56b 43c4 7056 19c0 2fe3 2cbf def9 1bc0
00000650: ed74 5949 2f94 26c0 f368 2899 c9f2 13c0
00000660: db29 df00 ccd1 0140 f72a 496b 318a 00c0
00000670: 4109 177d e975 1040 1ec6 14e5 6299 14c0
00000680: dc8c 0fe5 5453 19c0 ae93 e86c 2df0 1bc0
00000690: cf4e 7d62 3894 26c0 a3e1 de90 78e7 13c0
000006a0: 3106 a984 4fdb 0140 4c20 b636 c4a3 00c0
000006b0: 9862 1268 cf7e 1040 7d9e 0a06 2fa7 14c0
000006c0: 9b55 0823 9e5b 19c0 052c 34d1 040c 1cc0
000006d0: 17b0 dac8 8595 26c0 32c1 e21d b907 14c0
000006e0: f714 b64a 0bc7 0140 97cd eeab 3e56 00c0
000006f0: 3d3c e0cc 1d5f 1040 5ce3 32db 5487 14c0
00000700: c958 6e6a 9f56 19c0 8783 1676 26f8 1bc0
00000710: 5afb b1a8 7c97 26c0 104d 0af1 41f7 13c0
00000720: 1716 6ee4 cdd8 0140 66a9 f2a0 518c 00c0
00000730: dfda 0a39 bd74 1040 5865 8684 8f95 14c0
00000740: c1d6 f269 bd53 19c0 04f1 fe75 aff1 1bc0
00000750: 9a57 5f18 6295 26c0 0be8 3675 88ed 13c0
00000760: 726f 0313 9edb 0140 0b8d 824a 4ea8 00c0
00000770: 8606 fd25 ad7f 1040 45db b08d 879f 14c0
00000780: 4949 e7d5 6656 19c0 ee26 2d35 97f4 1bc0
00000790: 6c2f 369d 8896 26c0 0103 0184 36f4 13c0
000007a0: 09b6 0411 ccd3 0140 fd52 1f6e 6091 00c0
000007b0: ac21 6640 8177 1040 13ad bcc1 3a9d 14c0
000007c0: 76f2 c8db 0a53 19c0 25a4 bea9 a2ed 1bc0
000007d0: 6357 a4c0 2d98 26c0 f230 aca8 97f2 13c0
000007e0: 9bef 0535 4ad4 0140 cb95 95bd 9d98 00c0
000007f0: 3783 af67 ff7e 1040 48c4 a071 93a0 14c0
-12.17711065241141 -12.941611044929008 -4.685577843596379 -10.142191037779607 -6.937696442741168 -6.438573467906918 2.155395358561964 7.646623986496461
-4.8138942571885694 -7.185693199168131 -16.408199539881693 -5.850430907183016 4.018681155669546 -2.949082127542729 12.483628946248785 -12.649634769653304
-11.10155623150461 -8.407138084358856 -14.189766394386684 -13.628223293321508 2.0731621659367763 4.169427077234438 -1.8625433547415593 -0.31276161965428706
-3.9548932674182637 -6.0540216694711 -8.977678288675865 -1.7019433403241075 0.6419218318267239 -3.1908218027540594 4.869723815607993 -6.293116563279528
-6.497718702258609 -7.9054999202873075 -11.729472485495204 -6.049602687581992 2.2141431471689756 -2.0824111827095466 4.981253936385775 -4.29352338339455
-6.630952506722213 -7.113324913351014 -11.204725901852875 -5.259757815260972 1.34428764837389 -0.1681748444599973 3.8512454701356784 -5.98975714913422
-6.708593314220283 -6.86084972614081 -12.050149392941229 -6.093960051332767 2.289523231407778 -1.1628803837547923 3.6261282342630334 -5.093489120903935
-6.4856794105785704 -6.954488485191353 -10.961338342669277 -3.966339465801503 2.95907064733043 -3.3384190396954145 4.86693996071259 -5.168913478851795
-6.300866639932619 -6.932829609491072 -11.321558028527836 -5.165781371033383 1.876054436802537 -0.8529152334595911 3.726211690446469 -5.580468251756909
-6.484689372600998 -6.904690902254351 -11.184201768405039 -4.658813336903022 2.4953821209364944 -2.1050993649503016 4.167010656387978 -5.248663976488326
-6.394351627338723 -7.121225441735767 -11.08255468378692 -4.623759002283194 2.4431904636582202 -2.260122095364063 4.219436138100867 -5.185562512299485
-6.386836815295167 -6.667819996611455 -11.32158139956949 -4.357922617876743 2.6900970245309637 -3.2941953317743935 4.985105115133146 -5.336772026779239
-6.288459612216075 -7.01635481803856 -11.220851302787134 -4.96453118391944 2.1706297801786767 -1.943806310026605 4.001477782823393 -5.168099073329604
-6.316309090269046 -6.733811023197897 -11.252954722737247 -4.583106318128879 2.392814567860147 -2.4467284992480542 4.457506393082564 -5.376810465820041
-6.3641599298508265 -7.074246082575295 -11.223943880170749 -4.925464783507351 2.312290985088873 -2.17409080511398 4.087053024184932 -5.081470780761092
-6.336964242120991 -6.965638973676809 -11.313959569232079 -4.983145805746934 2.241878437267269 -2.1112412544617554 4.1695666305963 -5.1694555723485776
-6.30913800161796 -6.936478364814732 -11.3169458738906 -4.999003888868244 2.1692662903008593 -1.9284196573750227 4.120983887588594 -5.233587469140682
-6.302609396613297 -6.952490666346002 -11.343919384350809 -5.072493074088186 2.150218104477345 -1.9562355524006811 4.117509997781838 -5.192319445116898
-6.3331050135103135 -7.057377097969597 -11.314759160572777 -5.1061701914645665 2.1901878372412926 -1.9865092537582294 4.061332118291967 -5.103239398938402
-6.344132141100633 -7.013437538099663 -11.260035681017822 -4.952330779464467 2.2672413486761918 -2.109044684229016 4.111682819547617 -5.135886660585914
-6.3250336044185325 -6.980999049338779 -11.289079994826306 -4.983066093476395 2.2254244277366286 -2.0644681372967173 4.114342167272318 -5.161317394189822
-6.352217882871838 -7.0790986478923665 -11.229816747757203 -4.984594631935998 2.262157283952736 -2.0552138927513037 4.036567473369115 -5.089944787914911
-6.332627025910012 -6.973912690064158 -11.282478666854903 -4.951439900058453 2.2452094356255348 -2.087182716124827 4.138643730916732 -5.169766354124938
-6.329891682734371 -6.963724525121974 -11.304570077274969 -4.966366712350316 2.2437991258525445 -2.1204755702872506 4.157388230200123 -5.16882234203584
-6.334048102015973 -6.990057154420178 -11.284468208682489 -4.97112149680249 2.2375027018199796 -2.0836456785038853 4.123866177300537 -5.157344974052144
-6.334414545645733 -6.994013774027549 -11.289423267526638 -4.987097161380222 2.2274398868660064 -2.067477071924596 4.11514850094892 -5.1497913164071445
-6.3313785353413685 -6.984548284240118 -11.289492681309097 -4.9760458599124915 2.232085262687882 -2.0799640917139524 4.123838068124904 -5.163265318296564
-6.339470431693736 -7.011737126168559 -11.29203632039575 -5.007542101826674 2.2221895062272057 -2.042111724114601 4.092887116609799 -5.1321596383866925
-6.334592497811351 -6.992334218143589 -11.29587294743185 -4.991462484601712 2.2308614584060353 -2.0685150693945387 4.114003077781233 -5.146055288985131
-6.331777244040212 -6.9860208927968905 -11.291764032019092 -4.981965857959959 2.232235096494997 -2.0821805783358562 4.124683946197939 -5.155790532988992
-6.334376661531061 -6.988858061676849 -11.294011032928857 -4.988489210664512 2.228416569668074 -2.070984707194269 4.1167039930664195 -5.153544451847909
-6.331096109523619 -6.982065822850051 -11.297224063931656 -4.9869066577050365 2.228657163852359 -2.0745196162485846 4.124021167838513 -5.156812453687117
